data/model.pkl (torch, 12188 bytes, 10 tensors)

encoder.fc1.weight f4 [32, 27]
00000000: 2f4f 46be 7e3c 0c3e f906 333e 8f39 0d3e
00000010: c5c3 f1bd 1d2d cdbd 2d94 33be ca3c 17be
00000020: 2c9c cfbc 5091 2bb9 ed0c 283d 93f4 2bbb
00000030: 6fa5 763d 310f 9a3c 6a34 e2bc b6c5 cdbd
00000040: 6ff9 30be d6c8 e5bd 67aa 243e 3523 5b3c
00000050: d3ce 0e3e 67cb edbd 7ca8 21bd 224b 31be
00000060: 40a6 10be 3774 29be 1a5c b9bd 7b3c 233c
00000070: 63b4 14bd 153b 173e 7b18 2a3e 20e0 37bd
00000080: 5b5e 3ebe ed33 bdbb 399d c43b 482f 7fbd
00000090: 2845 513d b823 3ebe 29d8 83bc 48c4 083e
000000a0: 92f7 1dbd 2293 943d 281e ecbd e59b 423d
000000b0: ffa9 13be 6861 16bd e941 2cbe 62d5 39be
000000c0: d14a 34be 77e6 983d e27f aebd ff73 37be
000000d0: f6ff 183e 0f68 583d ce77 183e c8c7 ae3c
000000e0: 73ba 753d ec19 2abe 5544 05bd e341 e1bd
000000f0: cb5c cfbd 0ceb a43d 839a 8c3d 7133 763d
00000100: 1756 dabd 6e95 1d3e 92fe f93c 557e 1b3e
00000110: 6bce e9bd 1d06 44be 1e01 49bd 8548 33be
00000120: 622e cf3d 80b1 d4bd bf34 f03d 3f40 4b3e
00000130: c9e7 493e b870 de3c 5d9a 73bd e991 f33d
00000140: 461a 1ebe e2c9 34be 7093 163d 55fd 5fbc
00000150: 2092 243e 8386 24bd 0444 c13d 1cef d63d
00000160: 4cc9 1fbd 05d3 d43d a621 eb3d 3f80 2f3e
00000170: 0ec9 203e bba8 6abc 75a7 c5bc 9207 5f3e
00000180: 9013 a7bd 1d6a 823d 90dd 23bd 590f 273e
00000190: 539d 01be dc62 1c3d 6faf e53c c167 323e
000001a0: 70ed 0c3e 3951 20be 2fc8 89bd f2e8 1b3d
000001b0: 2a76 1a3e f659 32bd d1fd 5abe 228f 0ebe
000001c0: 1c2c 673d 5095 5dbe 8d95 1a3e c68f 0ebe
000001d0: a89f f13c 620c 4b3d 4fc4 7bbd fe0a d1bd
000001e0: 4266 333e 3f0c debd fae7 b13d 5315 c9bd
000001f0: a4b1 333d 1563 0a3d 128a e43d 46e7 e6bd
00000200: 5ebc 1ebe bf7a ccbd 56e9 e6bd 4521 4ebe
00000210: 402a 873c 6b2d 3ebd e3e8 58be a835 4e3d
00000220: c6aa 193e ff4a 4cbe 8b6c 38be 9f37 eebd
00000230: f15e d83d 4f83 1b3e 5375 323e fe62 f9bc
00000240: f483 68bd 7ced 06bd ac7a 043e 2813 cbbc
00000250: f651 f7bd c1f2 0abb 934d 9abd 95dc 41bd
00000260: ae8e 82bd 4a1e 013e e057 b4bb 4dd5 28bd
00000270: e9b4 bc3d 80ca 49bd 1f65 babd 4228 083d
00000280: fc34 a0bc 5073 043e 14f6 95bd 680c 6a3d
00000290: 1cb9 833d 2d2a 3c3c e5de 1c3e 056f 06be
000002a0: 3de8 0b3e de80 eabd 3b5e df3d 49cc b33d
000002b0: 0c1b b5bd 5887 cb3d 1bbe 0b3e 24fd 69bc
000002c0: e42a cb3c 5e71 ee3d 74ca 1a3c 7051 443e
000002d0: a465 91bd 745a 033d a474 79bd 6687 11bd
000002e0: 4b8e 5cbd 2d0f 07be 27ae 0c3e e037 11bd
000002f0: 71d5 ff3d faec e7bd 71d6 123e 9401 81bd
00000300: da65 febd 5200 fcbc 69e5 00be 3c6c 4dbc
00000310: 537b 69ba 68b2 53be d9a0 b5bd 6e23 30be
00000320: 254e 38be 25b2 d03d b7af f6bd 9298 f33d
00000330: 2df9 31be 6fa8 2dbe ae6b ffbd 465f b0bd
00000340: d808 103d a8ea c63d 1c8b 223e 1a2e c23d
00000350: 7d19 073c 9007 233e b166 fe3c 5f83 0b3e
00000360: ef8c 55bd d049 44bd e73d 1cbd d7d6 523d
00000370: 9f5b fabc 2e41 3cbd 3d7b 99bd ed74 333e
00000380: f501 483d aaac c7bd 15b8 11be d55a 11bd
00000390: 17fa bd3b 54c2 2c3e 9bc6 183e 501f 623d
000003a0: 77cd 613d 2cb3 0dbd f15e f1bd dfc8 fe3d
000003b0: 4db2 bebd b538 d5bd 7567 0a3e 19bd 173d
000003c0: a46a 1a3c 9ee1 1dbe dfb5 13bd a0a9 143e
000003d0: 8d91 673d 7b4d 1d3d 275e 793d 9c86 193e
000003e0: 8821 973d 0cb0 5cbc 2395 31be cc96 f23c
000003f0: 4713 123c 727c 4bbc 4cfc b2ba f6e0 25bd
-0.19366144 0.13694951 0.17483129 0.13791488 -0.11804918 -0.1001837 -0.17536993 -0.14769283
-0.025343023 -0.00016361964 0.041027952 -0.0026238307 0.060216364 0.018806072 -0.027612884 -0.10047476
-0.17282651 -0.11219947 0.16080628 0.013375093 0.13946085 -0.116110615 -0.03946732 -0.17313817
-0.1412592 -0.16548239 -0.0905077 0.00996315 -0.036304843 0.14768632 0.16610901 -0.044891477
-0.18590681 -0.0057740123 0.0060001877 -0.06230095 0.051091343 -0.18568313 -0.016094284 0.13356125
-0.03856618 0.07254626 -0.11529189 0.047511954 -0.14420317 -0.036713988 -0.16822018 -0.18147805
-0.17606665 0.07465833 -0.085204855 -0.17915343 0.14941391 0.052833613 0.14889452 0.021335497
0.059992265 -0.16611451 -0.03253587 -0.10998895 -0.10125121 0.08052644 0.06865408 0.060107652
-0.106609516 0.15389034 0.030516896 0.1518491 -0.11416324 -0.19142957 -0.04907333 -0.17508133
0.10116269 -0.10385418 0.117288105 0.19848727 0.19717325 0.027153358 -0.059473384 0.118930645
-0.1543971 -0.17655137 0.0367617 -0.013671239 0.16071367 -0.040167343 0.09436801 0.10494825
-0.03901033 0.10391811 0.11481027 0.17138766 0.15701696 -0.014322455 -0.024127701 0.21780232
-0.08158028 0.06367896 -0.04000622 0.16314448 -0.1265767 0.038180217 0.028037755 0.17422391
0.1376245 -0.15655984 -0.06727635 0.03806395 0.15084139 -0.043542825 -0.21385886 -0.13921788
0.05643855 -0.2163899 0.15096112 -0.13922033 0.029495075 0.049572356 -0.06146651 -0.10207175
0.17519477 -0.108421795 0.08686824 -0.098185204 0.043870583 0.0337859 0.11159147 -0.11274581
-0.15501544 -0.099843495 -0.11274974 -0.20129879 0.016499639 -0.046430033 -0.21182589 0.05034414
0.15006551 -0.19950484 -0.18010156 -0.11631703 0.10564984 0.15186809 0.17427568 -0.030442711
-0.056766465 -0.032941326 0.1293742 -0.024789408 -0.1207618 -0.0021201822 -0.07534327 -0.047329504
-0.0637487 0.1260921 -0.0055036396 -0.041219044 0.092141934 -0.049265385 -0.091013186 0.033241518
-0.019556515 0.12934613 -0.07322326 0.057140738 0.06431791 0.011484665 0.15319403 -0.13128288
0.1366281 -0.11450361 0.10906645 0.08779199 -0.088430494 0.09937924 0.13646738 -0.014281545
0.024800725 0.11642717 0.009447683 0.19171691 -0.070994645 0.032068685 -0.060902253 -0.035529517
-0.05384664 -0.13189383 0.13738309 -0.035453677 0.124918826 -0.113244966 0.14339615 -0.06299129
-0.124217704 -0.030761871 -0.12587513 -0.012538012 -0.00089066214 -0.20673525 -0.0886857 -0.17201015
-0.1799856 0.101902284 -0.12045234 0.11894335 -0.1738021 -0.16958784 -0.1247171 -0.08611922
0.035164684 0.09712726 0.15873379 0.094814494 0.008245823 0.15920854 0.031054826 0.13624333
-0.052136358 -0.047921956 -0.038144972 0.05147442 -0.030561266 -0.045960598 -0.07494209 0.17525072
0.04882999 -0.0974973 -0.14230378 -0.035487015 0.0057976353 0.16871005 0.14919512 0.055205643
0.055127587 -0.0345947 -0.11785687 0.12440657 -0.09311352 -0.10411207 0.13516028 0.037045572
0.009424839 -0.15418097 -0.036062118 0.14517832 0.056535292 0.03840397 0.060880806 0.14992756
0.073794425 -0.013469707 -0.17342047 0.029612921 0.008915729 -0.012419807 -0.0013655513 -0.040497743

encoder.fc1.bias f4 [32]
00000000: 9299 6d3d 1d51 babd 5a41 96bd 2c48 1bbe
00000010: 50b3 55be 323a 7abd d9fd 30be 9f6d fd3d
00000020: a160 0c3d 4b29 ca3d 4ab1 d33d fb8f 4b3e
00000030: d38e 2c3d 11b6 313e 2ef5 1f3e 65b8 b2bd
00000040: 15a5 303e 8196 373e cd5b 343e b410 c9bd
00000050: 9274 173e ca74 f8bc 5900 5e3c 63e7 6f3c
00000060: 1060 083c e860 263e 2336 af3d c26b 10be
00000070: ee5c 48bd bd54 3dbe e6c9 cabd 43ae 9cbd
0.058007784 -0.090975024 -0.073366836 -0.1516425 -0.20869184 -0.061090656 -0.17284335 0.12374424
0.03427184 0.09871157 0.103365496 0.19879143 0.042128395 0.17354609 0.15620872 -0.08726577
0.17250474 0.17928506 0.17613144 -0.09817639 0.14790562 -0.030329127 0.013549888 0.014642569
0.008323684 0.16247904 0.08555248 -0.14103606 -0.04891675 -0.18489356 -0.0990179 -0.07650425

encoder.fc21.weight f4 [4, 32]
00000000: 5c53 64bd fee9 45bd 1750 e43d cce2 68bc
00000010: de4c 64bc 13c9 dcbd d0b1 10be eeed a03c
00000020: 1a7b f3bd 4652 c13c bd10 9cbd 7f91 103e
00000030: 1d6e 183e a056 163d f371 193e 0cb2 a03d
00000040: a96e f1bd da32 5bbc ac84 253e 0fa4 b13d
00000050: eea1 153e d081 b0bd 58cd c6bd 8ce2 643d
00000060: de42 313d 7cc1 093e cc43 703d e8aa 313d
00000070: dbb8 b73d 1c92 debc 0e97 eebd 0b2b ffba
00000080: 096f e4bd 8598 4ebc cd7f 76bb 853b aa3d
00000090: 8bb0 733d 1484 11be 90e5 253e a812 bf3c
000000a0: b7cc f63c 1319 33be 6b7d 153e a06f e3bd
000000b0: e0c1 cfbd 5f0f 09be b8a5 51bd 336f eabd
000000c0: 761e 80bd ce02 213e a36d 0b3e 706b 05be
000000d0: 26da ed3d d2f3 183e f0d4 e23d 17a0 863c
000000e0: 4033 053d 5b03 c53d 7c56 353d c5d6 023b
000000f0: d9e2 653d 3897 153e 254e e6bd 2043 21bc
00000100: 7c47 eabd 3049 47bd 7c1b ac3c e31b a83d
00000110: 9036 ec3d df15 c03d 36f4 193e 1533 f7bd
00000120: 85d3 a9bd c29d aabd dc2f d6bd 5420 28be
00000130: 1d80 c13d e62a 2a3e cd37 a53c bc67 b0bd
00000140: 2298 1a3e 89a7 c8bd 6480 11be 65e5 09be
00000150: 3a7e a0bc 74d7 07be 1e85 b43d f0de 05be
00000160: 27b5 94bd c5a9 6c3d b0a9 a43d 471a ccbd
00000170: ad9d ea3d b2bd 183d 3b98 06be b651 6a3d
00000180: 0b8e 11be ff5b 263d d3d3 913d 2899 d23d
00000190: 4c12 56bd 8f40 4b3d 12a0 ec3d b55e c5bd
000001a0: 4a8c af3b 76de 143e e43e 07be bc3d 8c3d
000001b0: 998f aa3c 56ba aebc f155 d13d c1dc fe3d
000001c0: 4ef1 573d 9311 0ebe 37b0 34be dc67 0d3e
000001d0: 3e9a fabd 0c96 1f3e ae44 fabd 8638 8bbd
000001e0: 0ce1 db3d 52a0 4cbe 9edb 3ebc 2790 04be
000001f0: aa22 09bb a258 d4bd 36b1 fabd 1f1b cf3d
-0.05574356 -0.048318855 0.111480884 -0.014214229 -0.013934342 -0.10780539 -0.1413033 0.019644704
-0.11888714 0.023598801 -0.0762038 0.14118002 0.14885755 0.036703706 0.14984874 0.0784646
-0.11788685 -0.013378823 0.16163892 0.0867387 0.14612553 -0.0861851 -0.09707135 0.055880114
0.04327666 0.13452715 0.058658406 0.04337588 0.08970805 -0.02716928 -0.11649905 -0.0019467784
-0.11153991 -0.012609606 -0.0037612796 0.08312134 0.059494536 -0.1421054 0.16200852 0.023324326
0.030126913 -0.17490034 0.14598624 -0.11105275 -0.101444006 -0.1338477 -0.051183432 -0.11446991
-0.0625581 0.15723726 0.13616042 -0.13029265 0.11613874 0.1493676 0.11075771 0.016433759
0.03251958 0.09619781 0.04427193 0.0019964438 0.056124542 0.14608467 -0.11245374 -0.009842664
-0.11439416 -0.04865378 0.0210092 0.08208444 0.115338445 0.093791716 0.15034565 -0.1207029
-0.08292297 -0.08330871 -0.10458347 -0.16418582 0.09448264 0.16617927 0.02016821 -0.08613536
0.15097097 -0.0979758 -0.14209133 -0.13466413 -0.01959144 -0.13265783 0.088144526 -0.13073325
-0.072611146 0.057779092 0.08040178 -0.099659495 0.114558555 0.037290283 -0.13144009 0.057206832
-0.14214341 0.040615078 0.071204804 0.102831185 -0.052263543 0.049622115 0.115539685 -0.096372046
0.0053573 0.14537987 -0.13207585 0.068477124 0.020820426 -0.021329086 0.1022147 0.12444449
0.05272036 -0.13873892 -0.17645346 0.1380915 -0.122364506 0.15584582 -0.12220131 -0.0679789
0.10736284 -0.19983032 -0.0116490405 -0.12945615 -0.0020925202 -0.10368468 -0.122408316 0.10112595

encoder.fc21.bias f4 [4]
00000000: bb19 a8bd 1703 90bd ddc6 ba3d 87ca 5bbd
-0.08208033 -0.07031839 0.091199614 -0.053659942

encoder.fc22.weight f4 [4, 32]
00000000: 27d4 2b3d 5286 533c 3dcf bfbc 5f3d 96bc
00000010: cd22 e0bc afee 563d 469c d2bc 8f4b e8bd
00000020: c4f5 d4bd 0329 023e 1212 e23d 40f0 5bbc
00000030: d614 ba3b ad75 e6bd 5edc a8bd 5af0 a8bb
00000040: f820 d73d e729 073e ce36 673d 8595 d43d
00000050: c521 8abd 4e7f eabd 13f5 aebd 580c 033e
00000060: 7428 303e 9ef8 11bd ea3a 48bc 5002 c1bd
00000070: 1161 bb3d d162 57bd 5690 483d 05c6 683d
00000080: f98f 923c 3c50 02be 53b2 ae3c 2deb 5cbb
00000090: 6266 9c3d 3bac b9bd 4c9f 0e3d 750f 2abe
000000a0: 6ed0 ae3d 371e 1f3e bdfd 853c d766 99bc
000000b0: bd84 e93d a4d1 c9bd 0576 333d a1a3 143e
000000c0: af85 07bd c939 edbd 08c5 93ba 5360 01be
000000d0: 781a 7bbd ac4d e03c 47fd 9cbd 6649 85bc
000000e0: 5ba8 14be 6082 1d3d ed9a b4bb d74b 653d
000000f0: 2616 bcbd 1a5b e23c 8e52 55bd 687d da3d
00000100: 0794 343e 1922 873d cd41 873d b414 9ebd
00000110: 368d 5b3d a4e2 0b3e d2cb 453d c395 913d
00000120: 4382 9a3d ad91 81bb 2308 aebd 31c8 913d
00000130: fc7d 803d 49e9 0abe 8a8d 903c 7f85 f53d
00000140: d787 fdbc b111 babc df49 7dbd d5be 65bc
00000150: 689d debc c9e7 37bd e973 b3bb b837 34bd
00000160: bcb7 fa3d 81dd f43d aa2c f0bc ae3d 243e
00000170: 76b2 d53d 84ac 8f3d dc1d f4bd 9396 1c3e
00000180: d2d2 41bc 54cb b0bd 6090 14be 9833 aebd
00000190: 55d9 d3bc 859d d2bd dccc 043e 5ddf 4e3d
000001a0: f20c 1b3d 0431 253e 811c 433d 618c 043e
000001b0: 98a1 54bc a2b3 bc3b 8332 f9bd 55c3 0bbe
000001c0: cdd7 9ebc 7e4c 47bd 78a0 74bd bb99 babc
000001d0: 1cc9 e53d a35d ad3d f1cf 0bbd 3b0a f8bd
000001e0: 2d4e f43b b1b6 543c a80f 6dbd 70e3 1dbe
000001f0: 446b 2e3e 2310 28bd d7e0 84bd c54d ebbd
0.04195037 0.012910442 -0.023414249 -0.01833981 -0.027360344 0.05247372 -0.025709283 -0.11342537
-0.103984386 0.12710957 0.11038603 -0.013423979 0.0056787534 -0.112529136 -0.08245157 -0.0051556053
0.10504335 0.13199578 0.05644875 0.10380081 -0.06744722 -0.11450063 -0.08542838 0.12797678
0.17202932 -0.03563749 -0.012221077 -0.09424269 0.09149373 -0.052584473 0.048965774 0.05682947
0.017890917 -0.1272592 0.021325266 -0.0033709512 0.076367155 -0.090660535 0.034819886 -0.16607459
0.085358486 0.1553887 0.016356343 -0.018725796 0.11402271 -0.09854439 0.043813724 0.14515544
-0.033086475 -0.11583287 -0.001127393 -0.12634401 -0.06130454 0.027380787 -0.07665496 -0.01627035
-0.14517348 0.038454413 -0.0055116327 0.05598053 -0.09183912 0.027631331 -0.052080683 0.106684506
0.17634593 0.065983005 0.066043474 -0.077187926 0.053601466 0.13660675 0.04829008 0.07108643
0.07544377 -0.0039541335 -0.08497646 0.071182616 0.062740296 -0.13565554 0.017645616 0.11988353
-0.030948563 -0.022713514 -0.061838027 -0.014022549 -0.027174667 -0.044898782 -0.005476464 -0.04399845
0.12242076 0.11956311 -0.029318172 0.16039154 0.10434429 0.070153266 -0.11919758 0.15291815
-0.011830049 -0.08632532 -0.145082 -0.085059345 -0.025860468 -0.10283951 0.12968773 0.050505985
0.037854142 0.16131979 0.047634605 0.12944175 -0.01297798 0.0057587186 -0.121678375 -0.13648732
-0.019390011 -0.048656933 -0.059723347 -0.022778383 0.11219999 0.084651254 -0.034133855 -0.12111326
0.0074556083 0.01298301 -0.05787626 -0.15418792 0.17033106 -0.041031014 -0.06488197 -0.11489443

encoder.fc22.bias f4 [4]
00000000: 4b43 3cbe 9e4a f1bd c32c e8bc fc8b 873d
-0.18385045 -0.1178181 -0.028341657 0.06618497

decoder.fc1.weight f4 [32, 4]
00000000: 3da9 a53d 1469 993d 74cf 7ebc 1637 82bd
00000010: 8820 4cbe 9958 14be 0717 fbbe f79e 993c
00000020: 27cf 52bd 7e3d dabe 3cf2 13be 8386 e8bd
00000030: ce5b c73e 33c6 e1be bbc6 b43e a479 22be
00000040: 939a 3f3e b4be 553e b590 943e 8842 6c3d
00000050: 6504 4a3c 2433 4dbd d57c debe f6aa 0b3e
00000060: 656e 98be 7ae5 8ebd 3e50 f2bd c9d5 be3e
00000070: 481b d33d 4501 92be 53e3 d73e f9b0 5d3d
00000080: 80c7 653e eed4 80bc 5100 cebe 5170 673d
00000090: d9e4 ef3d c97c 63be 7d87 813e 2c2e a5be
000000a0: b2fa e03e 8833 7d3e b552 eb3d 565a 87be
000000b0: b55c 2a3e fcba 7bbe 98c9 57bd acb8 9f3e
000000c0: fe9a a1bd 99c0 d73e f1a5 82be 96f7 c03d
000000d0: 2dd1 d5be 6bba 1e3e b80c 653e 1cbf 593e
000000e0: c5b8 3bbe 8856 563d 73ff cf3c 9d14 ea3e
000000f0: 9f1c e43e 3167 b93e 68d0 b6be b6c9 ec3d
00000100: b467 853e e968 b7be daa9 ea3e 2f49 d6bd
00000110: 7d1e 323e f09f c5be f3af c0be c444 e5be
00000120: 1ce2 d93e 4077 c3be f5e3 2b3e 5097 443d
00000130: 5673 7d3e 720a a73e 2d24 a73e 9217 b2be
00000140: d0d0 0cbe 7432 c3bd ddd3 b3be 4b41 1b3e
00000150: 463a 81be b0e6 223e e1cf eb3e 0211 bf3e
00000160: ce32 cfbe 872f ebbe c4d2 fabe c0ca 57be
00000170: e2d7 a1be ae95 0bbe a03f 603e eb6d cfbd
00000180: b732 b2bd 31b0 023e c154 873e 37a7 a1be
00000190: bdcf fabe e6b6 573e cea4 f93e 10dc 693e
000001a0: 420e 5bbe fb75 933e 44ca dcbe 3615 6d3d
000001b0: 2316 c83d 3581 873d 27ff 9ebe 5d1d 1f3e
000001c0: 90ae b9be 29fd e93d aea1 80be 6cb6 943d
000001d0: 726b bf3e 1837 eabe 652d f4bd 242f 46be
000001e0: 351f 8fbd b322 2e3e 6176 d73d 9e94 8dbd
000001f0: d142 103e d6db 80be dbd1 44be 74d3 333e
0.0808892 0.07490745 -0.01555239 -0.06358163 -0.19934285 -0.14486922 -0.49041006 0.018752558
-0.051467087 -0.4262504 -0.14447874 -0.11353781 0.3893723 -0.44096527 0.3530787 -0.15866715
0.18711309 0.20873529 0.29016653 0.057680637 0.012330149 -0.0500976 -0.43454614 0.13639435
-0.29771724 -0.06977363 -0.11831711 0.3727248 0.10307938 -0.28516594 0.42165622 0.054123852
0.22439384 -0.015726533 -0.40234616 0.056503598 0.11713571 -0.2221557 0.25298682 -0.3226179
0.43941265 0.24726689 0.114903845 -0.26436108 0.16636927 -0.24583048 -0.05268249 0.3119558
-0.078908905 0.42139128 -0.25517228 0.09422223 -0.4176115 0.155008 0.22368133 0.21264309
-0.18332203 0.052328616 0.025390362 0.45718852 0.44553086 0.3621154 -0.35705876 0.11561911
0.26055682 -0.35822228 0.4583271 -0.104631774 0.17394443 -0.38598585 -0.3763424 -0.44779027
0.4255532 -0.38176918 0.16786177 0.047995865 0.24751028 0.32625157 0.32644787 -0.34783608
-0.1375153 -0.095311075 -0.35122576 0.15161626 -0.25239772 0.15908313 0.46057037 0.37317663
-0.40468448 -0.45934698 -0.48988926 -0.21073437 -0.31610018 -0.13631317 0.21899271 -0.10128387
-0.08701079 0.12762524 0.2643185 -0.31572887 -0.48986617 0.21065864 0.48758548 0.22837853
-0.21392158 0.2880095 -0.43123066 0.057881556 0.09769847 0.06616441 -0.3105404 0.15538545
-0.36265993 0.114252396 -0.25123352 0.07261357 0.37386662 -0.45745158 -0.11922721 -0.1935392
-0.06988374 0.17005424 0.10520626 -0.06913112 0.14087988 -0.25167722 -0.19220679 0.17561132

decoder.fc1.bias f4 [32]
00000000: fbc4 e13e 2328 bcbe 4788 1a3e ca0c b3be
00000010: cf6b cc3e 2f66 d1be 90da e0bd a7d3 b83d
00000020: ce1a 9dbe 4cf5 19be 92d3 3abe 416f 933d
00000030: e54e d2be f4dc d13e 3563 513e 2dfd f23e
00000040: 1caf a43d eed7 873d f28e a63d 434a ca3e
00000050: bf0e 953e 01c5 89be 3753 7c3d e3d5 ab3e
00000060: b03a aabe 3b81 3ebe 11c2 77be e841 ccbe
00000070: 85ec dbbe 57e7 823d eb21 1ebe 5cf8 febd
0.44095597 -0.36749372 0.15091048 -0.34970695 0.39926 -0.40898272 -0.109791875 0.090247445
-0.30684513 -0.1503498 -0.1824477 0.071989544 -0.41075817 0.40988886 0.20448 0.47458783
0.08041212 0.06632982 0.081327334 0.39509782 0.29112813 -0.26908115 0.061602797 0.3356162
-0.332479 -0.18603985 -0.24195124 -0.39894032 -0.42953888 0.06391781 -0.15442626 -0.124497145

decoder.fc2.weight f4 [27, 32]
00000000: edd9 353e 02aa 2b3d e62f 153d c162 0a3e
00000010: daf7 d8bd ab72 44bd 2bd4 893b 620e 51bd
00000020: 753d 0f3e 4d35 92bd d758 443e d0d7 af3d
00000030: 3732 04be f3d0 b9bd 1b28 dcbd 1ae3 503e
00000040: 1ef9 1c3d 7430 133d f2da 0c3e e1e3 69bd
00000050: 4536 dd3d d110 7abd 29a8 ac3d 9831 9cbd
00000060: d889 40bd f4e1 01bd 7e8c 8fbd b1be ef3d
00000070: 0399 533d 3ff3 053d 4469 b6bd fc8e 013e
00000080: e41e a9bd 901e 43bd 8b5e e83d 63ad a83c
00000090: d451 b0bc 83b8 00be e909 683c b4b5 323e
000000a0: 3d7f bd3d 04e9 b73d e5d1 38bc 8ac9 c53c
000000b0: 06a0 75bd 0471 0a3e 45a4 fcbd cda9 a83c
000000c0: 4866 3a3d 9a7e 4cbd d819 bdbd b8ab 693c
000000d0: 2ec8 80bc d162 963d fad4 663d a5e9 24be
000000e0: 6be5 15bc 3911 123d 7450 093e 6053 f5bd
000000f0: 51dc d73d 6818 ffbd bff2 5cbd 7c7b d73d
00000100: 8e63 853d 6e96 90bd 17fe 643e f413 423e
00000110: 9351 223c 4f72 05be f769 d0bd 08c1 47bd
00000120: 38b5 f7bd ce9d d3bd 3ad3 d23c ad80 1c3d
00000130: 366c c2bd 49ad 473d 93fe 773e 10a8 383e
00000140: 974a fd3c ff0b f13c b3c2 07bd 597d 48bd
00000150: 9b0f 8d3d 4d9c 8d3d 8849 53bd e2b4 fb3d
00000160: fecb 01be d673 a93d 0564 863d 9b5d 1d3e
00000170: 8cf1 cc3d 9795 adbd 1165 0d3d d97f eb3b
00000180: a74b 213c 6e5a f0bc e33d 19bc f2d3 1f3e
00000190: 9ac8 10bd c16f db3d 8145 31be adab 37bc
000001a0: d2df 8d3d 688d 3cbd d985 fa3d a3ea 34bd
000001b0: 65ac 5f3d a87a 80bd 6983 133e e949 223c
000001c0: 9f8d e83d f74c 65bd 55a4 9d3d d832 8dbd
000001d0: 0127 f23d 13e0 10bd 114a 25be 897f 2ebd
000001e0: bd95 25be b510 17be 2060 8c3b a426 d53c
000001f0: 6336 143d de0d b73d 97be 313e b148 8dbd
00000200: 881d 923c 15a6 1bbd 8279 4a3d 857e af3d
00000210: 3e73 c5bd e163 0dbe 9115 6d3d 3db0 223e
00000220: 3e06 993d 9618 2f3c a424 0ebd 65cf 64bc
00000230: a6e1 a5bc df39 0abe 211d 83bd f268 0dbe
00000240: 5a48 13be 974a 493d 3f47 413d 3b89 7e3c
00000250: ea61 873d c344 85bd fcb6 a1bc 154b cb3d
00000260: c309 07be 9701 9bbd bed2 f3ba aaad 1fbe
00000270: b91f 303e 5aeb dd3d 6f7e 163d c75a c5bd
00000280: ef3b 8d3d 370f 503c f235 1c3e e0b6 00bc
00000290: dcd2 f9bb 8b73 25be 22c6 1e3e e7b1 a03b
000002a0: 88df 033e 8440 b2bd 747f 373d c460 dfbc
000002b0: d620 c1bc cb55 063d 46e4 29bd e77a aa3d
000002c0: 89c6 663c 684a 3e3d 0a1c 153e 1ac2 f8bb
000002d0: 0957 51bd b648 ffbd 529c d93c 45f4 91bd
000002e0: f744 693d a164 98bc 675c dcbd 43d7 d6bd
000002f0: 25b6 13bd 6179 0ebe c122 85bd 1c11 2a3d
00000300: 4d7b 87bd 6228 66bd c56d bebd a65a 0ebe
00000310: ec50 4d3d 68d6 c4bd c2e0 873d 924d c33d
00000320: c588 243e 8d4e 163e c980 acbd f7d8 343e
00000330: 37dd 2b3e 7d06 8c3d 66bc 67bd acc6 9e3d
00000340: 9392 e93d 49f0 8cbc 188c 8abd 11f0 943c
00000350: 12cd 81bc e424 b93d 4899 8abd f3e5 af3d
00000360: 5c35 0d3e a5d9 e6bc e3b7 1cbe 5c0a 2abe
00000370: 81fc 48bc 46c8 9abd b614 983d 048e e13c
00000380: 08ae 7fbc a822 cf3c c276 f63d 02d2 013e
00000390: 4ff4 16bc a692 193d 9f8a 853d c457 dc3c
000003a0: faac 353e 1299 0dbe e811 95bc 7f5f 8b3d
000003b0: 0d69 2e3d b179 953d 1743 053e 2df7 e7bc
000003c0: 9c12 34be 030c 6abc e5f6 71bc 07a1 b03d
000003d0: c4b9 813c 37f7 c93d dc32 423d 4f2a 20be
000003e0: eb66 b63d 3431 303d d31f 0e3e 0a0d 563d
000003f0: b177 e2bd 040a 9c3d 7cb0 1ebd 7f30 01be
0.17758913 0.04191018 0.036422633 0.13514234 -0.10594149 -0.04796092 0.0042062006 -0.051039107
0.13988288 -0.071390726 0.19174515 0.08586085 -0.1290978 -0.09073057 -0.10749837 0.20399132
0.038323514 0.03593488 0.13755396 -0.057102088 0.10801367 -0.061051194 0.084305115 -0.07626647
-0.047006458 -0.031709626 -0.07009219 0.117062934 0.051659595 0.03270268 -0.089067966 0.126522
-0.08257845 -0.04763657 0.11346158 0.02059049 -0.021523394 -0.12570386 0.014162519 0.17452127
0.092527844 0.08979991 -0.0112805115 0.024143953 -0.059967063 0.13519675 -0.123360194 0.02058878
0.0455077 -0.049925424 -0.09233445 0.014262132 -0.015720453 0.073430665 0.056355454 -0.16104753
-0.009148936 0.035660956 0.13409597 -0.11978793 0.10540069 -0.12455827 -0.05394244 0.105216
0.06513129 -0.07059942 0.22362553 0.18952924 0.009907144 -0.13031887 -0.10176461 -0.048768073
-0.120951116 -0.10332833 0.025735486 0.038208652 -0.09493296 0.048749242 0.24218206 0.18032861
0.030919356 0.029424665 -0.033144664 -0.048947666 0.06887742 0.06914578 -0.051583797 0.1229036
-0.12675473 0.08274047 0.06562046 0.15367739 0.10007009 -0.084757976 0.034520213 0.0071868715
0.009844697 -0.029339995 -0.009353134 0.15608194 -0.03534756 0.10714675 -0.1731167 -0.011210364
0.06927456 -0.046033293 0.12232561 -0.04416908 0.054607768 -0.06273395 0.14405598 0.009905317
0.11355137 -0.055981603 0.076973595 -0.06894463 0.11823846 -0.035369944 -0.16141535 -0.042602096
-0.16170402 -0.14752467 0.00428392 0.026019402 0.03618468 0.08938192 0.1735786 -0.068986304
0.017836347 -0.038000185 0.049432285 0.085690536 -0.09641121 -0.13807632 0.057881895 0.15887542
0.07471894 0.010687014 -0.034702912 -0.013965462 -0.0202492 -0.13498639 -0.0640204 -0.13809565
-0.14383069 0.0491434 0.047187086 0.015535648 0.066104725 -0.06507256 -0.019740574 0.0992643
-0.13187318 -0.075686626 -0.0018602235 -0.15593591 0.17199601 0.108359054 0.03674167 -0.09636455
0.06896197 0.01269894 0.15254954 -0.007856101 -0.0076240133 -0.16157357 0.15505269 0.00490402
0.12878239 -0.08703712 0.044799283 -0.027267821 -0.023575228 0.032796662 -0.041477464 0.08324223
0.01408542 0.046457678 0.14561477 -0.007591498 -0.051108394 -0.124650404 0.026563797 -0.07126669
0.056950536 -0.018602671 -0.10759812 -0.10490277 -0.03606238 -0.1391349 -0.065007694 0.041520223
-0.06615315 -0.056190856 -0.092982806 -0.13901767 0.050126 -0.09611207 0.06634666 0.0953628
0.16067798 0.14678402 -0.08423001 0.1766089 0.16783606 0.06837175 -0.056576155 0.077527374
0.1140491 -0.01720442 -0.06765002 0.018180879 -0.015844855 0.090402395 -0.06767517 0.08588781
0.13789886 -0.028179953 -0.15304522 -0.16605514 -0.012267233 -0.075577304 0.07425825 0.027533539
-0.015605457 0.02528508 0.1203437 0.12677768 -0.009213521 0.03749337 0.065205805 0.026897319
0.17741767 -0.13827923 -0.018197015 0.06805324 0.042580653 0.072986014 0.13013874 -0.028316105
-0.17585224 -0.01428509 -0.014768337 0.086244635 0.01583565 0.098616056 0.047411785 -0.1564114
0.08906349 0.043015674 0.13879327 0.05225853 -0.110579856 0.07619098 -0.038742527 -0.12616156

decoder.fc2.bias f4 [27]
00000000: aeb1 fcbd 82c6 c8bd aafe a7bd dbbf a83d
00000010: 1d05 0abd 8668 17be 81a1 ea3d e9a9 db3d
00000020: fa3e 0c3d 8676 673b 2bb1 1ebd 471f 1dbe
00000030: a3a0 fbbd 76b6 81bd 2349 60bd 22db 8ebd
00000040: 0905 aa3d f3e3 a13d 55bc cabd ed20 07be
00000050: 20fc 233d 8c48 d5bc efa3 a6bd 2aa3 7b3d
00000060: 24d8 3fbe c280 063e 4cb4 d23c
-0.12338577 -0.09803487 -0.0820287 0.082397185 -0.033696283 -0.14785966 0.11456586 0.10725767
0.034239747 0.0035318448 -0.03874318 -0.15343963 -0.122864984 -0.0633363 -0.05475725 -0.0697539
0.08301742 0.07904806 -0.09899203 -0.13196154 0.040035367 -0.02603557 -0.081367366 0.061434902
-0.18734795 0.13135055 0.025720738
