data/model.pkl (torch, 24796 bytes, 10 tensors)

encoder.fc1.weight f4 [32, 27]
0	0x3d011471	0.031513635
1	0xbe1ab2e0	-0.15107298
2	0xbe05f004	-0.1307984
3	0x3e2c24de	0.16810939
4	0x3e26ebbe	0.16300866
5	0x3da7d078	0.08194059
6	0x3c25a1f6	0.010109415
7	0x3e15f032	0.14642408
8	0x3e006661	0.12539054
9	0x3d8d8259	0.069096275
10	0x3d05e1ed	0.032686163
11	0xbce74015	-0.028228799
12	0x3e5f76f6	0.21822724
13	0x3da410b7	0.080110006
14	0x3e4d64bb	0.20057957
15	0xbde8b73d	-0.11363075
16	0xbd9e76a7	-0.07737475
17	0xbdefcedb	-0.117093764
18	0x3c899cfe	0.016798493
19	0x3e16ac56	0.14714178
20	0xbe137f52	-0.14404038
21	0x3e5316d9	0.20614184
22	0x3e1aa36c	0.15101403
23	0xbd92a554	-0.0716044
24	0x3abfd99d	0.0014636997
25	0xbc17245a	-0.0092249755
26	0x3e14578c	0.14486521
27	0x3e2b8d13	0.16753034
28	0xbd8d7c76	-0.06908505
29	0xbe0aa8d5	-0.13540967
30	0xbd11187e	-0.03542375
31	0x3e23f57a	0.1601161
32	0x3e01742d	0.12641974
33	0x3db8ec7b	0.0902948
34	0x3dbe8424	0.093025476
35	0x3d46ee40	0.048567057
36	0xbe149835	-0.14511187
37	0x3e427f55	0.18993886
38	0xbd3236e8	-0.043509394
39	0xbc5c822e	-0.013458772
40	0xbd924346	-0.07141738
41	0xbe01204c	-0.12609977
42	0x3d5f20c4	0.054474607
43	0xbdf0428a	-0.11731441
44	0xbd3a12e7	-0.045428183
45	0xb93ce5bc	-0.0001801466
46	0x3e3819f4	0.1797865
47	0xbe1991cf	-0.14997028
48	0xbde70afc	-0.11281392
49	0x3e0e157a	0.1387538
50	0x3dd1760c	0.10227594
51	0xbc8246b4	-0.015902855
52	0xbd3feb9b	-0.04685555
53	0xbe55851b	-0.20851557
54	0x3d9184b9	0.07105393
55	0x3e229010	0.15875268
56	0x3d880ba7	0.066428475
57	0x3d97e8c7	0.07417446
58	0xbe1503e0	-0.1455226
59	0xbd754493	-0.05987985
60	0xbe1ef4c7	-0.15523063
61	0x3e2e23cc	0.17005843
62	0x3d6ee4ac	0.058323547
63	0x3e4713ad	0.194411
64	0x3e0b7608	0.13619244
65	0x3d8b859b	0.068125926
66	0x3d9100f6	0.070802614
67	0x3cc41257	0.023934526
68	0x3d4355dc	0.047689304
69	0xbdc8820d	-0.0979043
70	0x3dc88e29	0.0979274
71	0x3c563d26	0.013076102
72	0x3e22ddfe	0.15904996
73	0xbdbb6c06	-0.09151463
74	0x3e326f31	0.17425229
75	0xbd13f22c	-0.036119625
76	0xbbc017bd	-0.005862205
77	0xbde73f3d	-0.112913586
78	0x3e0a4241	0.13501836
79	0x3e57a7e9	0.21060146
80	0xbe286453	-0.1644452
81	0x3e216e79	0.15764798
82	0x3e2efbba	0.17088214
83	0xbdc49b42	-0.095999256
84	0xbe05a8c9	-0.13052668
85	0x3d25b248	0.040453225
86	0x3c8702ea	0.016480882
87	0xbdc64c89	-0.09682567
88	0xbe19b739	-0.150113
89	0xbd91f8a2	-0.07127501
90	0xbcc61b0d	-0.02418282
91	0xbe44372a	-0.19161668
92	0x3d949f96	0.07257001
93	0xbbbcc2e2	-0.0057605365
94	0x3d90e370	0.0707463
95	0x3bca0c82	0.006166042
96	0xbe3793ac	-0.17927426
97	0xbd62bf53	-0.055358242
98	0x3db3c851	0.08778442
99	0x3da9eb19	0.082967944
100	0x3c83e687	0.016101135
101	0xbdcc1018	-0.09964007
102	0xbda18a95	-0.078877605
103	0x3cf5ff30	0.03002891
104	0x3e0b4a1f	0.13602494
105	0xbe00c46e	-0.12574932
106	0xbbed365a	-0.007239145
107	0x3e24dc61	0.16099693
108	0x3dd4bdb1	0.10387743
109	0x3d8ae04f	0.06781065
110	0x3e102bc2	0.14079192
111	0xbdf503f3	-0.11963644
112	0x3d1dc9eb	0.038522642
113	0xbe160c0e	-0.14653036
114	0x3dc8981e	0.09794639
115	0xbd5f2b39	-0.05448458
116	0x3e036266	0.12830505
117	0xbe0bed1d	-0.1366467
118	0x3dd02184	0.101626426
119	0x3e032534	0.1280716
120	0x3e0783c3	0.13233857
121	0xbd435d52	-0.04769642
122	0xbdea7fcc	-0.114501566
123	0x3db4f433	0.0883564
124	0xbe3e8fe5	-0.18609579
125	0xbe438813	-0.19094877
126	0x3c636dc4	0.013881151
127	0xbd1513ee	-0.03639596
128	0xbda91eed	-0.08257852
129	0xbafd082b	-0.0019304802
130	0x3ddb0236	0.10693781
131	0xbe404159	-0.18774928
132	0x3d4493f2	0.047992654
133	0xbb8ac0ef	-0.0042344253
134	0x3e0a9419	0.13533057
135	0xbdf08379	-0.117438264
136	0xbe1c52c2	-0.15265945
137	0x3dbbb95d	0.091662146
138	0xbdfc2c89	-0.12313182
139	0xbd9efa5e	-0.077625975
140	0x3cd27dce	0.025694754
141	0xbdf5ee00	-0.120082855
142	0xbe06520f	-0.1311724
143	0xbdd9fec4	-0.10644296
144	0x3de67ba2	0.1125405
145	0xbda630da	-0.081147864
146	0x3d8b53be	0.06803082
147	0x3cde8c45	0.027166495
148	0x3e1d3155	0.1535085
149	0x3e4c922e	0.19977638
150	0xbd0bcd3f	-0.034131285
151	0x3dd21095	0.10257069
152	0x3ced1a6e	0.028943267
153	0xbe02de7a	-0.1278018
154	0xbe222c6b	-0.15837257
155	0xbd4e62df	-0.05038726
156	0xbe084c4f	-0.1331036
157	0xbdabeecd	-0.08395157
158	0xbd6d3797	-0.057914343
159	0xbc302709	-0.010751494
160	0xbda2fd63	-0.07958486
161	0x3e218210	0.15772271
162	0xbe34469a	-0.17605057
163	0x3c9b16c5	0.018931756
164	0x3c994656	0.018710297
165	0x3e1ba7f4	0.15200788
166	0x3dc8e266	0.09808807
167	0x3decffe2	0.11572243
168	0x3de47d9b	0.1115677
169	0x3e2110d6	0.15729079
170	0x3d9aca55	0.07558123
171	0xbd89c36d	-0.06726728
172	0xbd886e11	-0.066616185
173	0xbe1d94ea	-0.15388837
174	0xbd1f220e	-0.038850836
175	0x3e1bf053	0.15228395
176	0xbd8d1930	-0.0688957
177	0xbd0c9bf6	-0.034328423
178	0x3dbaccbb	0.091210805
179	0xbde0f84f	-0.10984861
180	0x3c130962	0.008974405
181	0x3e1167cd	0.14199753
182	0xbdc0a445	-0.09406332
183	0x3d8de611	0.06928647
184	0x3ce3f2c3	0.027825719
185	0x3d808287	0.06274896
186	0x3c87b7e5	0.01656718
187	0xbe5c4885	-0.21512039
188	0x3d23402e	0.03985613
189	0xbe15fc35	-0.1464699
190	0xbc63ae41	-0.013896526
191	0xbe32fa87	-0.17478381
192	0x3e019f33	0.12658386
193	0x3d28fe49	0.04125813
194	0xbe20d5ec	-0.15706605
195	0x3db45017	0.088043384
196	0xbe2e00ba	-0.16992465
197	0xbcc62576	-0.024187785
198	0x3c911d18	0.017714068
199	0xbd4390e0	-0.047745585
200	0x3bef4331	0.007301711
201	0x3b873532	0.0041262144
202	0x3d660aa9	0.05616251
203	0xbe07865a	-0.13234845
204	0xbe4ca2e1	-0.19984008
205	0xbd580631	-0.05274028
206	0xbe508677	-0.20363794
207	0x3de122f6	0.109929964
208	0xbc9d7e2c	-0.019225203
209	0xbda048f4	-0.07826415
210	0xbe0e7ec6	-0.13915548
211	0x3d96758f	0.07346641
212	0xbdce1f66	-0.100645825
213	0xbe16489a	-0.14676133
214	0x3c9d3ec2	0.019194964
215	0x3e2687c1	0.16262724
216	0x3dc29d04	0.095026046
217	0x3e34fcf1	0.17674614
218	0xbc25cc22	-0.01011947
219	0xbe26668f	-0.1625006
220	0xbdd4288b	-0.103592955
221	0x3dc3ed61	0.09566761
222	0xb9dd2097	-0.00042176686
223	0xbda898ef	-0.08232295
224	0xbe0fa44b	-0.14027517
225	0xbe262f01	-0.16228868
226	0xbdeefbf4	-0.1166915
227	0x3e2fd077	0.17169367
228	0xbd70e598	-0.058812708
229	0x3c0a6ce3	0.008448812
230	0xbe181fac	-0.14855832
231	0x3cd691a3	0.026192492
232	0xbe1e928e	-0.15485594
233	0xbe113648	-0.14180863
234	0xbd9d25b1	-0.07673205
235	0xbe0cd900	-0.13754654
236	0x3d7f13a9	0.06227461
237	0x3de4e681	0.11176778
238	0x3e06b232	0.13153914
239	0xbc26a476	-0.0101710465
240	0x3dd89ab6	0.10576384
241	0xbdbe5f4c	-0.0929552
242	0x3ddf902c	0.109161705
243	0x3e029b0d	0.1275446
244	0xbc49b03d	-0.012310085
245	0xbb005f79	-0.0019588156
246	0x3d104947	0.035226133
247	0xbdaec0c0	-0.08532858
248	0xbe2563b6	-0.16151318
249	0xbdd0fe06	-0.10204701
250	0xbd20c349	-0.03924874
251	0x3e275a00	0.16342926
252	0x3e309e21	0.17247821
253	0xbdfa3f4a	-0.12219103
254	0x3d0de1b9	0.034639094
255	0xbe1d1e7b	-0.15343659

encoder.fc1.bias f4 [32]
0	0x3e53d910	0.20688272
1	0x3e32fa1f	0.17478226
2	0xbe2efc40	-0.17088413
3	0x3b6263dd	0.0034544386
4	0xbe184209	-0.1486894
5	0xbdb6503d	-0.08902023
6	0xbc9615d5	-0.018320957
7	0x3e26ef1e	0.16302153
8	0xbd2168d7	-0.039406624
9	0x3d4c0010	0.049804747
10	0xbd167264	-0.036730185
11	0xbddc1501	-0.10746194
12	0xbe0456e7	-0.12923776
13	0xba72e32e	-0.000926542
14	0x3e07d1bf	0.13263606
15	0x3c67508f	0.014118328
16	0xbe37f4ae	-0.17964432
17	0x3bd9986d	0.006640485
18	0xbc5533fe	-0.013012884
19	0x3dc19c45	0.09453634
20	0x3e03ca92	0.12870243
21	0xbd308a01	-0.04310036
22	0xbce07a2b	-0.027402004
23	0xbca86872	-0.020557616
24	0xbde36334	-0.11102906
25	0x3cca628e	0.024705198
26	0xbdc1325f	-0.09433436
27	0xbdeda096	-0.11602895
28	0xbe13b180	-0.1442318
29	0xbb7cc4da	-0.003856948
30	0x3c099f37	0.008399776
31	0x3c3f9d5d	0.011695233

encoder.fcmu.weight f4 [36, 32]
0	0xbdcb92ae	-0.09940086
1	0x3e09f9c5	0.13474186
2	0xbe008d01	-0.12553789
3	0xbe22c59e	-0.15895697
4	0x3d953439	0.07285351
5	0x3cb82db7	0.022482736
6	0x3e2f6b40	0.17130756
7	0xbe176ae9	-0.14786877
8	0x3de32359	0.110907264
9	0x3df38a03	0.11891558
10	0xbc3cad31	-0.011515901
11	0x3e18fb5f	0.1493964
12	0xbe49b071	-0.19696213
13	0x3ccb7aab	0.024838766
14	0xbdc8df59	-0.09808225
15	0x3dacd0eb	0.084382854
16	0xbdab46a0	-0.0836308
17	0xbda8da74	-0.082447916
18	0xbdfe7651	-0.12424911
19	0xbbf6d570	-0.007532768
20	0x3e1101f8	0.14160907
21	0xbd06d47a	-0.032917477
22	0xbc64c075	-0.013961901
23	0xbd671b45	-0.05642249
24	0x3de4caa3	0.111714624
25	0x3c928fb6	0.017890792
26	0x3dea25c2	0.11432983
27	0x3d38a5b9	0.04507992
28	0xbd3b3d8b	-0.04571299
29	0x3e0c32e8	0.13691294
30	0x3d760641	0.060064558
31	0x3d466fb3	0.04844637
32	0x3ddb2e5a	0.107022
33	0xbd4a3948	-0.049371034
34	0xbe0e7612	-0.13912228
35	0x3dcce011	0.10003675
36	0xbd258fcd	-0.040420342
37	0x3e3fd6b3	0.18734245
38	0x3cd32537	0.025774581
39	0xbdeddab0	-0.11613977
40	0xbe210362	-0.15723947
41	0xbe27b60e	-0.16378042
42	0x3cdcf27e	0.026971098
43	0xbcc0d950	-0.023541123
44	0x3e22b9cb	0.15891187
45	0xbd17b104	-0.03703405
46	0x3d16506c	0.03669779
47	0x3d5d1011	0.0539704
48	0x3d096215	0.033540804
49	0x3dca4996	0.09877317
50	0xbd8b181c	-0.06791708
51	0x3dbdd2a1	0.0926869
52	0x3e3ff01e	0.18743941
53	0x3deadb51	0.114676125
54	0xbdc0f50d	-0.0942174
55	0x3daec08f	0.085328214
56	0x3dbb289f	0.09138607
57	0x3d69d10a	0.05708412
58	0x3e0593ee	0.13044712
59	0xbd44f08a	-0.04808096
60	0xbe355e95	-0.17711861
61	0x3dc22ea5	0.09481553
62	0xbe30942f	-0.17244028
63	0xbdf3d979	-0.11906714
64	0xbde0af8d	-0.10970984
65	0x3ccf6d4e	0.025320675
66	0xbcce52fe	-0.025186058
67	0x3d223c51	0.039608303
68	0x3caf5bce	0.02140608
69	0xbd1cb555	-0.03825887
70	0xbda6fff1	-0.08154286
71	0xbcde7761	-0.027156534
72	0x3cec27b0	0.028827518
73	0xbe390c21	-0.18071033
74	0x3dbd282a	0.09236176
75	0xbcdfb696	-0.027308743
76	0x3df8804c	0.12133846
77	0xbc839228	-0.016060904
78	0x3e36cd66	0.17851791
79	0xbd2ab3fe	-0.04167556
80	0xbdac0d07	-0.08400922
81	0x3dd0ef36	0.10201876
82	0xbdc96df3	-0.09835424
83	0x3e43d746	0.19125089
84	0xbe2cc240	-0.16870975
85	0xbd324376	-0.043521367
86	0xbdc70ef8	-0.09719652
87	0x3da66dc3	0.08126404
88	0x3c890e89	0.016730564
89	0x3d471525	0.04860415
90	0x3dc2cd44	0.095118076
91	0x3d729e88	0.05923322
92	0xbd4d2bdf	-0.050090667
93	0xbd98a0ba	-0.07452531
94	0x3dabc9ad	0.08388076
95	0xbe07f98f	-0.13278793
96	0xbd8b8610	-0.0681268
97	0xbd238434	-0.039921
98	0x3e223ac0	0.15842724
99	0x3d7a1639	0.06105635
100	0xbc0ea55c	-0.008706417
101	0xbcb3a41c	-0.02192884
102	0x3da2d999	0.0795166
103	0x3d8c8988	0.068621695
104	0xbd350191	-0.044190947
105	0x3d0761ba	0.033052184
106	0xbe2204c6	-0.15822133
107	0xbdf7bd86	-0.120966956
108	0x3d18bdc5	0.037290353
109	0xbb50e25f	-0.003187321
110	0xbddbb62b	-0.10728105
111	0xbd60a265	-0.05484237
112	0x3e212891	0.15738131
113	0xbd8f1dbc	-0.06988093
114	0x3decbcb8	0.11559433
115	0x3c74ba9f	0.014937072
116	0xbe1100bd	-0.14160438
117	0xbe024a0b	-0.12723558
118	0xbddf950e	-0.10917102
119	0xbd8df7eb	-0.06932052
120	0x3cbf522b	0.02335461
121	0xbe1deff9	-0.15423574
122	0xbdc71abe	-0.097218975
123	0x3cca8913	0.024723565
124	0x3e264b4f	0.16239665
125	0x3d9310ce	0.071809396
126	0x3e1503bd	0.14552207
127	0x3db2024b	0.086918436
128	0xbdb3bf97	-0.08776777
129	0x3da6e2f6	0.08148758
130	0x3e0c334e	0.13691446
131	0x3d2de813	0.04245765
132	0xbdf9f619	-0.122051425
133	0x3e106561	0.14101173
134	0xbd867625	-0.06565503
135	0x3e0424f6	0.12904724
136	0x3d9a83c9	0.07544667
137	0xbe124090	-0.14282441
138	0xbcf38616	-0.029727023
139	0xbc5cb8a1	-0.013471753
140	0x3e126c05	0.14299019
141	0x3e152444	0.14564615
142	0x3e09206d	0.13391276
143	0xbdd724d5	-0.10505072
144	0xbd08645b	-0.03329883
145	0x3dd3ecfd	0.10347936
146	0x3b2037a4	0.0024447227
147	0x3d8f0ad9	0.06984491
148	0x3cfdc7fd	0.03097915
149	0xbc944ca7	-0.018102957
150	0xbe109c19	-0.14122047
151	0xbd6291b2	-0.055314727
152	0xbc7646cc	-0.015031528
153	0x3e24ffc9	0.161132
154	0xbd7d86e2	-0.061896212
155	0x3cf3428a	0.029694814
156	0xbd7291d5	-0.059221108
157	0xbdad1188	-0.084506094
158	0x3d9c61fd	0.07635877
159	0xbd8105c5	-0.062999286
160	0x3d110b5f	0.035411235
161	0x3dbcb949	0.09215028
162	0x3e345d14	0.17613631
163	0xbd4514e8	-0.04811564
164	0xbdc37cf4	-0.09545317
165	0xbde5b8d9	-0.112168975
166	0xbe0e07d6	-0.13870177
167	0xbd3d2bcc	-0.046184346
168	0x3d9ac322	0.0755675
169	0xbd924a99	-0.071431346
170	0x3e074b0a	0.13212219
171	0xbe12e2b0	-0.14344287
172	0x3e274406	0.16334543
173	0xbc093fe0	-0.008377045
174	0x3e48c301	0.19605638
175	0xbdc6fc09	-0.09716041
176	0xbc958241	-0.018250586
177	0x3e15ab1e	0.14616057
178	0x3e25bbf7	0.16184984
179	0xbe126579	-0.14296521
180	0x3dae677f	0.08515834
181	0xbaa166fa	-0.0012314015
182	0xbcf49557	-0.029856367
183	0x3e197349	0.14985384
184	0x3da5106a	0.08059771
185	0x3cce8d08	0.025213733
186	0x3c14a9c3	0.0090736775
187	0xbd8f3531	-0.06992567
188	0x3d017776	0.031608067
189	0xbe07b4e4	-0.13252598
190	0xbb65b80b	-0.0035052325
191	0x3e248814	0.16067535
192	0x3e063150	0.13104749
193	0xbdc050ef	-0.09390437
194	0xbd20a8fe	-0.039223664
195	0x3e32f696	0.17476878
196	0xbdd3a1e3	-0.10333612
197	0xbe104325	-0.14088114
198	0xbdf91535	-0.12162248
199	0x3e55bce0	0.20872831
200	0xbc49bfcb	-0.012313793
201	0xbcceefb0	-0.025260776
202	0xbcdc96d4	-0.02692739
203	0xbc036785	-0.008020286
204	0xbdac3351	-0.08408225
205	0xbda9ec17	-0.08296984
206	0x3da13ba6	0.07872705
207	0x3da912dc	0.0825555
208	0x3bacd124	0.005273955
209	0x3b85daf5	0.0040849396
210	0xbe0e41ab	-0.13892238
211	0xbda5a36f	-0.08087813
212	0x3e205586	0.15657625
213	0xbd09ba06	-0.03362467
214	0x3cb874cc	0.02251663
215	0xbd932513	-0.07184806
216	0x3d516848	0.05112484
217	0x3cd91082	0.02649713
218	0x3b421046	0.002961175
219	0xbdda4594	-0.10657802
220	0xbdf0714c	-0.1174036
221	0x3c09e9c2	0.008417549
222	0x3e5f9f2d	0.21838064
223	0x3d0ec407	0.034854915
224	0xbe2658d2	-0.1624482
225	0xbdc35808	-0.09538275
226	0x3d8c0624	0.06837109
227	0x3e068b7c	0.13139147
228	0x3e05e4ef	0.13075612
229	0x3dd8a83f	0.105789654
230	0xbd964674	-0.073376566
231	0x3e1ea89b	0.15494005
232	0x3d8cbc31	0.06871832
233	0x3c278c5d	0.010226336
234	0xbcebdcfe	-0.0287919
235	0xbdff967e	-0.12479876
236	0xbd38d1f9	-0.04512212
237	0x3e01dbf8	0.12681568
238	0xbe3b58bf	-0.18295573
239	0x3d9801df	0.07422232
240	0x3cbecbf4	0.023290612
241	0x3c24d3c3	0.010060254
242	0xbd83c1fe	-0.064334854
243	0x3d9409c5	0.07228426
244	0x3e469255	0.19391759
245	0xbe0ff8bc	-0.14059728
246	0xbd2a19d1	-0.041528527
247	0xbc163647	-0.009168214
248	0x3e124053	0.1428235
249	0x3b82ad18	0.0039879195
250	0xbe16d2c6	-0.14728841
251	0xbd59dc78	-0.05318877
252	0xbe0e2753	-0.13882188
253	0x3e0871c2	0.13324645
254	0x3de7b720	0.11314225
255	0xbd5b132d	-0.053485084

encoder.fcmu.bias f4 [36]
0	0xbcd54826	-0.02603538
1	0xbd1f1f8f	-0.038848456
2	0xbd3b8036	-0.04577657
3	0xbcb56b05	-0.022145757
4	0xbb659c80	-0.0035035908
5	0xbe048073	-0.12939624
6	0x3e2de1c1	0.1698065
7	0x3dea8702	0.11451532
8	0xbbf21cac	-0.007388672
9	0x3d9f977b	0.077925645
10	0x3c3fb89f	0.011701732
11	0xbd188251	-0.037233654
12	0x3c3609d5	0.011110743
13	0xbca28616	-0.019839328
14	0x3d273ce6	0.04082956
15	0xbe0896eb	-0.1333882
16	0xbdd51aef	-0.10405528
17	0x3dab4462	0.08362652
18	0x3e0b2f5e	0.13592288
19	0xbd95f206	-0.07321553
20	0x3dc93881	0.098252304
21	0x3defbe4b	0.117062174
22	0xbde9e5c5	-0.11420778
23	0xbdc2dd8f	-0.09514915
24	0xbe076863	-0.13223414
25	0x3cb1d1a4	0.02170641
26	0xbdd9c621	-0.10633493
27	0xbde061ba	-0.1095614
28	0xbe356644	-0.17714792
29	0xbe01be97	-0.1267036
30	0xbdb6adef	-0.08919894
31	0xbe2855bf	-0.1643896
32	0xbdcf8bee	-0.10134111
33	0xbcf6bee3	-0.030120319
34	0x3dccc4e5	0.09998492
35	0x3e1279d7	0.1430429

encoder.fcsig.weight f4 [36, 32]
0	0xbdc35531	-0.09537733
1	0x3e1c81a8	0.15283835
2	0xbd5c549f	-0.05379164
3	0x3e05950b	0.13045137
4	0x3dce280b	0.10066231
5	0xbdedf44d	-0.11618862
6	0xbe19d09d	-0.15020986
7	0x3d834aeb	0.06410774
8	0xbddfb73c	-0.10923621
9	0x3ca62873	0.02028296
10	0x3e2b5369	0.16731037
11	0xbd11ec35	-0.035625655
12	0x3deed8f7	0.116624765
13	0xbd9cfed3	-0.07665791
14	0xbe10f523	-0.14156012
15	0x3ddf4920	0.10902619
16	0x3d10b223	0.035326134
17	0x3e039075	0.12848075
18	0xbe1c1aaa	-0.15244547
19	0x3e380413	0.17970304
20	0x3e1978cf	0.14987491
21	0xbde83c03	-0.11339571
22	0x3caff5b8	0.021479473
23	0x3df67f57	0.12036007
24	0x3cfc27dd	0.030780727
25	0xbdaf6303	-0.08563807
26	0xbdf55814	-0.1197969
27	0xbe00ff5c	-0.12597412
28	0xbc8e276f	-0.017352788
29	0xbdf9ef19	-0.122038074
30	0x3de55139	0.111971326
31	0xbda03c68	-0.078240216
32	0xbc8cfd70	-0.017210692
33	0xbce2d8de	-0.027691301
34	0xbe26b042	-0.16278175
35	0x3dec639f	0.11542439
36	0xb91f9e9e	-0.00015222511
37	0x3d830ef2	0.06399335
38	0xbbe61dcc	-0.007022595
39	0xbbc744c4	-0.0060811955
40	0x3df39e15	0.11895386
41	0x3dabbe36	0.08385889
42	0x3de1f5ea	0.110332325
43	0xbd12dab6	-0.03585311
44	0x3d8858a6	0.06657533
45	0x3e00b14d	0.12567635
46	0x3d93919b	0.072055064
47	0x3e207d76	0.1567286
48	0x3dc8669e	0.09785198
49	0x3e01df9f	0.12682961
50	0x3de4347d	0.11142824
51	0xbc1f902c	-0.009738963
52	0xbd358cec	-0.044323847
53	0xbd1b2854	-0.037880257
54	0xbd0145f4	-0.031560853
55	0x3d367d36	0.044553004
56	0xbe42697e	-0.18985555
57	0x3dd61fef	0.104553096
58	0xbb1c8768	-0.002388442
59	0x3c6ff360	0.014645427
60	0x3ba26a9b	0.004956556
61	0x3debe7f8	0.11518854
62	0x3dda0767	0.10645943
63	0x3da86ef1	0.082242854
64	0xbd8d48f3	-0.068986796
65	0x3d9bc05e	0.076050505
66	0xbdb553cc	-0.088538736
67	0xbdf0d1dd	-0.11758778
68	0xbd1361ad	-0.035981823
69	0xbdbdf716	-0.092756435
70	0xbcba54c5	-0.0227455
71	0xbde06d91	-0.10958398
72	0x3dc6c4d1	0.097055085
73	0xbdb3e5bb	-0.08784052
74	0x3c845bc5	0.01615704
75	0x3e1cf687	0.15328418
76	0x3cc11197	0.023567958
77	0xbb647f85	-0.0034866047
78	0x3dc979fd	0.098377205
79	0xbda55c2b	-0.0807422
80	0xbd6b4aa0	-0.057444215
81	0x3dc2bde7	0.09508877
82	0xbd68b97b	-0.056817513
83	0xbd8beb77	-0.06832021
84	0xbce63846	-0.028103005
85	0xbc85666b	-0.016284188
86	0xbdebb89e	-0.11509822
87	0x3cd632a1	0.026147189
88	0x3d372771	0.04471535
89	0x3e0318e0	0.12802458
90	0xbd0e4a1a	-0.034738638
91	0xbd675ba4	-0.05648388
92	0xbd5725dd	-0.052526344
93	0x3db717e1	0.089401014
94	0x3dd869b0	0.10567033
95	0xbb62cf9a	-0.0034608603
96	0xbd939ea2	-0.07207991
97	0xbdb8af88	-0.09017855
98	0xbe185a3a	-0.14878169
99	0x3d7bb1f4	0.061449006
100	0xbc4591a0	-0.0120586455
101	0xbd1d9526	-0.038472317
102	0xbd1f9b36	-0.03896638
103	0x3e04b45e	0.1295943
104	0xbba64428	-0.005074043
105	0x3dce66fe	0.10078238
106	0x3d705b1a	0.05868063
107	0xbdc6859e	-0.09693454
108	0xbb902399	-0.004398775
109	0x3c24a952	0.010050135
110	0x3db7de62	0.08977963
111	0x3de6d168	0.1127041
112	0xbdbed1f9	-0.09317393
113	0xbd8c1aa9	-0.068410225
114	0xbda52e38	-0.08065456
115	0x3db2b924	0.08726719
116	0x3e202e82	0.15642741
117	0x3d02d33b	0.031939726
118	0x3d57afb5	0.0526578
119	0x3e233ba9	0.15940727
120	0xbd63f81b	-0.055656534
121	0x3e218edd	0.15777154
122	0xbdcf9251	-0.101353295
123	0xbd932f57	-0.07186764
124	0x3e1f8b1c	0.1558041
125	0xbdfd23b7	-0.12360328
126	0xbda44d2b	-0.08022531
127	0x3dff6d28	0.12471992
128	0xbddaa5d5	-0.10676161
129	0x3dc695ba	0.09696527
130	0xbdcce375	-0.100043215
131	0x3bc9a0a2	0.006153182
132	0x3e444135	0.191655
133	0x3d170069	0.036865626
134	0xbd8903b3	-0.06690159
135	0x3e41ed55	0.18938191
136	0x3daa1f30	0.0830673
137	0x3da420f8	0.08014101
138	0x3cc0c3e0	0.0235309
139	0x3e06cd5d	0.13164277
140	0xbcc4519e	-0.0239647
141	0x3b3d530f	0.0028888618
142	0xbdbceb58	-0.09224576
143	0x3d4b4fb9	0.049636576
144	0xbdfb6aad	-0.12276206
145	0xbc8b951e	-0.017038878
146	0x3d8b72bb	0.068089925
147	0xbde73b25	-0.11290578
148	0xbce0db63	-0.027448362
149	0x3d751782	0.059836872
150	0xbb3beeea	-0.002867634
151	0x3dd5438c	0.10413274
152	0xbd7a5c4a	-0.06112317
153	0xbd7bf7d4	-0.061515644
154	0x3d2f8486	0.042850994
155	0xbdad5379	-0.08463187
156	0x3dc8c87c	0.09803864
157	0x3e2ccc07	0.16874705
158	0x3e3032a9	0.17206825
159	0xbda7b8d1	-0.08189548
160	0xbd95cb5d	-0.07314179
161	0xbbc22294	-0.005924532
162	0x3e0d9b0e	0.1382868
163	0x3b8b1985	0.0042449855
164	0x3d17d78b	0.037070792
165	0x3db554f0	0.08854091
166	0x3e2e1e31	0.17003705
167	0x3daff3fb	0.085914575
168	0xbd5f4003	-0.054504406
169	0xbddf6fc8	-0.109099925
170	0xbd855c73	-0.06511774
171	0xbe0c2193	-0.13684683
172	0xbe05bafd	-0.13059612
173	0x3e00eefa	0.12591162
174	0x3d975d74	0.07390872
175	0x3ce78295	0.028260509
176	0x3d4807c2	0.048835523
177	0xbd165ad7	-0.036707725
178	0x3bdd31d0	0.006750323
179	0x3d87134d	0.06595478
180	0xbd902c2b	-0.07039674
181	0x3d9a49fa	0.07533641
182	0x3d6d9a9f	0.058008786
183	0xbddaced8	-0.106839836
184	0xbe18fe8f	-0.14940856
185	0x3d84f325	0.06491689
186	0xbdf4cf43	-0.119535945
187	0xbdf0213b	-0.11725088
188	0xbdb4ca6e	-0.08827673
189	0x3d99213b	0.07477041
190	0x3da50027	0.0805667
191	0x3e2002d1	0.15626074
192	0x3e1fe4d4	0.15614635
193	0xbd53fcdb	-0.051754814
194	0xbe17b433	-0.14814834
195	0xbd649bd3	-0.055812668
196	0xbc60d2a2	-0.013722094
197	0x3d2b6bb0	0.041850746
198	0x3dc7a990	0.09749138
199	0x3e026df4	0.12737256
200	0xbd783a2c	-0.060602352
201	0x3e076f43	0.13226037
202	0xbd9b54c0	-0.07584524
203	0xbe120dd1	-0.14263083
204	0x3de3b302	0.111181274
205	0xbe30c221	-0.17261554
206	0x3cec1370	0.028817862
207	0xbd24d812	-0.040245123
208	0x3e0afa37	0.13572012
209	0x3bf8c4a7	0.007591802
210	0x3e1d02c2	0.15333083
211	0xbd042a74	-0.03226705
212	0x3e1d330f	0.15351509
213	0xbe04e382	-0.12977412
214	0x3da8c0a5	0.08239869
215	0xbe2b02cb	-0.16700284
216	0x3bb50d81	0.0055252914
217	0x3b1f4c98	0.0024307128
218	0x3cf0efdb	0.029411247
219	0xbe044865	-0.12918241
220	0x3dcd4140	0.10022211
221	0xbda0b60c	-0.07847223
222	0xbd81caea	-0.06337531
223	0xbde62dd3	-0.11239209
224	0xbcc7d9c4	-0.02439583
225	0xbc90399c	-0.017605595
226	0xbca58add	-0.020207817
227	0x3e53fc59	0.20701732
228	0x3dc02da4	0.09383705
229	0x3e034559	0.12819423
230	0xbdb2a487	-0.08722787
231	0x3e342adf	0.17594479
232	0x3d328bfe	0.04359054
233	0x3d86f213	0.06589141
234	0xbd374f1b	-0.044753175
235	0x3cde67e0	0.02714914
236	0xbe07f239	-0.13275994
237	0xbd93c973	-0.07216158
238	0x3e013ff4	0.12622052
239	0x3daa76a9	0.08323414
240	0xbdc7e6f7	-0.0976085
241	0xbddbbafa	-0.10729022
242	0xbd62fb0e	-0.055415206
243	0xbca9703a	-0.020683397
244	0xbcf2f98b	-0.029660007
245	0xbdbdedae	-0.092738494
246	0xbd2581af	-0.04040688
247	0xbdfc2193	-0.12311091
248	0xbdbb4225	-0.091434754
249	0xbde755b6	-0.11295645
250	0xbd0707b0	-0.032966316
251	0xbe0758d2	-0.13217476
252	0x3e4d814f	0.20068859
253	0x3db8533f	0.09000253
254	0x3da5a8b6	0.0808882
255	0xbdc2eec5	-0.09518198

encoder.fcsig.bias f4 [36]
0	0xbdb491bc	-0.08816859
1	0xbe3dea65	-0.18546446
2	0x3df38eee	0.11892496
3	0xbe122206	-0.14270791
4	0xbd8c0073	-0.06836023
5	0xbd8bf41a	-0.06833668
6	0x3d8974fc	0.06711766
7	0xbdff5024	-0.124664575
8	0xbe21c910	-0.15799356
9	0xbbe2dffe	-0.0069236746
10	0x3c9e9b1a	0.019361068
11	0xbdc312fd	-0.09525106
12	0xbdfd5b86	-0.12370972
13	0xbdfdbde0	-0.123897314
14	0xbd201d5f	-0.03909051
15	0xbdf1e1ce	-0.11810647
16	0xbd997ee1	-0.07494903
17	0xbe257e22	-0.16161397
18	0x3db90512	0.0903417
19	0x3db445df	0.08802389
20	0xbe28b4c4	-0.16475207
21	0x3d19ef7a	0.0375819
22	0xbdbffccd	-0.0937439
23	0x3d5f68e0	0.054543376
24	0x3e23069b	0.15920489
25	0xbb04619b	-0.002019978
26	0xbe163b50	-0.14671063
27	0x3d4c6c44	0.049907938
28	0xbbb71e72	-0.005588346
29	0xbd9cc072	-0.076538935
30	0xbda7372d	-0.08164821
31	0x3de6c83e	0.11268662
32	0x3deef12b	0.11667093
33	0xbdb39e50	-0.0877043
34	0xbd9ad706	-0.07560544
35	0x3da33146	0.079683825

decoder.fc1.weight f4 [32, 36]
0	0xbc770e2d	-0.015079063
1	0xbcf7bf5e	-0.030242618
2	0x3d08ec0a	0.03342823
3	0xbd76dba4	-0.06026806
4	0x3d431828	0.04763046
5	0x3c5d0cd8	0.013491832
6	0x3e00e03c	0.12585539
7	0xbde893d9	-0.11356325
8	0xbdfec561	-0.12439991
9	0xbdd457c1	-0.103683
10	0xbc6c3d72	-0.014418947
11	0x3be3d31a	0.0069526555
12	0x3d978ded	0.07400117
13	0x3dd22652	0.10261215
14	0xbd1e6116	-0.038666807
15	0x3d236d9a	0.039899446
16	0xbcb98276	-0.022645216
17	0xbcf82146	-0.030289304
18	0x3e186053	0.14880495
19	0x3dfb79ea	0.12279113
20	0xbe19e9f5	-0.15030654
21	0x3e180f03	0.14849477
22	0x3e0a779f	0.13522194
23	0xbe2407cc	-0.160186
24	0xbbcf00eb	-0.006317248
25	0x3dc72528	0.09723884
26	0xbd5bd080	-0.053665638
27	0xbe015092	-0.12628391
28	0x3d4d5c67	0.05013695
29	0xbdc50e6d	-0.09621892
30	0x3ce04631	0.02737722
31	0xbdf64597	-0.12024992
32	0xbd8a5e62	-0.06756283
33	0xbd926752	-0.07148613
34	0xbcf6e975	-0.030140618
35	0x3de14a40	0.1100049
36	0x3dbf92e5	0.0935419
37	0xbc0464f5	-0.008080711
38	0xba269c21	-0.00063556625
39	0x3b1f70eb	0.002432878
40	0xbbdc213e	-0.00671783
41	0x3e17dd45	0.14830501
42	0xbe0b9e58	-0.13634622
43	0xbdd8dfb7	-0.10589545
44	0x3e0965b2	0.134177
45	0x3d848959	0.064715095
46	0x3e2e318c	0.17011088
47	0x3dfff814	0.12498489
48	0xbdc5c4ef	-0.09656703
49	0xbd4502fd	-0.048098553
50	0xbdc5a7ce	-0.09651147
51	0xbd917803	-0.071029685
52	0xbdb2dc42	-0.08733417
53	0x3d80c098	0.06286734
54	0xbd3a7527	-0.04552188
55	0xbd0caca3	-0.034344327
56	0xbe16cfa2	-0.14727643
57	0x3ddaf519	0.1069128
58	0xbe1be0f3	-0.1522253
59	0x3caae505	0.020861158
60	0xbc83e461	-0.01610011
61	0xbda44c36	-0.080223486
62	0xbdf92431	-0.12165106
63	0xbd916c50	-0.07100737
64	0x3dfbe942	0.1230035
65	0xbd1f8da6	-0.038953446
66	0xbd801000	-0.06253052
67	0xbe32ba96	-0.1745399
68	0x3cc64162	0.024201099
69	0xbdd40fe1	-0.10354591
70	0x3c9a8352	0.018861447
71	0xbc5d9dd9	-0.013526403
72	0xbd4c18ab	-0.049828213
73	0x3d9b44bf	0.07581472
74	0x3d45c4f0	0.048283517
75	0xbd14a6f8	-0.036292046
76	0x3de4853d	0.11158226
77	0xbb976d8c	-0.0046212133
78	0x3d5f2021	0.054474
79	0xbda56084	-0.080750495
80	0xbd203624	-0.039114133
81	0x3dca105b	0.09866401
82	0xbc47398e	-0.012159718
83	0x3d2223f0	0.039585054
84	0xbd4bf270	-0.049791753
85	0xbd330633	-0.043707084
86	0x3d4bdb2f	0.049769577
87	0xbc689f45	-0.014198129
88	0xbbaaa377	-0.005207475
89	0xbdc26102	-0.09491159
90	0x3dd2212a	0.10260232
91	0x3d7cd628	0.061727673
92	0x3d926545	0.07148222
93	0x3dd839b7	0.10557883
94	0xbe0c2b2f	-0.13688348
95	0x3e05382c	0.13009709
96	0xbcdf39c9	-0.027249234
97	0x3e1b12e5	0.15143926
98	0x3e05660c	0.13027209
99	0x3d36294b	0.044472974
100	0x3d126ee7	0.035750296
101	0xbdab5fca	-0.0836788
102	0x3d070a8f	0.032969054
103	0xbe094a9c	-0.13407367
104	0xbc8677b5	-0.016414503
105	0xbe1ddbca	-0.15415874
106	0x3c24d695	0.010060926
107	0x3d80a8d9	0.06282205
108	0xbe0ec429	-0.13942017
109	0xbd6d13ab	-0.057880085
110	0x3df08bcb	0.117454134
111	0xbc91c003	-0.017791754
112	0x3d91d3eb	0.07120498
113	0x3ce94b04	0.028478153
114	0xbcc3d590	-0.023905545
115	0xbde7b569	-0.11313898
116	0xbdc9fc16	-0.09862535
117	0x3ddd6d67	0.108118825
118	0x3dbcd248	0.092197955
119	0xbdb1da72	-0.08684243
120	0xbd10ee6e	-0.035383634
121	0xbda1837d	-0.078864075
122	0xbd1d7457	-0.03844103
123	0x3e26188c	0.16220301
124	0x3e0036df	0.12520932
125	0x3de642c5	0.11243204
126	0xbd3c882f	-0.046028312
127	0x3e0650a5	0.13116701
128	0xbd91d2b5	-0.07120267
129	0xbb96cb5e	-0.00460188
130	0xbc9d1299	-0.019173907
131	0x3e034d55	0.12822469
132	0x3d8f4961	0.06996418
133	0x3c85d6d1	0.016337784
134	0xbdf0ea10	-0.11763394
135	0x3e0d2e4a	0.13787189
136	0x3e027255	0.12738927
137	0x3ddac1f7	0.10681527
138	0xbdd8d9b8	-0.105884016
139	0xbde6eb36	-0.11275332
140	0xbe1a69b3	-0.15079384
141	0x3e0d95e9	0.13826717
142	0x3cc611d6	0.024178427
143	0xbc958c03	-0.01825524
144	0xbd2aa8b5	-0.041664798
145	0x3e1d665e	0.15371081
146	0xbbfd4f03	-0.007730366
147	0xbdb4d7f2	-0.08830251
148	0x3e2cbc59	0.16868724
149	0x3d3cb643	0.046072256
150	0xbdec37e2	-0.11534096
151	0x3e029e2e	0.12755653
152	0xbe0494b7	-0.12947355
153	0xbc895295	-0.016763011
154	0x3d23dac4	0.040003553
155	0xbd1af50b	-0.037831347
156	0xbddee99a	-0.108844
157	0xbdeebdba	-0.11657281
158	0x3dcf1b70	0.10112655
159	0x3d7c9e49	0.06167439
160	0xbdb1f830	-0.08689916
161	0xbdc267f8	-0.09492487
162	0xbd006ad4	-0.03135188
163	0x3e034e6b	0.12822883
164	0xbdc8e0ea	-0.09808524
165	0x3e0149ac	0.1262576
166	0x3e22cd33	0.1589859
167	0x3e2d60c0	0.16931438
168	0x3d97231b	0.07379743
169	0x3d909abe	0.07060765
170	0x3dcb9725	0.09940938
171	0x3cf2caaa	0.029637653
172	0xbe2ff6d0	-0.17183995
173	0x3c46ce5d	0.012134162
174	0xbcfa273e	-0.03053629
175	0xbc952167	-0.018204404
176	0xbd2ecf0f	-0.042677935
177	0xbd985ac5	-0.07439188
178	0xbe44a9b4	-0.19205362
179	0xbdd2ccd8	-0.10292977
180	0xbc6c82cf	-0.014435484
181	0x3cfcb1ec	0.030846559
182	0xbe090bc3	-0.13383393
183	0xbdda94b5	-0.10672895
184	0x3d361b75	0.04445978
185	0x3d3a5270	0.045488775
186	0x3d9fa5ad	0.07795272
187	0x3c199366	0.009373521
188	0xbda9b316	-0.08286111
189	0x3d683a9c	0.05669652
190	0xbe14486c	-0.14480752
191	0xbbc3d41b	-0.0059762127
192	0xbe0d8c23	-0.13822989
193	0x3c7d9930	0.015478417
194	0xbdcb09fb	-0.09914013
195	0xbd10104f	-0.035171803
196	0x3dba556d	0.09098325
197	0x3de80305	0.11328701
198	0xbdcd75f8	-0.100322664
199	0xbc0c3584	-0.008557681
200	0x3e05c0fe	0.13061902
201	0x3dcb69cd	0.09932289
202	0x3bd2bdce	0.006431318
203	0x3d424d41	0.047436956
204	0xbc71a6d6	-0.014749249
205	0x3d188978	0.037240475
206	0x3d0b9076	0.034073316
207	0xbdf22bfe	-0.11824797
208	0xbe0eb3e2	-0.13935807
209	0x3e074083	0.13208203
210	0x3dd7c744	0.10536054
211	0xbd8fd844	-0.07023671
212	0xbd152a84	-0.0364175
213	0x3d1aad5c	0.037762985
214	0x3d710a62	0.058847792
215	0xbdd1457d	-0.10218332
216	0xbd9f945f	-0.077919714
217	0x3d4c80ab	0.049927395
218	0xbdccc22c	-0.09997973
219	0x3ce1950c	0.027536891
220	0x3db87194	0.09006038
221	0x3dcd2f54	0.10018793
222	0xbdf4dac3	-0.11955788
223	0x3e325c1b	0.17417948
224	0xbdcce13a	-0.10003896
225	0xbc319527	-0.010838783
226	0x3e1cbf53	0.1530736
227	0xbe153e0b	-0.14574449
228	0xbd9e9aa2	-0.077443376
229	0xbd84df30	-0.06487882
230	0x3d99cff9	0.07510371
231	0x3e0e842b	0.13917606
232	0xbd871c70	-0.06597221
233	0xbdffd0c6	-0.12490992
234	0x3de0230c	0.10944185
235	0xbe26dc2a	-0.16294923
236	0x3e1e858b	0.1548063
237	0xbd646038	-0.055755824
238	0x3e046e8a	0.12932792
239	0xbdfc7852	-0.12327637
240	0x3de2431c	0.11047956
241	0x3d528bf8	0.051403016
242	0xbde1f3cc	-0.11032829
243	0x3b8c7992	0.0042869532
244	0xbb95acfe	-0.0045677414
245	0x3dca6587	0.09882646
246	0x3c1d70b8	0.009609394
247	0xbcf1964c	-0.029490612
248	0xbe316908	-0.17325222
249	0x3d747ff4	0.059692338
250	0xbcf6419e	-0.030060586
251	0xbe06bf3e	-0.1315889
252	0xbe28fe1e	-0.16503188
253	0x3de10e6a	0.109890774
254	0x3d94efd1	0.07272304
255	0xbe123379	-0.14277448

decoder.fc1.bias f4 [32]
0	0x3df81dc5	0.12115053
1	0x3e02a986	0.1275998
2	0xbe04e955	-0.12979634
3	0xbd934f3c	-0.07192847
4	0x3e39f45d	0.18159623
5	0xbb8353dd	-0.0040078
6	0xbde9e0d8	-0.11419839
7	0x3ca21b0a	0.019788284
8	0xbdf561c6	-0.119815394
9	0x3beebfea	0.0072860615
10	0xbe086d2a	-0.13322893
11	0xbdc7527b	-0.09732529
12	0x3d41c274	0.047304586
13	0xbd9e2617	-0.07722109
14	0xbc86b215	-0.016442338
15	0xbdda0dd0	-0.10647166
16	0xbe3aae86	-0.18230638
17	0xbdbdc5fe	-0.0926628
18	0xbb918c43	-0.0044417693
19	0xbdf67000	-0.12033081
20	0xbd73f22a	-0.059557118
21	0xbd7d2279	-0.061800454
22	0xbe2213a7	-0.1582781
23	0x3cccf85c	0.02502077
24	0xbd4fc3c2	-0.0507238
25	0x3dc246df	0.09486174
26	0x3df3af1a	0.11898632
27	0x3db511ae	0.08841263
28	0xbc6cdfc1	-0.014457644
29	0xbd3b1ac0	-0.045679808
30	0xbe1191d6	-0.14215788
31	0x3d570dc0	0.052503347

decoder.fc2.weight f4 [27, 32]
0	0xbdcf0884	-0.10109046
1	0xbdc2749c	-0.09494898
2	0xbce2dcb7	-0.027693136
3	0x3ce3e53a	0.027819265
4	0xbe4ba83e	-0.19888398
5	0x3d958f2d	0.07302699
6	0xbe2fcada	-0.17167225
7	0xbd966730	-0.073439
8	0x3d208403	0.039188396
9	0x3df3f903	0.119127296
10	0x3bf05563	0.0073343976
11	0x3ab327f7	0.0013668527
12	0x3defa1e3	0.11700799
13	0x3db80a75	0.089863695
14	0x3db67ece	0.08910905
15	0xbdc5eefb	-0.096647225
16	0x3d7e8887	0.06214192
17	0x3cdcddac	0.02696117
18	0xbb8e19a2	-0.0043365518
19	0x3da25c4c	0.079277605
20	0xbcdb2a43	-0.02675355
21	0x3d1d5935	0.038415153
22	0x3da0a989	0.07844836
23	0x3ced0769	0.028934198
24	0xbd3bf28a	-0.0458856
25	0xbd1e2dee	-0.03861802
26	0xbc986399	-0.01860218
27	0x3d099893	0.03359277
28	0x3e0be31c	0.13660854
29	0x3db48377	0.088141374
30	0xbe3e6539	-0.18593301
31	0x3bc3df07	0.0059775147
32	0xbc970824	-0.018436499
33	0xbdad48fd	-0.08461187
34	0x3da48074	0.08032313
35	0x3e4d4faa	0.2004992
36	0x3e03673f	0.12832354
37	0xbe0024be	-0.12514016
38	0x3e199f7f	0.15002249
39	0xbdf51b76	-0.119681284
40	0x3e1c84f2	0.1528509
41	0xbd7da089	-0.061920676
42	0xbd1bfc8b	-0.03808264
43	0x3e298902	0.1655617
44	0x3e1273ff	0.14302061
45	0xbb100ca4	-0.002198019
46	0xbd9377c2	-0.07200576
47	0x3c4b3a6b	0.012404065
48	0xbd36bfe4	-0.044616595
49	0xbb59cf94	-0.0033235298
50	0xbd6688a1	-0.056282643
51	0x3e34a178	0.1763972
52	0xbb935e45	-0.004497322
53	0x3d428968	0.047494322
54	0x3db3fe09	0.08788688
55	0xbd84df19	-0.06487865
56	0x3cdbc4e1	0.026827278
57	0xbd91d8b7	-0.07121413
58	0xbd6bb7b3	-0.057548236
59	0xbe1429ff	-0.14469145
60	0x3e12ef3f	0.14349078
61	0x3de7dc21	0.11321283
62	0x3d3476cb	0.044058602
63	0x3d19d693	0.03755815
64	0xbda00c84	-0.07814887
65	0xbd4a0621	-0.04932225
66	0xbc2798fc	-0.010229345
67	0x3c391307	0.01129604
68	0x3da0f467	0.07859116
69	0xbe09f125	-0.13470896
70	0x3e20820a	0.15674606
71	0xbe19678c	-0.14980906
72	0xbc8cb21b	-0.017174771
73	0xbdfea605	-0.124340095
74	0x3dcc11e5	0.099643506
75	0x3e163a05	0.1467057
76	0xbcf50023	-0.029907292
77	0xbdc905a2	-0.098155275
78	0x3d8fac6a	0.07015307
79	0x3dd39e57	0.10332935
80	0xbdd9e1e1	-0.10638786
81	0xbd73e93b	-0.059548598
82	0xbe0e638e	-0.13905165
83	0x3e2e08f6	0.16995606
84	0xbd3aa62f	-0.04556864
85	0x3d60f0c2	0.054917105
86	0x3dd9ed40	0.10640955
87	0x3db48450	0.08814299
88	0xbd0cee22	-0.03440679
89	0xbcdcad23	-0.026938027
90	0xbe07b619	-0.13253058
91	0x3cae043f	0.02124226
92	0xbc913b13	-0.017728364
93	0x3d4856b3	0.048910808
94	0xbd2c2904	-0.042031303
95	0xbd067e68	-0.032835394
96	0x3d5d3ce5	0.05401315
97	0xbe024d0b	-0.12724702
98	0x3da24c6e	0.07924734
99	0x3ce58d90	0.028021604
100	0x3d0aa150	0.033845246
101	0xbda6a578	-0.081370294
102	0xbcd3d7b5	-0.025859693
103	0xbe0c7a29	-0.13718475
104	0xbe083002	-0.13299564
105	0x3d9f62a7	0.07782488
106	0xbdba4fd7	-0.090972595
107	0x3e082fb8	0.13299453
108	0xbd989598	-0.07450408
109	0xbd8d2b2a	-0.068929985
110	0xbe106cc1	-0.14103986
111	0xbd52c7aa	-0.051459946
112	0xbc109754	-0.008825142
113	0x3e320ca7	0.17387639
114	0xbd08d8a4	-0.03340973
115	0xbdee6e6c	-0.11642155
116	0xbd564017	-0.052307215
117	0x3d80b23a	0.06283994
118	0x3b2e94d4	0.0026639001
119	0x3dcfb653	0.101421975
120	0xbddd5d4d	-0.10808811
121	0xbd670d6a	-0.056409277
122	0x3e028a94	0.12748176
123	0xbd3b460b	-0.045721095
124	0xbd84287c	-0.06453034
125	0xbce7de33	-0.028304195
126	0x3c95aaa5	0.018269846
127	0xbd9a879b	-0.07545396
128	0xbe0d0803	-0.13772587
129	0xbe28caa9	-0.16483559
130	0x3c9069d8	0.017628595
131	0xbd13ccaf	-0.036083873
132	0xbe155ee4	-0.14586979
133	0xbe1778a9	-0.14792122
134	0x3de48f30	0.11160123
135	0xbe00e41c	-0.12587017
136	0x3dbe2cf1	0.09285916
137	0xbd8ff5a0	-0.07029271
138	0x3dcc835d	0.09985993
139	0x3d73bb00	0.05950451
140	0x3ae6183b	0.0017554829
141	0xbd1fb850	-0.038994133
142	0x3df0278e	0.117262945
143	0x3dc58fd4	0.09646574
144	0xbdb4bf31	-0.08825529
145	0xbdc36daa	-0.09542401
146	0x3db395ab	0.08768781
147	0x3e203290	0.15644288
148	0xbe181a2d	-0.14853735
149	0xbe0a08dc	-0.13479942
150	0xbcfa28e6	-0.03053708
151	0x3d98e05f	0.074646704
152	0x3c04f2e8	0.008114554
153	0xbe236e7e	-0.15960118
154	0x3d4417f7	0.047874417
155	0x3d25590b	0.04036812
156	0xbdc94ec6	-0.09829478
157	0xbdba3afd	-0.09093282
158	0x3d01e3db	0.03171144
159	0xbd0d0464	-0.034428015
160	0xbe0f4aaf	-0.13993333
161	0x3e20807a	0.1567401
162	0xbd8b40f2	-0.06799497
163	0xbcaac298	-0.020844743
164	0xbd99911f	-0.07498383
165	0x3cdcfa6e	0.026974883
166	0x3dc20d0f	0.09475147
167	0x3d24a999	0.040200803
168	0xbe0d713c	-0.13812727
169	0xbbd2b48c	-0.0064302143
170	0x3d0ea07b	0.034821015
171	0xbdd453e0	-0.103675604
172	0xbe191f53	-0.14953355
173	0x3df27933	0.11839523
174	0x3c9f8638	0.01947318
175	0xbddc0377	-0.10742848
176	0xbcb204a9	-0.021730738
177	0xbc08b934	-0.008344937
178	0xbe15f945	-0.1464587
179	0x3db57009	0.0885926
180	0x3e0c0eea	0.13677564
181	0xbe1d724f	-0.15375637
182	0xbde2c040	-0.11071825
183	0xbdda7e92	-0.106686726
184	0x3dea3bfc	0.11437222
185	0x3e20d410	0.15705895
186	0xbc560d06	-0.0130646285
187	0xbc3b412a	-0.011429111
188	0xbdaf4e3a	-0.085598424
189	0xbcd60c56	-0.02612893
190	0x3e185629	0.14876617
191	0xbd11f142	-0.035630472
192	0x3dd0aeed	0.101896144
193	0xbd8ff792	-0.07029642
194	0x3cd8d1a0	0.026467144
195	0x3c1baaf5	0.009501209
196	0x3d2ab122	0.041672833
197	0xbd2fbfaa	-0.042907394
198	0x3c94a92b	0.018147072
199	0x3dabb61e	0.083843455
200	0x3ca476f1	0.020076247
201	0xbe1e15f4	-0.15438062
202	0xbdfb0c40	-0.12258196
203	0xbcc169b9	-0.023609983
204	0x3c38bf4b	0.011276077
205	0x3e11ee0a	0.14250961
206	0xbda6f42e	-0.08152042
207	0x3e3490b4	0.17633325
208	0xbcfd77ee	-0.030940976
209	0xbcf7ef11	-0.030265363
210	0x3de8d401	0.113685615
211	0x3c52d207	0.012867457
212	0x3cd60faa	0.026130516
213	0xbde6e19b	-0.112734996
214	0xbc39e813	-0.011346835
215	0x3dd18dcc	0.10232124
216	0x3cb0845d	0.02154749
217	0xbe13afbd	-0.14422508
218	0x3e10ebf4	0.14152509
219	0xbdcc4382	-0.099738136
220	0xbcb70ca7	-0.0223449
221	0x3dfbc7e9	0.12293989
222	0xbd349fa5	-0.04409756
223	0xbe097812	-0.1342471
224	0xbde0d23a	-0.109775975
225	0x3d04c0aa	0.0324103
226	0x3d08a334	0.033358768
227	0x3e06e7f4	0.1317442
228	0xbdefc983	-0.11708357
229	0xbd6bbac5	-0.057551164
230	0xbd60bbe9	-0.054866705
231	0x3dac110f	0.08401691
232	0xbdb97344	-0.09055188
233	0xbe1c90f4	-0.1528967
234	0xbde6ae3d	-0.11263702
235	0xbe0ad705	-0.13558586
236	0x3d7792c9	0.06044272
237	0x3e02e913	0.12784223
238	0x3d147e75	0.03625341
239	0xbd5b97ee	-0.05361169
240	0x3b802ed8	0.003911834
241	0xbd24ef72	-0.040267415
242	0xbda2510d	-0.079256155
243	0xbdc436f3	-0.09580793
244	0xbd87a5c6	-0.06623416
245	0x3da1d4f1	0.079019435
246	0x3d4a8cc5	0.049450655
247	0x3cd52bbe	0.026021834
248	0xbd811dcf	-0.06304514
249	0xbb589681	-0.0033048692
250	0xbdbea972	-0.09309663
251	0xbdab77e8	-0.0837248
252	0x3d418676	0.047247373
253	0xbd796b4b	-0.06089334
254	0xbdea492e	-0.11439739
255	0xbd369340	-0.044574022

decoder.fc2.bias f4 [27]
0	0x3bc93898	0.0061407797
1	0x3d75e3e9	0.060031805
2	0x3c84c481	0.016206982
3	0xbdb9848b	-0.09058484
4	0xbdafd59f	-0.08585667
5	0x3e1cab1e	0.15299651
6	0xbdaee4bc	-0.08539721
7	0x3e114540	0.14186573
8	0xbc4f68e6	-0.012659287
9	0x3dc73aa6	0.09727983
10	0x3db08733	0.08619537
11	0xbe044eeb	-0.1292073
12	0x3d53004f	0.051513966
13	0xbe1c3d48	-0.15257752
14	0x3e0b97b0	0.13632083
15	0xbe1988bf	-0.1499357
16	0x3d03fbf0	0.03222269
17	0xbe33e19f	-0.17566536
18	0xbd925053	-0.07144227
19	0x3cfba4c1	0.03071821
20	0x3d920011	0.07128919
21	0xbdfdfb2c	-0.12401423
22	0xbd7b3925	-0.061333794
23	0x3b965c4e	0.0045886403
24	0x3c24b1e9	0.010052183
25	0x3e0c1e8a	0.13683525
26	0xbdc91166	-0.098177716
