data/model.pkl (torch, 12188 bytes, 10 tensors)

encoder.fc1.weight f4 [32, 27]
-0.15794353 0.09060026 0.04476596 0.13016878 -0.1869167 0.15262419 -0.07145718 0.07750378
0.09791885 0.02516087 0.003994144 0.16414534 0.16760862 -0.011609417 0.100627854 0.060191847
-0.04538358 0.05601091 -0.18810745 0.08158019 -0.14299424 0.1393315 0.033906475 -0.09925032
-0.09210894 -0.1803482 -0.098714404 0.06182997 0.007815633 0.20146272 0.16653034 0.12083666
0.113650374 -0.14517713 0.039742 -0.15248007 -0.042372346 -0.003901203 -0.06862241 -0.08906353
-0.11700092 -0.17508018 0.14459103 0.106687635 -0.05828156 -0.085453145 0.00952872 0.1604354
-0.062210035 0.097347684 0.101748936 -0.06265717 -0.1723247 0.20630041 -0.18174332 0.06372193
-0.15622038 -0.17564063 -0.07130416 0.16095085 -0.06631688 0.049182374 0.1316517 -0.048323732
-0.037668627 -0.11566686 0.14587018 -0.16687894 0.11647724 0.02036023 -0.028949788 0.120979965
0.17023891 -0.06306715 -0.09234943 0.020720812 0.00837841 0.045491543 -0.03192203 -0.19834223
0.06894042 -0.07509501 -0.14264216 -0.090382375 -0.12097965 -0.051161513 0.10300393 -0.13952838
0.14029974 0.09598106 0.10851753 0.047476657 0.10859097 -0.19546032 -0.14538397 0.02382314
-0.15011643 0.0010523542 -0.19387229 0.09431808 -0.0038418549 -0.17285156 0.11734128 0.11083305
0.17201026 -0.088910565 -0.011935864 0.18674794 0.07225605 0.08485162 -0.053004995 0.20361494
-0.13504486 0.15568276 -0.062746875 0.108825095 -0.1384555 -0.06692951 -0.058227874 0.19853027
-0.16722901 0.14795259 0.15507 -0.11272693 -0.12802227 -0.067821525 -0.07260366 -0.09161128
0.09354997 -0.046733707 0.14263718 -0.040018704 0.04829724 0.016677989 0.08631875 -0.08207764
-0.11665235 0.08300243 0.06506593 -0.1686873 -0.082756445 0.07104374 -0.12280037 -0.038109884
-0.072175235 -0.018812027 0.019930005 -0.049486883 -0.0052474234 0.014290571 0.13585311 0.015113369
0.12596053 -0.13547264 -0.07759527 -0.13899562 0.090407364 0.06810966 -0.10594156 0.14406672
-0.17031223 -0.09478971 -0.12899238 0.12157431 -0.13932678 -0.13600965 -0.032753438 0.079419866
-0.04990575 0.14002137 0.018875107 0.11148826 0.07660345 -0.17453964 0.1381911 -0.060373507
0.12751195 -0.17827566 -0.0010519809 0.040703904 -0.018836955 -0.15476759 0.12691352 -0.024397587
-0.13370535 -0.06706131 -0.010798546 -0.01491205 -0.057392832 0.06412773 0.11763278 -0.042891987
0.108003035 0.009144867 0.05526059 -0.1408937 0.02941043 0.093425974 0.15860932 -0.009771955
-0.07574191 0.14596897 0.17061022 0.16593733 -0.16274805 -0.15671897 -0.0119538335 -0.16542615
-0.035276968 0.0484754 0.004835538 -0.17247577 0.104703434 -0.0156364 -0.1833373 -0.003115586
-0.14461567 0.10860309 -0.008915543 0.14155164 -0.15778716 0.11178475 0.07182079 -0.026285684
-0.07464945 0.09922673 0.11330664 -0.08167848 -0.14641577 -0.028875275 0.12918483 0.109348856
-0.032894958 0.03288056 -0.08389869 -0.09148228 -0.09495687 -0.121382475 -0.029020991 -0.18050903
0.07819895 -0.033447232 0.20327723 -0.009056225 -0.10613031 0.10720438 0.09494912 -0.07878651
-0.07903448 0.11474325 -0.028916722 0.0061478284 0.06804889 0.15425722 -0.01443524 -0.052764382
00000000: f3bb 21be a18c b93d 835c 373d f74a 053e
00000010: 1767 3fbe 8449 1c3e 2458 92bd 4dba 9e3d
00000020: ae89 c83d 2b1e ce3c 4fe1 823b b715 283e
00000030: 98a1 2b3e 6d35 3ebc fa15 ce3d ba8b 763d
00000040: 22e4 39bd b26b 653d 3d9f 40be 8413 a73d
00000050: 156d 12be ebac 0e3e 84e1 0a3d c043 cbbd
00000060: 9da3 bcbd 33ad 38be c72a cabd 6c41 7d3d
00000070: 240d 003c 3e4c 4e3e ee86 2a3e 3679 f73d
00000080: 87c1 e83d 50a9 14be 82c8 223d bc23 1cbe
00000090: a08e 2dbd 53ab 7fbb e889 8cbd f166 b6bd
000000a0: 2e9e efbd 3848 33be ac0f 143e 0c7f da3d
000000b0: a5b8 6ebd 0f02 afbd 591e 1c3c 2d49 243e
000000c0: f3cf 7ebd 395e c73d bf61 d03d 6752 80bd
000000d0: e375 30be 6a40 533e ec1a 3abe a580 823d
000000e0: 3cf8 1fbe 23db 33be ea07 92bd 4dd0 243e
000000f0: 25d1 87bd 7573 493d b4cf 063e 1bef 45bd
00000100: 6b4a 1abd bfe2 ecbd fe5e 153e 50e2 2abe
00000110: 9f8b ee3d 7fca a63c 1b28 edbc 58c4 f73d
00000120: 1c53 2e3e 5a29 81bd b321 bdbd b1be a93c
00000130: 9945 093c 5755 3a3d adc0 02bd 3a1a 4bbe
00000140: a330 8d3d 6acb 99bd c910 12be 651a b9bd
00000150: 2ec4 f7bd bc8e 51bd b9f3 d23d 87e0 0ebe
00000160: bcaa 0f3e b891 c43d 703e de3d e276 423d
00000170: f164 de3d c026 48be 89df 14be bf28 c33c
00000180: 1fb8 19be 26ef 893a 7586 46be d629 c13d
00000190: a1c7 7bbb 0000 31be a050 f03d 70fc e23d
000001a0: 7523 303e be16 b6bd a48e 43bc da3a 3f3e
000001b0: fbfa 933d b0c6 ad3d c41b 59bd 6f80 503e
000001c0: 3349 0abe 4d6b 1f3e 6f81 80bd b1df de3d
000001d0: 47c7 0dbe 5712 89bd 5a80 6ebd 854b 4b3e
000001e0: 153e 2bbe e280 173e acca 1e3e 60dd e6bd
000001f0: 4518 03be 03e6 8abd 3ab1 94bd b29e bbbd
00000200: 2097 bf3d d86b 3fbd 7b0f 123e a7ea 23bd
00000210: 54d3 453d 47a0 883c e3c7 b03d 5218 a8bd
00000220: 6de7 eebd 2efd a93d 4941 853d 5dbc 2cbe
00000230: 367c a9bd 617f 913d c37e fbbd 1c19 1cbd
00000240: 9cd0 93bd ae1b 9abc 4044 a33c c2b2 4abd
00000250: 94f2 abbb 0023 6a3c 141d 0b3e 109e 773c
00000260: ccfb 003e 57b9 0abe 45ea 9ebd de54 0ebe
00000270: 7f27 b93d 147d 8b3d e3f7 d8bd 3a86 133e
00000280: 5466 2ebe 1c21 c2bd 9416 04be f4fb f83d
00000290: aeab 0ebe 1d46 0bbe 7828 06bd e2a6 a23d
000002a0: f969 4cbd c361 0f3e f89f 9a3c f553 e43d
000002b0: 45e2 9c3d 85ba 32be f881 0d3e 364a 77bd
000002c0: 7e92 023e e58d 36be 9fe2 89ba 23b9 263d
000002d0: f54f 9abc 657b 1ebe 9ef5 013e 73dd c7bc
000002e0: 0eea 08be 7157 89bd 62ec 30bc ac51 74bc
000002f0: bf14 6bbd 6655 833d 74e9 f03d 82af 2fbd
00000300: b230 dd3d 5ad4 153c ee58 623d 7046 10be
00000310: 24ee f03c 1e56 bf3d 7b6a 223e 8d1a 20bc
00000320: 931e 9bbd e478 153e 72b4 2e3e 7aeb 293e
00000330: 6da7 26be f07a 20be 03da 43bc 7965 29be
00000340: 957e 10bd 248e 463d 6f73 9e3b 7d9d 30be
00000350: c16e d63d e817 80bc c6bc 3bbe dc2e 4cbb
00000360: 2116 14be 4c6b de3d 7f12 12bc eaf2 103e
00000370: f592 21be 67ef e43d c716 933d 1355 d7bc
00000380: d0e1 98bd 6237 cb3d 500d e83d 0c47 a7bd
00000390: 04ee 15be d78b ecbc 0749 043e 4bf2 df3d
000003a0: ddbc 06bd c4ad 063d 14d3 abbd 105b bbbd
000003b0: bf78 c2bd 6097 f8bd 6ebd edbc 5cd7 38be
000003c0: c526 a03d f7ff 08bd e827 503e 9060 14bc
000003d0: d95a d9bd f88d db3d af74 c23d d25a a1bd
000003e0: d4dc a1bd 82fe ea3d c3e2 ecbc b973 c93b
000003f0: 375d 8b3d 9bf5 1d3e c981 6cbc 771f 58bd

encoder.fc1.bias f4 [32]
0.15887597 -0.09755907 -0.06792933 -0.051157236 0.0020341636 -0.14238258 0.06531491 -0.19175908
0.1421268 0.04168374 -0.16360205 0.08134881 -0.12646118 -0.1463421 0.13428679 -0.064476244
-0.16231099 0.16698468 0.07043581 0.131634 -0.106535375 -0.15888345 0.14783728 0.03375924
-0.040851668 0.2004782 -0.1896156 -0.15495865 0.06873627 0.15347555 -0.1366875 0.15851428
00000000: 62b0 223e 0dcd c7bd 881e 8bbd 408a 51bd
00000010: 9a4f 053b bdcc 11be d3c3 853d 7e5c 44be
00000020: b089 113e 92bc 2a3d 4c87 27be 349a a63d
00000030: 0a7f 01be b4da 15be 7a82 093e 1f0c 84bd
00000040: da34 26be 08fe 2a3e a640 903d 10cb 063e
00000050: 382f dabd 58b2 22be a862 173e 2147 0a3d
00000060: 1454 27bd 284a 4d3e 982a 42be 7bad 1ebe
00000070: 9ac5 8c3d b228 1d3e cff7 0bbe 9151 223e

encoder.fc21.weight f4 [4, 32]
-0.048449125 -0.09452734 0.032457203 0.09023738 -0.032626875 -0.053657185 -0.1369745 0.11263442
0.11831636 0.08003014 0.120955035 0.05564078 0.09792387 0.13808857 0.04604947 0.10613029
0.09708359 0.004917983 0.13655467 0.08286065 -0.025792705 -0.14997427 -0.07642708 0.028740786
-0.16956717 -0.17613839 0.07174322 0.0014352577 -0.10991892 -0.053005055 -0.12747636 0.015894827
-0.023605898 0.16765703 -0.0684224 0.018863384 0.15318166 0.085747205 0.063188456 0.033253834
0.152187 0.08050429 -0.0659071 0.19959567 0.11058675 0.1500949 -0.04610386 -0.039681338
-0.13336726 0.07531385 -0.0013805585 0.016010348 -0.029866654 -0.047226574 -0.14150637 -0.052010447
0.019054713 0.13764006 -0.0235996 0.092247546 -0.030828873 0.034499917 0.03716157 -0.06733778
0.07948606 -0.11700747 -0.047818538 -0.14961942 -0.09498785 0.06956979 0.15470211 0.11532793
-0.055736717 -0.0677566 0.0029520527 0.034007784 -0.018232025 0.098079845 0.009402696 -0.0047319266
0.14476392 -0.022701297 0.076732375 -0.02313379 0.14276671 -0.1690493 0.17182247 -0.020740159
-0.08624817 0.14446466 0.019755008 -0.09437974 0.014305088 -0.11179658 0.11706501 0.11885918
-0.15660785 -0.18156214 -0.012815797 0.07348198 0.08695561 0.08278781 0.15904813 -0.06443393
0.08735938 0.071999304 0.05243231 0.026654352 0.019552276 0.12133046 -0.13275702 -0.022477183
0.12844469 0.005301732 -0.16445217 -0.04182344 0.02858037 0.0024467444 -0.10922414 0.13489673
-0.023465615 0.12232335 0.03508516 0.13414729 0.035217825 -0.022086333 -0.018151084 -0.07611601
00000000: 9772 46bd 8d97 c1bd d8f1 043d 60ce b83d
00000010: c2a3 05bd a3c7 5bbd 0b43 0cbe e0ac e63d
00000020: d94f f23d d8e6 a33d 46b7 f73d 96e7 633d
00000030: 4f8c c83d 1767 0d3e 5e9e 3c3d d65a d93d
00000040: c3d3 c63d 0827 a13b fdd4 0b3e d8b2 a93d
00000050: 394b d3bc db92 19be cd85 9cbd cc71 eb3c
00000060: 04a3 2dbe 9f5d 34be 1cee 923d 421f bc3a
00000070: 2c1d e1bd d41b 59bd 2a89 02be de35 823c
00000080: 2861 c1bc 49ae 2b3e 0b21 8cbd 6287 9a3c
00000090: a7db 1c3e 3b9c af3d f368 813d 2c35 083d
000000a0: e9d6 1b3e 6fdf a43d 4dfa 86bd cf62 4c3e
000000b0: 4e7b e23d 7ab2 193e 67d7 3cbd e688 22bd
000000c0: 6d91 08be 263e 9a3d dbf3 b4ba 2228 833c
000000d0: eaaa f4bc a770 41bd 0ce7 10be e808 55bd
000000e0: a118 9c3c 84f1 0c3e f353 c1bc 48ec bc3d
000000f0: d58c fcbc c94f 0d3d bb36 183d 64e8 89bd
00000100: 96c9 a23d 9da1 efbd 5fdd 43bd d535 19be
00000110: fd88 c2bd 9b7a 8e3d 3b6a 1e3e 0d31 ec3d
00000120: 2f4c 64bd f9c3 8abd 3a77 413b bf4b 0b3d
00000130: 545b 95bc 16de c83d c40d 1a3c 470e 9bbb
00000140: fe3c 143e 12f8 b9bc dd25 9d3d 1383 bdbc
00000150: 7031 123e 421b 2dbe 3bf2 2f3e 44e7 a9bc
00000160: e1a2 b0bd 8bee 133e 41d5 a13c 2a4a c1bd
00000170: e35f 6a3c 9bf5 e4bd c8bf ef3d 716c f33d
00000180: cf5d 20be 6deb 39be 59f9 51bc b87d 963d
00000190: c815 b23d a88c a93d 83dd 223e f0f5 83bd
000001a0: 7ae9 b23d 5f74 933d 43c3 563d 3a5a da3c
000001b0: 182c a03c 1b7c f83d 75f1 07be 1222 b8bc
000001c0: 0187 033e 27ba ad3b 2666 28be 0e4f 2bbd
000001d0: 6121 ea3c 8f59 203b e8b0 dfbd 5e22 0a3e
000001e0: f63a c0bc aa84 fa3d 75b5 0f3d e85d 093e
000001f0: 9140 103d 66ee b4bc 95b1 94bc b6e2 9bbd

encoder.fc21.bias f4 [4]
0.06877121 -0.100906745 -0.17630567 0.032059588
00000000: ecd7 8c3d 32a8 cebd 7989 34be ea50 033d

encoder.fc22.weight f4 [4, 32]
0.018538367 -0.07270181 0.13218322 -0.06550402 0.13537267 -0.042475536 0.0768224 -0.07021095
-0.10402556 0.10532352 0.045367703 0.17440714 0.10639399 -0.08585713 -0.1274102 -0.05145895
0.06250861 0.010584039 -0.056880426 -0.14728966 0.0529508 0.1532908 0.06228303 0.01837314
0.022747345 0.12224246 0.1643123 0.022920072 0.14205013 -0.14188734 0.05496015 0.1492557
-0.085510015 0.059909582 0.000885124 0.1437332 -0.03989901 0.01868124 -0.04128449 -0.008622408
-0.06457287 0.11590833 0.09995394 0.15429482 0.04445929 -0.15156057 -0.1617566 0.08296451
-0.11931887 0.07349146 0.11110108 -0.14278847 0.13384622 -0.06709088 0.076190576 -0.0060915933
-0.03409879 -0.07824934 -0.03333083 -0.038823113 -0.09747773 0.03471782 0.08185079 0.053262208
0.10895218 -0.022063024 -0.16375208 -0.03621555 0.055976376 -0.024185082 0.09079988 -0.022563465
-0.008074794 0.08405556 0.18434356 0.008666475 0.030826373 0.028393779 0.12906395 -0.1361609
-0.12148716 -0.076797016 -0.08552374 0.14989136 0.11855326 0.11283823 -0.14021796 -0.13652594
-0.10246806 -0.1074439 0.09352703 -0.030531775 -0.022718124 -0.062482152 -0.031080661 -0.15500909
-0.00060008967 0.09409835 -0.02953077 -0.055866085 0.11953124 0.14652924 0.14250767 -0.053434804
0.102806106 -0.16746204 -0.013251072 -0.0015723316 0.058932107 -0.11758197 0.0743626 0.12969206
-0.06912455 0.050238386 0.12360705 -0.028092002 -0.013465099 -0.17841706 0.011177605 0.07597723
0.056449663 -0.008391508 0.09833897 -0.13185386 0.073464245 0.014692889 0.062684886 -0.098935336
00000000: c6dd 973c b0e4 94bd 0a5b 073e f926 86bd
00000010: 229f 0a3e d4fa 2dbd 1055 9d3d c2ca 8fbd
00000020: 5a0b d5bd dcb3 d73d 7cd3 393d c997 323e
00000030: 18e5 d93d ddd5 afbd d277 02be 9fc6 52bd
00000040: 8404 803d ad68 2d3c 73fb 68bd 1ad3 16be
00000050: f0e2 583d 43f8 1c3e 7e1c 7f3d 4483 963c
00000060: a458 ba3c 415a fa3d 7c41 283e e0c2 bb3c
00000070: 9775 113e ea4a 11be e51d 613d 7cd6 183e
00000080: e01f afbd c063 753d ab07 683a cc2e 133e
00000090: 256d 23bd 6609 993c ed19 29bd 0045 0dbc
000000a0: c83e 84bd 5961 ed3d a7b4 cc3d 76ff 1d3e
000000b0: f21a 363d b232 1bbe 86a3 25be 4ce9 a93d
000000c0: 745d f4bd b182 963d f788 e33d 2437 12be
000000d0: fc0e 093e f166 89bd ce09 9c3d fd9b c7bb
000000e0: 2cab 0bbd 3141 a0bd e985 08bd fc04 1fbd
000000f0: 67a2 c7bd 4634 0e3d 63a1 a73d 7929 5a3d
00000100: 5222 df3d 84bd b4bc a0ae 27be c256 14bd
00000110: 7c47 653d cb1f c6bc 4af5 b93d 04d7 b8bc
00000120: 244c 04bc 5225 ac3d 8fc4 3c3e d5fd 0d3c
00000130: 9787 fc3c 129a e83c 5729 043e c36d 0bbe
00000140: 43ce f8bd c147 9dbd 1227 afbd 1f7d 193e
00000150: 0dcc f23d bb17 e73d 4c95 0fbe 75cd 0bbe
00000160: c6da d1bd 8c0b dcbd 198b bf3d c61d fabc
00000170: 5c1b babc 49ed 7fbd df9c febc b4ba 1ebe
00000180: 564f 1dba a3b6 c03d 83ea f1bc d6d3 64bd
00000190: cbcc f43d c30b 163e 88ed 113e 74de 5abd
000001a0: 028c d23d 2b7b 2bbe 061b 59bc b216 ceba
000001b0: cb62 713d d1ce f0bd 6b4b 983d ffcd 043e
000001c0: 2c91 8dbd c4c6 4d3d b125 fd3d 3321 e6bc
000001d0: b89c 5cbc f6b2 36be 4622 373c f399 9b3d
000001e0: c337 673d 897c 09bc f165 c93d b304 07be
000001f0: 6c74 963d 71ba 703c ef60 803d 9c9e cabd

encoder.fc22.bias f4 [4]
-0.04495391 -0.06264838 0.027304973 -0.09707834
00000000: 9721 38bd cb4d 80bd aeae df3c 02d1 c6bd

decoder.fc1.weight f4 [32, 4]
-0.38886976 0.38882953 -0.46622744 0.16579452 0.33039367 0.15698247 0.16149075 0.22093709
0.076278515 0.4729928 -0.055639632 0.22944625 0.2247858 0.33083057 0.05264755 -0.27086192
-0.14559056 -0.07156398 -0.29248825 0.21171974 0.38264614 -0.09646734 -0.2775738 -0.35849693
-0.3180069 0.31255496 -0.19711304 0.371935 0.31687775 -0.06104305 -0.22811398 0.4685351
-0.29300353 -0.28152823 0.34184867 0.42685452 0.28400427 -0.1820599 0.42046553 -0.19498499
-0.4689912 0.39539105 -0.4395276 -0.18339857 0.38567472 0.21534935 -0.44534463 -0.23819111
-0.42198905 -0.10188696 0.43190917 0.4566584 -0.07281629 -0.21728018 -0.20845895 -0.29020947
0.4345083 0.07354405 0.101971835 0.030418906 -0.34185523 0.19359368 0.27726802 -0.031936362
-0.47513682 -0.20444466 -0.10548023 -0.46037444 0.28652278 0.2264095 0.204873 -0.13982947
-0.2887297 -0.36020586 0.35742277 -0.43993196 -0.2765257 -0.11567357 0.28835928 0.17450589
0.16730422 0.32229182 0.49113294 -0.2460887 -0.42251468 0.1978583 -0.40369895 -0.12348381
-0.017839743 0.503072 -0.48626146 0.26451904 -0.36039218 0.10360557 0.38340586 -0.2440914
-0.47925735 0.22540107 0.046516348 -0.2485568 0.013834069 0.4909628 -0.3138507 -0.30781478
-0.007246881 -0.08291139 -0.33608544 0.21178366 0.29945797 0.03277607 -0.09812327 0.16632387
0.13856274 -0.015553739 0.15038905 0.097502775 0.115797594 0.47526982 0.32531005 -0.07651752
-0.0350477 0.47840533 -0.23627335 -0.20130788 0.21262403 -0.22176898 -0.211862 0.44292566
00000000: f019 c7be aa14 c73e 5db5 eebe 0ac6 293e
00000010: 5c29 a93e 03c0 203e d55d 253e 553d 623e
00000020: e937 9c3d 1d2c f23e 62e6 63bd f5f3 6a3e
00000030: 402e 663e a062 a93e f5a4 573d 6aae 8abe
00000040: b115 15be 2390 92bd 05c1 95be 0fcd 583e
00000050: 32ea c33e ab90 c5bd 271e 8ebe e98c b7be
00000060: cdd1 a2be 3407 a03e 00d8 49be 446e be3e
00000070: cd3d a23e 4708 7abd b696 69be d5e3 ef3e
00000080: 8f04 96be 7824 90be ca06 af3e ad8c da3e
00000090: 0269 913e e96d 3abe 4247 d73e 25aa 47be
000000a0: 9d1f f0be b270 ca3e c309 e1be d6cc 3bbe
000000b0: 2877 c53e 8a84 5c3e 3604 e4be 5fe8 73be
000000c0: f30e d8be 1caa d0bd 3323 dd3e 21cf e93e
000000d0: b520 95bd b27e 5ebe 4376 55be 5696 94be
000000e0: df77 de3e 439e 963d 9cd6 d03d 1231 f93c
000000f0: a607 afbe 6c3d 463e 13f6 8d3e b4cf 02bd
00000100: 2245 f3be f159 51be 0506 d8bd 33b6 ebbe
00000110: 1db3 923e e4d7 673e 3aca 513e 752f 0fbe
00000120: 61d4 93be e76c b8be 1e00 b73e c33e e1be
00000130: c794 8dbe 44e6 ecbd d4a3 933e acb1 323e
00000140: cc51 2b3e 6f03 a53e c775 fb3e adfe 7bbe
00000150: d853 d8be 5e9b 4a3e a1b1 cebe 14e5 fcbd
00000160: a724 92bc 54c9 003f 43f7 f8be 0a6f 873e
00000170: 5385 b8be 282f d43d c64d c43e 19f3 79be
00000180: 3861 f5be 8acf 663e ed87 3e3d ac85 7ebe
00000190: 4aa8 623c 7a5f fb3e 0ab1 a0be e699 9dbe
000001a0: 3e77 edbb 72cd a9bd 6413 acbe d1dd 583e
000001b0: 8e52 993e 3340 063d daf4 c8bd ce50 2a3e
000001c0: 64e3 0d3e 1cd5 7ebc 96ff 193e 89af c73d
000001d0: 4a27 ed3d 9156 f33e 0a8f a63e 38b5 9cbd
000001e0: 2d8e 0fbd 8bf1 f43e a4f1 71be a723 4ebe
000001f0: 1dba 593e 6817 63be 5af2 58be 27c7 e23e

decoder.fc1.bias f4 [32]
-0.2407681 -0.14432138 0.16364679 0.35488632 -0.30402195 0.26039833 -0.3858183 -0.07154702
-0.24631219 0.031892072 0.45698938 -0.30989563 0.24247712 0.022621535 -0.3078725 -0.09826516
0.089943625 0.07624827 -0.44831055 -0.46620673 -0.4523979 0.11304403 -0.29079247 0.37342012
0.015961315 -0.28415132 -0.29919493 0.22314405 -0.3671291 0.43316242 0.3149017 0.054971796
00000000: ea8b 76be fcc8 13be 0693 273e a9b3 b53e
00000010: c4a8 9bbe ee52 853e fa89 c5be 3e87 92bd
00000020: 4339 7cbe 43a1 023d 83fa e93e a4aa 9ebe
00000030: ec4b 783e cc50 b93c 77a1 9dbe 3f3f c9bd
00000040: 5d34 b83d 0e28 9c3d f688 e5be a6b2 eebe
00000050: b3a0 e7be a183 e73d c0e2 94be ec30 bf3e
00000060: 4ec1 823c 487c 91be 1430 99be e07f 643e
00000070: 58f8 bbbe 77c7 dd3e cc3a a13e 1b2a 613d

decoder.fc2.weight f4 [27, 32]
-0.08425169 -0.07505792 0.029083472 -0.05934081 0.19220935 0.1974372 0.004106818 0.13032481
-0.08673787 -0.074434444 0.00074970006 0.124711104 -0.120496504 0.15906447 0.04419786 -0.09457151
0.06952921 -0.06199897 0.14601102 0.18490206 0.08261927 0.016995221 0.007863543 0.16695699
-0.08977069 -0.032859035 0.0072973846 -0.087182246 -0.1612443 0.07884882 -0.093702905 0.001192363
0.09178621 -0.09114261 -0.0094768405 0.01881034 0.115032785 0.14105517 -0.19133683 0.09479245
0.13251153 -0.056743935 0.13275592 -0.08060333 -0.1588713 -0.08681994 0.093262196 0.055590037
-0.13343534 0.08857445 0.13416657 -0.03824252 0.13291469 0.08831008 0.064342976 -0.0033061507
-0.16308065 0.083709046 -0.13677247 -0.17545779 0.05797052 -0.071115 -0.028842214 0.09325122
0.025061622 -0.008300252 0.0922345 0.19315664 -0.07587423 0.069802895 0.067492716 -0.02084125
-0.024902212 0.18813527 0.11723533 0.17164671 -0.06746378 0.07507793 -0.0842323 -0.04851268
-0.016339 -0.06636235 0.06367628 0.06179552 0.18252763 0.041162286 0.11525131 0.15741052
0.11989197 -0.009781683 -0.10601825 -0.08098879 -0.16099592 0.09905799 -0.063360184 0.19422948
-0.039602544 0.008180598 0.051854786 -0.1802368 0.067594096 -0.058033947 -0.099409156 0.00890232
0.11539254 0.028831685 0.1319468 -0.19241402 0.120321535 -0.07776009 -0.052180674 0.14394832
-0.10904076 -0.14602855 -0.004709206 -0.008596206 -0.07274295 -0.14537251 0.08556476 0.019751446
0.09488411 0.121609904 -0.16265185 0.11927271 -0.06973555 -0.1685277 -0.009339219 0.07178858
0.029401017 0.19236536 0.07098403 0.005262979 -0.05338277 0.095041335 0.18773781 0.06711718
0.12710415 -0.1359524 0.037153263 0.074115895 -0.034401864 0.15476452 0.048802186 0.03268058
-0.12922649 -0.13359214 0.17843124 0.109099865 -0.10454546 -0.082996786 -0.075960316 -0.08976526
0.16167605 -0.06812005 0.044222824 -0.12305419 -0.02057057 -0.028972587 0.0103234565 0.16859083
0.16703817 0.09594967 0.017142257 0.051188428 0.06537415 0.031516053 0.0026696508 -0.11116064
-0.12658675 0.12508054 -0.036074314 -0.10283508 -0.007803272 0.05337318 -0.105122864 0.088164225
-0.02271725 0.11885717 0.09887332 -0.04413443 0.11047131 -0.10080881 0.11082684 -0.09012251
0.09339444 0.045015924 0.009248895 0.034807663 0.14455894 0.14733024 -0.06425067 0.14795944
-0.11279036 -0.03380783 -0.085842125 0.17047462 0.08308333 -0.060581576 0.16592777 0.15229926
0.07818779 -0.08599927 0.11536713 0.102148086 -0.1382036 0.04106466 0.05559398 -0.10591559
0.17702848 0.20296463 -0.016430538 0.004534111 0.084261626 0.11254547 0.19476447 -0.102219015
0.16154003 0.16232929 -0.015556057 -0.02949709 0.004860147 0.009322164 0.19406444 0.07708988
0.13075729 -0.04966973 0.074594095 -0.023849351 -0.12534653 -0.07740623 -0.060212996 0.07612673
-0.048331 -0.10042952 -0.085210554 0.07876496 0.11319458 -0.07834193 -0.113571495 -0.105606616
-0.067999214 0.06694059 -0.03825694 0.117693834 0.08699851 0.18285038 0.07395449 -0.09855051
-0.14311261 0.0321497 -0.08969249 0.18801844 0.09870757 -0.076202326 0.00334585 0.15380211
00000000: 268c acbd f7b7 99bd 7640 ee3c 590f 73bd
00000010: 87d2 443e fa2c 4a3e 7d92 863b de73 053e
00000020: a0a3 b1bd 1671 98bd 8587 443a 8968 ff3d
00000030: dfc6 f6bd cce1 223e d108 353d b5ae c1bd
00000040: 5565 8e3d a2f2 7dbd ea83 153e f756 3d3e
00000050: 4b34 a93d 9039 8b3c 17d6 003c c6f6 2a3e
00000060: b2d9 b7bd 3297 06bd e61e ef3b 9b8c b2bd
00000070: 3a1d 25be 7d7b a13d 4fe7 bfbd 1049 9c3a
00000080: 69fa bb3d faa8 babd c044 1bbc 2418 9a3c
00000090: 4f96 eb3d c470 103e cded 43be 8b22 c23d
000000a0: 1ab1 073e 546c 68bd 2bf1 073e 5c13 a5bd
000000b0: 28af 22be a7ce b1bd 4000 bf3d 61b2 633d
000000c0: 46a3 08be 8566 b53d f662 093e 30a4 1cbd
000000d0: ca1a 083e eadb b43d 40c6 833d 01ac 58bb
000000e0: 9dfe 26be a66f ab3d 150e 0cbe 35ab 33be
000000f0: 7f72 6d3d bea4 91bd 8246 ecbc 7ffa be3d
00000100: 084e cd3c c8fd 07bc 71e5 bc3d dbca 453e
00000110: f363 9bbd d2f4 8e3d 9f39 8a3d 45bb aabc
00000120: b9ff cbbc 88a6 403e 1419 f03d 28c4 2f3e
00000130: 732a 8abd 75c2 993d fc81 acbd 3bb5 46bd
00000140: 5ed9 85bc fce8 87bd b668 823d 4d1d 7d3d
00000150: 86e8 3a3e c999 283d e108 ec3d 3930 213e
00000160: ec89 f53d 5a43 20bc 1920 d9bd 73dd a5bd
00000170: 1ddc 24be eade ca3d fcc2 81bd 18e4 463e
00000180: 4736 22bd ea07 063c af65 543d ff8f 38be
00000190: c66e 8a3d 01b5 6dbd 0797 cbbd 09db 113c
000001a0: ed52 ec3d 6d30 ec3c 101d 073e 2e08 45be
000001b0: 236b f63d af40 9fbd 67bb 55bd 3067 133e
000001c0: c350 dfbd 8288 15be af4f 9abb 1ad7 0cbc
000001d0: 41fa 94bd 88dc 14be 943c af3d c9cd a13c
000001e0: 9a52 c23d 9d0e f93d 358e 26be 4045 f43d
000001f0: 83d1 8ebd 8692 2cbe 8603 19bc e405 933d
00000200: 67da f03c 6dfb 443e 1360 913d 1175 ac3b
00000210: e4a7 5abd 08a5 c23d 573e 403e bb74 893d
00000220: 9727 023e 1b37 0bbe 052e 183d 13ca 973d
00000230: f8e8 0cbd 977a 1e3e cde4 473d 12dc 053d
00000240: f353 04be 61cc 08be aeb6 363e c06f df3d
00000250: ee1b d6bd 38fa a9bd 1591 9bbd d9d6 b7bd
00000260: 688e 253e 8682 8bbd fe22 353d d603 fcbd
00000270: 9d83 a8bc eb57 edbc b723 293c 13a3 2c3e
00000280: 0e0c 2b3e 4381 c43d eb6d 8c3c f5aa 513d
00000290: e2e2 853d fa16 013d 4ff5 2e3b 31a8 e3bd
000002a0: f59f 01be 1d15 003e a9c2 13bd 339b d2bd
000002b0: 97b2 ffbb d69d 5a3d a84a d7bd 728f b43d
000002c0: 8719 babc 636b f33d 187e ca3d 4ec6 34bd
000002d0: c83e e23d d974 cebd 2ff9 e23d 2792 b8bd
000002e0: 9645 bf3d 9e62 383d ad88 173c 7b92 0e3d
000002f0: 4207 143e bddd 163e db95 83bd ae82 173e
00000300: a2fe e6bd 147a 0abd ffcd afbd e690 2e3e
00000310: 9827 aa3d 6324 78bd f8e8 293e 56f4 1b3e
00000320: ec20 a03d 6320 b0bd 9a45 ec3d 0433 d13d
00000330: 3f85 0dbe 6b33 283d 83b6 633d 46ea d8bd
00000340: f446 353e f6d5 4f3e 5699 86bc e192 943b
00000350: 5c91 ac3d 3d7e e63d 5670 473e 3458 d1bd
00000360: c06a 253e a639 263e d5de 7ebc e2a3 f1bc
00000370: de41 9f3b fdbb 183c d4b8 463e 4de1 9d3d
00000380: 3de5 053e 7d72 4bbd cac4 983d b75f c3bc
00000390: d75a 00be 2887 9ebd e7a1 76bd 55e8 9b3d
000003a0: baf6 45bd fead cdbd df82 aebd 864f a13d
000003b0: 8fd2 e73d bc71 a0bd 2c98 e8bd 4848 d8bd
000003c0: 2c43 8bbd 2618 893d 4fb3 1cbd 7709 f13d
000003d0: 462c b23d 213d 3b3e 7475 973d dad4 c9bd
000003e0: 1d8c 12be 67af 033d b2b0 b7bd e887 403e
000003f0: 3227 ca3d f70f 9cbd 0c46 5b3b 4d7e 1d3e

decoder.fc2.bias f4 [27]
0.12622726 -0.12308772 -0.120777026 -0.16078559 -0.023190375 -0.06986571 -0.059061375 0.116984166
0.11030619 0.1255899 0.1453686 0.12773144 -0.15157963 0.016749457 0.052480143 0.12040025
0.10530835 -0.07628611 0.101290695 0.10614798 -0.13611601 -0.11647555 -0.045533493 0.09280123
0.0026085884 0.039548136 -0.012081351
00000000: b841 013e 6a15 fcbd f259 f7bd faa4 24be
00000010: bef9 bdbc c115 8fbd 57ea 71bd 6595 ef3d
00000020: 36e8 e13d a49a 003e 82db 143e 08cc 023e
00000030: b137 1bbe 2836 893c 6bf5 563d 6894 f63d
00000040: e7ab d73d e43b 9cbd 7f71 cf3d 1d64 d93d
00000050: ff61 0bbe bc8a eebd 5481 3abd 920e be3d
00000060: daf4 2a3b 3afd 213d dcf0 45bc
