data/model.pkl (torch, 11420 bytes, 10 tensors)

encoder.fc1.weight f4 [32, 27]
-0.0668761 -0.16865665 0.21805248 0.082313806 0.034718934 0.13548341 0.19228476 -0.07672594
-0.27447596 0.18990389 0.025386337 -0.08926218 0.15782803 -0.02647164 -0.29352155 0.18737729
-0.39050618 0.1647346 -0.37766644 0.07467164 -0.21253045 -0.26167536 0.3521053 -0.02475809
-0.07515634 0.35175866 0.29258594 -0.19896178 -0.059518237 0.28075364 -0.25803956 -0.2719547
0.12610488 0.16007021 -0.26178014 -0.032135967 0.23581082 0.37440863 0.21886198 0.015280151
0.3597631 0.09301479 -0.012167849 0.003313085 -0.27959895 -0.16306064 -0.25657383 -0.3988253
0.44781247 0.042451132 -0.1553412 -0.32609957 0.4217107 0.11431286 0.014891623 0.13110894
-0.27786416 -0.38927895 -0.05887224 0.025087822 -0.11716909 0.08146396 0.27209705 -0.13333452
-0.012903712 0.048890363 -0.2867507 0.34598118 0.20617422 0.20495093 0.44678092 -0.07461895
0.2588869 -0.13287242 0.22513108 0.41373074 -0.5173217 0.09457558 -0.030966166 -0.115296476
-0.25059518 0.07804702 0.08203207 0.362595 0.19223806 -0.20343253 0.2318 0.18898384
-0.021072667 -0.10416648 0.1811645 -0.07200217 -0.04851948 0.10609149 -0.117986605 -0.25598055
0.25709423 0.0019512386 0.006590835 -0.08223188 0.05461481 -0.052570816 -0.14883973 0.095051214
0.087196015 -0.040929694 0.26140398 0.186644 0.013736725 -0.016044904 0.119532526 -0.06684747
-0.15839198 -0.01537405 0.21179081 -0.055191066 -0.2503366 0.113993295 0.20690073 0.034324124
0.007936825 0.14116949 0.13626748 -0.2930672 -0.29839712 -0.11693477 -0.27254966 -0.11729805
-0.25613552 -0.017962607 0.109373994 -0.35503548 -0.28239337 0.31466174 -0.00589994 -0.016662871
0.038973216 -0.018168788 -0.00020037705 -0.058675725 -0.337274 -0.080819145 0.07330029 0.3437795
-0.28590897 0.10330619 0.14204268 -0.20652513 -0.09256772 0.23756064 0.19812325 0.17627963
0.05297998 0.06869556 0.17039447 0.28165084 0.23011298 0.018043336 0.39696324 0.2434067
-0.36980334 -0.18316527 0.13650621 -0.035538435 -0.22902597 -0.051466804 -0.06401946 -0.33780015
-0.25329202 0.38768646 0.022158941 -0.26687065 -0.1244007 -0.0083947955 -0.16026635 0.039431147
-0.039775975 -0.25385225 0.17345859 0.030973338 0.12531172 0.20434201 0.01725799 -0.019458497
0.020618038 0.0730831 0.34934276 -0.36391157 -0.1075595 0.28446156 -0.15493976 -0.2254398
0.16023344 0.15994851 -0.009714799 -0.4017823 0.09109092 0.03824943 -0.23405254 -0.047479846
-0.18715467 -0.083664 -0.1988608 -0.015006761 -0.09687025 -0.11220066 0.14478579 0.19354844
0.25893658 0.026064675 -0.118920766 -0.016541535 0.22338927 0.28694507 -0.36296412 -0.04817706
0.12316415 0.06924723 0.37710735 0.031396482 -0.049587365 0.12128423 0.09585089 -0.29247278
-0.3742028 0.027332222 0.039736353 -0.102008276 0.3446239 -0.15850453 -0.17980579 0.21837524
-0.075189486 0.18521975 -0.08996934 0.06693134 -0.06119367 -0.0471204 0.13018253 0.3103877
-0.062161323 0.26290148 0.40837267 0.22707404 -0.041968048 0.11919289 0.3928088 0.04160377
0.3557702 0.05701026 -0.18181041 -0.39816707 0.34665495 0.08533678 -0.066307865 0.39503875
00000000: 56f6 88bd 54b4 2cbe 2649 5f3e 2494 a83d
00000010: 7135 0e3d 2abc 0a3e 4ce6 443e 7d22 9dbd
00000020: 1d88 8cbe 2a76 423e 02f7 cf3c 17cf b6bd
00000030: ac9d 213e 0edb d8bc 7548 96be d5df 3f3e
00000040: 6df0 c7be 30b0 283e 7f5d c1be 72ed 983d
00000050: 95a1 59be 50fa 85be 2547 b43e 7ad1 cabc
00000060: 91eb 99bd b619 b43e d3cd 953e a3bc 4bbe
00000070: 65c9 73bd f1be 8f3e c31d 84be a53d 8bbe
00000080: a321 013e 72e9 233e 0c08 86be 01a1 03bd
00000090: 6478 713e 7db2 bf3e 5b1d 603e 9959 7a3c
000000a0: de32 b83e 8a7e be3d a85b 47bc 5820 593b
000000b0: 9827 8fbe 5ef9 26be a55d 83be d432 ccbe
000000c0: ad47 e53e 3de1 2d3d c311 1fbe 86f6 a6be
000000d0: 77ea d73e dc1c ea3d fefb 733c 6c41 063e
000000e0: 3644 8ebe 924f c7be 0524 71bd fa84 cd3c
000000f0: 59f6 efbd 94d6 a63d 4e50 8b3e d888 08be
00000100: 176a 53bc 4341 483d fdd0 92be 7224 b13e
00000110: 561f 533e a8de 513e 78c0 e43e d2d1 98bd
00000120: d38c 843e b50f 08be c388 663e 84d4 d33e
00000130: 326f 04bf d7b0 c13d c2ac fdbc 8f20 ecbd
00000140: 034e 80be 1ed7 9f3d 6e00 a83d 0da6 b93e
00000150: 0eda 443e 9e50 50be fb5c 6d3e fb84 413e
00000160: 96a0 acbc 3c55 d5bd 3083 393e e075 93bd
00000170: 5dbc 46bd 7f46 d93d f6a2 f1bd e20f 83be
00000180: dba1 833e b4c0 ff3a eef7 d73b 3069 a8bd
00000190: c7b3 5f3d 7f54 57bd 7169 18be 36aa c23d
000001a0: d393 b23d e5a5 27bd bed6 853e 9b1f 3f3e
000001b0: 0010 613c 9a70 83bc 78cd f43d 54e7 88bd
000001c0: 8231 22be 70e3 7bbc b1df 583e 0710 62bd
000001d0: 1e2c 80be 5175 e93d c9dd 533e 7497 0c3d
000001e0: 7509 023c bc8e 103e b489 0b3e e70c 96be
000001f0: 82c7 98be 7f7b efbd a18b 8bbe f639 f0bd
00000200: 3224 83be 5126 93bc 79ff df3d 36c7 b5be
00000210: dd95 90be 581b a13e 4954 c1bb 9380 88bc
00000220: 61a2 1f3d b6d6 94bc 4e1c 52b9 f555 70bd
00000230: 2daf acbe 8284 a5bd 761e 963d de03 b03e
00000240: a962 92be 3292 d33d a373 113e 537b 53be
00000250: 2594 bdbd 1943 733e d2e0 4a3e a682 343e
00000260: 8901 593d 42b0 8c3d e37b 2e3e 8a34 903e
00000270: bda2 6b3e 9ecf 933c c43e cb3e 9b3f 793e
00000280: dd56 bdbe ad8f 3bbe 49c8 0b3e c090 11bd
00000290: c985 6abe dbce 52bd a21c 83bd 24f4 acbe
000002a0: 7eaf 81be d77e c63e ab86 b53c 45a3 88be
000002b0: cbc5 febd 538a 09bc dd1c 24be 8e82 213d
000002c0: 22ec 22bd ecf8 81be 219f 313e ccbb fd3c
000002d0: b751 003e 083f 513e a160 8d3c 6d67 9fbc
000002e0: 29e7 a83c 98ac 953d 0edd b23e 9e52 babe
000002f0: 2848 dcbd f2a4 913e 87a8 1ebe b1d9 66be
00000300: 3c14 243e 8bc9 233e d22a 1fbc 69b6 cdbe
00000310: e08d ba3d 6fab 1c3d 78ab 6fbe 3a7a 42bd
00000320: 79a5 3fbe 0858 abbd 2aa2 4bbe ebde 75bc
00000330: e963 c6bd 76c9 e5bd ba42 143e 9031 463e
00000340: 5693 843e 9685 d53c bb8c f3bd 1d82 87bc
00000350: 28c0 643e 77ea 923e 6fd6 b9be 4f55 45bd
00000360: 7c3d fc3d 7ed1 8d3d 3714 c13e 9999 003d
00000370: 1f1c 4bbd de63 f83d 794d c43d febe 95be
00000380: 8297 bfbe d3e7 df3c 96c2 223d b7e9 d0bd
00000390: 8b72 b03e 034f 22be 021f 38be c29d 5f3e
000003a0: f2fc 99bd 3faa 3d3e d841 b8bd 4c13 893d
000003b0: 37a6 7abd 5201 41bd 924e 053e 23eb 9e3e
000003c0: df9c 7ebd 069b 863e 3916 d13e 1986 683e
000003d0: b0e6 2bbd 671b f43d 3c1e c93e b768 2a3d
000003e0: 8327 b63e 9783 693d 822c 3abe 8edc cbbe
000003f0: c27c b13e 0dc5 ae3d 6bcc 87bd 8542 ca3e

encoder.fc1.bias f4 [32]
0.16922319 0.02979423 -0.092684954 0.087353654 -0.029383583 0.17711289 -0.07972152 0.061804112
0.22899869 -0.067950755 0.096048184 -0.075472 -0.18147513 -0.03662375 0.039107583 0.046884775
-0.10589758 0.0003880817 0.1421144 -0.11659608 0.109799415 0.05115008 -0.053084306 0.010106908
-0.0633365 -0.107624106 0.028196426 -0.094149426 0.09747758 -0.06969779 -0.13608398 -0.17656022
00000000: d848 2d3e 0713 f43c 9cd1 bdbd 79e6 b23d
00000010: d7b5 f0bc 155d 353e 0945 a3bd 4f26 7d3d
00000020: a27e 6a3e c429 8bbd e9b4 c43d 1091 9abd
00000030: 9ed4 39be c902 16bd 462f 203d 400a 403d
00000040: d5e0 d8bd 7277 cb39 7086 113e edc9 eebd
00000050: 84de e03d bf82 513d ee6e 59bd 7297 253c
00000060: 91b6 81bd 076a dcbd 31fc e63c 6ad1 c0bd
00000070: 53a2 c73d b7bd 8ebd 9959 0bbe 34cc 34be

encoder.fcmu.weight f4 [2, 32]
-0.24763484 -0.18860921 0.17750908 -0.11975805 -0.18826386 0.11578983 0.18880804 0.1490063
-0.15684213 -0.18380913 -0.1981866 0.146787 -0.00042544628 0.16318005 -0.23892587 0.29002008
0.26065806 0.10116659 -0.056498356 0.06106373 -0.23520981 0.107401855 0.00666193 0.1902717
-0.19935788 0.24800894 -0.20157596 -0.1656525 -0.22462235 0.24581346 -0.112605505 -0.22560287
-0.23009755 0.17308012 0.2980061 -0.105439484 0.014934147 0.04511861 -0.03182359 -0.10571502
-0.11806337 -0.226419 0.104988165 0.2422705 0.18874031 0.14212011 -0.26340008 -0.16981392
-0.041113522 -0.24800181 -0.21311885 -0.24348821 0.26193964 -0.21438253 0.32068837 -0.024479426
0.060698356 0.29882753 0.06310658 0.16461495 -0.13669908 -0.0890949 0.32581204 -0.078399114
00000000: fd93 7dbe c622 41be f1c4 353e b543 f5bd
00000010: 3ec8 40be 3823 ed3d e556 413e 1c95 183e
00000020: 399b 20be 7638 3cbe 6ef1 4abe 554f 163e
00000030: 6f0e dfb9 ac18 273e fca8 74be 837d 943e
00000040: f974 853e 6e30 cf3d d26a 67bd f61d 7a3d
00000050: d7da 70be 81f5 db3d 524c da3b 96d6 423e
00000060: 7924 4cbe 0ef6 7d3e ee69 4ebe cfa0 29be
00000070: 6703 66be 86b6 7b3e b79d e6bd 7004 67be
00000080: b19e 6bbe ea3b 313e 4194 983e a8f0 d7bd
00000090: 5aae 743c 4bce 383d 7459 02bd 1e81 d8bd
000000a0: 35cb f1bd 62da 67be 0904 d73d c215 783e
000000b0: 2445 413e ef87 113e 60dc 86be b3e3 2dbe
000000c0: a766 28bd 30f4 7dbe d43b 5abe f954 79be
000000d0: f41c 863e 1887 5bbe 4431 a43e 1489 c8bc
000000e0: d79e 783d ecff 983e 063e 813d d290 283e
000000f0: d8fa 0bbe 6377 b6bd d6d0 a63e b78f a0bd

encoder.fcmu.bias f4 [2]
0.10646133 -0.1419548
00000000: 6608 da3d 995c 11be

encoder.fcsig.weight f4 [2, 32]
-0.1453101 -0.10164414 -0.17007865 -0.21415462 -0.060952846 -0.15840447 0.022381607 0.02337052
-0.23254023 0.0043819025 -0.04664176 0.07299344 0.049267013 -0.19112422 -0.18961862 -0.028770598
0.11770233 -0.15148726 -0.061641518 -0.14508316 -0.12030026 -0.066303395 -0.037779476 -0.07461482
0.07656979 -0.18065436 -0.007521744 0.010360665 -0.17611772 -0.19250692 0.0146201905 0.0181609
0.019934185 -0.1707564 -0.007861871 -0.080202095 0.10314955 -0.13332734 0.11107845 -0.05487969
-0.21178128 -0.16230036 0.03357372 -0.064646035 -0.041664504 -0.1913101 -0.14709349 0.07880367
-0.07289072 -0.031185875 0.07861773 -0.05840495 0.09800833 0.007129923 0.09864897 -0.024317963
-0.017158084 -0.026251161 0.069387846 -0.2337902 0.0074345116 -0.14110522 -0.102194875 0.0472302
00000000: 2ccc 14be ce2a d0bd 1929 2ebe 594b 5bbe
00000010: b1a9 79bd c834 22be a259 b73c 8873 bf3c
00000020: 071f 6ebe 1096 8f3b 6e0b 3fbd 967d 953d
00000030: 35cc 493d 11b6 43be 622b 42be 51b0 ebbc
00000040: eb0d f13d 7a1f 1bbe d17b 7cbd ae90 14be
00000050: fc5f f6bd 13ca 87bd a7be 1abd a8cf 98bd
00000060: 9fd0 9c3d 75fd 38be f678 f6bb c7bf 293c
00000070: 3458 34be 8920 45be 8689 6f3c 2bc6 943c
00000080: 044d a33c c4da 2ebe 14cf 00bc ff40 a4bd
00000090: 1240 d33d f686 08be 197d e33d 87c9 60bd
000000a0: 31dd 58be 1132 26be 9984 093d 2465 84bd
000000b0: 66a8 2abd cbe6 43be ad9f 16be d263 a13d
000000c0: bb47 95bd 8579 ffbc 5502 a13d 073a 6fbd
000000d0: 97b8 c83d 21a2 e93b 7908 ca3d 7736 c7bc
000000e0: 1c8f 8cbc ad0c d7bc 371b 8e3d b366 6fbe
000000f0: 349d f33b e37d 10be 8c4b d1bd 7474 413d

encoder.fcsig.bias f4 [2]
-0.08304918 -0.053051945
00000000: b015 aabd ff4c 59bd

decoder.fc1.weight f4 [32, 2]
0.49191827 -0.6366324 -0.03382643 -0.282413 0.61270726 -0.017245715 0.5806396 -0.61276585
0.3221403 0.51381314 0.7219838 -0.017731579 0.51488173 -0.61199915 0.3104935 0.8367664
-0.5104493 0.705674 -0.42636877 0.16251513 0.5701574 0.3223603 -0.5608506 0.44870374
0.5687805 -0.20539679 -0.40519512 0.17709598 0.36313832 0.77155703 0.78908986 -0.47825006
0.81718236 0.13129202 -0.9469373 -0.2930028 -0.12579688 -0.48691428 -0.76947445 0.50932676
-0.69722366 0.47887114 -0.44356024 -0.064720064 0.093128435 0.38726467 -0.7271184 -0.7417832
0.32674357 0.69401056 0.79595554 -0.4334843 -0.86739594 -0.5048289 0.008916743 0.38101968
0.7351808 0.7159202 0.31556153 0.48482585 0.43733636 -0.415794 0.49986044 0.3098035
00000000: b6dc fb3e 57fa 22bf 958d 0abd 7098 90be
00000010: 62da 1c3f e346 8dbc cca4 143f 39de 1cbf
00000020: 93ef a43e 4289 033f eed3 383f d141 91bc
00000030: 4acf 033f faab 1cbf 01f9 9e3e 5336 563f
00000040: ceac 02bf 0da7 343f 024d dabe 5e6a 263e
00000050: d6f5 113f 690c a53e e893 0fbf 7fbc e53e
00000060: 999b 113f 8953 52be bc75 cfbe a658 353e
00000070: 44ed b93e c384 453f cb01 4a3f 31dd f4be
00000080: dd32 513f 6a71 063e 7c6a 72bf 7704 96be
00000090: e6d0 00be d44c f9be 47fc 44bf 3d63 023f
000000a0: 407d 32bf 992e f53e 541a e3be f48b 84bd
000000b0: 1fba be3d 8e47 c63e 6e24 3abf 81e5 3dbf
000000c0: ef4a a73e adaa 313f bec3 4b3f a7f1 ddbe
000000d0: a90d 5ebf 773c 01bf 8817 123c 0315 c33e
000000e0: cf34 3c3f 8c46 373f 4891 a13e 183b f83e
000000f0: 8dea df3e f3e2 d4be b5ed ff3e 909e 9e3e

decoder.fc1.bias f4 [32]
-0.5184782 -0.45591918 -0.24191655 0.3936022 0.43452412 -0.23620331 -0.37241688 -0.12390506
0.47000107 0.47184783 0.5604684 0.14764917 0.6061772 0.2445764 -0.26610312 0.28625014
-0.29703623 -0.21842067 0.0045168465 0.13839187 0.25023758 0.33287206 0.2582476 -0.276958
0.6480329 -0.18675879 -0.44043553 -0.148283 0.099734105 0.32056305 0.31087893 0.3649747
00000000: fdba 04bf 3d6e e9be f9b8 77be 3a86 c93e
00000010: f279 de3e 48df 71be 6dad bebe f0c1 fdbd
00000020: fba3 f03e 0a96 f13e db7a 0f3f 5831 173e
00000030: 6e2e 1b3f 3c72 7a3e ab3e 88be 618f 923e
00000040: 2215 98be aba9 5fbe 0e02 943b 99b6 0d3e
00000050: 241f 803e 356e aa3e 0839 843e 70cd 8dbe
00000060: 7ce5 253f b23d 3fbe c480 e1be 80d7 17be
00000070: 6541 cc3d d720 a43e 862b 9f3e f7dd ba3e

decoder.fc2.weight f4 [27, 32]
0.23111293 -0.13687369 0.07256514 -0.14944893 -0.13277665 -0.10707609 0.22064032 -0.07581666
-0.18364121 -0.25234064 0.07457547 0.07932178 -0.169165 -0.04483641 -0.12431792 0.14615631
0.1483036 -0.096900724 0.04821602 0.008534704 -0.12991011 -0.06514001 0.01511059 0.010847393
0.066794775 -0.08232018 0.103683144 -0.004828658 0.04597621 0.053121317 0.0031759266 -0.03969293
-0.23443827 -0.19174439 -0.05908949 0.070785545 0.109373465 -0.16796336 0.013367988 0.11849577
0.0006082916 0.058701012 0.04150644 -0.12409986 -0.13075958 -0.049252603 0.03536887 -0.11399123
0.104702905 -0.0029009574 0.12338299 0.06303685 -0.14333436 -0.02126544 0.21176621 -0.08103191
-0.09807638 -0.012579107 -0.2073905 -0.09976626 -0.0696855 0.05306437 0.11017668 -0.04061
-0.09890774 0.108006895 -0.2240202 -0.11601214 -0.111159146 -0.031337973 -0.041378595 0.026864966
0.087045975 -0.017656766 -0.018604025 0.051441744 0.110336974 0.11385154 0.043025095 -0.15571424
-0.122856714 0.13456593 0.11674645 0.055548362 0.14065208 0.14739792 0.06911518 0.23042807
0.043341637 -0.19276081 0.044197414 0.04036875 -0.2237203 -0.10340708 0.011122234 -0.046759374
0.2842194 -0.013156885 0.0765074 -0.00014248869 -0.07499981 0.23850003 0.24458222 -0.11441491
-0.17113033 -0.17059462 0.07597439 -0.17666233 0.028415626 -0.22988176 -0.08723018 0.17238961
0.0075880317 -0.064590506 -0.0056433966 -0.14360799 -0.04569822 0.071006134 -0.20206398 0.23321399
-0.09862496 0.23575698 0.020342717 -0.25882408 -0.0043001994 -0.19999513 0.0839855 -0.08856717
-0.11571321 0.067672096 0.15401082 -0.06429548 0.028216353 0.07889407 -0.013584165 0.19864203
-0.073579386 -0.20378849 0.09807365 0.11518118 -0.15679227 -0.01946825 -0.017642599 0.09694593
0.026518699 -0.08449378 0.06863404 0.01388485 -0.08502159 -0.21463627 0.0757013 -0.08879797
0.13682006 0.14209123 0.030597545 -0.026102858 -0.10277537 -0.0030412774 0.043212514 -0.05325314
0.11219337 0.043632276 -0.35615033 -0.09358004 -0.1749523 -0.16360265 -0.026343646 0.064431205
0.006642391 0.07102359 -0.095672905 0.29028755 0.09620321 -0.023815846 -0.16654745 -0.14970313
-0.24785313 0.18609782 0.15138677 0.24755883 -0.049424667 0.20173429 -0.050781243 -0.0034614634
0.017983604 0.056737468 0.2938573 -0.11348009 -0.2394106 -0.2581361 -0.09967148 -0.11557116
-0.10313475 0.0029942791 -0.18356209 0.061789773 -0.17702444 0.04567984 -0.14186125 -0.05590139
0.02662375 0.08529412 -0.16813155 0.23077565 -0.1846649 0.06081944 -0.21345286 0.0093972925
0.043651953 0.2756674 -0.0019821683 0.26001412 0.096849106 -0.02504527 -0.07996545 0.2816467
-0.16587073 -0.227408 0.25423095 0.040156968 -0.027086305 -0.12565735 -0.21302852 -0.12626286
-0.04192087 -0.13235341 0.25704628 0.23852453 0.15420318 0.059600677 0.11438578 0.03376304
-0.021945398 -0.21564281 0.21821304 -0.10324742 0.04171697 -0.2874742 -0.08197326 0.2665038
-0.005852655 -0.21357828 -0.11608983 -0.31882703 -0.06999831 0.07810626 -0.100044735 0.08402905
0.16921976 0.005731396 -0.14194416 -0.071708865 0.19972587 -0.05060734 0.32162842 0.0974654
00000000: dea8 6c3e 9e28 0cbe 089d 943d 2409 19be
00000010: 9af6 07be b64a dbbd 89ef 613e c445 9bbd
00000020: 710c 3cbe cb32 81be 06bb 983d 7573 a23d
00000030: 9739 2dbe 62a6 37bd 659a febd 00aa 153e
00000040: e6dc 173e e373 c6bd 297e 453d 25d5 0b3c
00000050: 2807 05be 2068 85bd 6892 773c 44b9 313c
00000060: b3cb 883d 7c97 a8bd d457 d43d b839 9ebb
00000070: 8d51 3c3d bd95 593d 3523 503b 0e95 22bd
00000080: 9610 70be a458 44be d207 72bd 03f8 903d
00000090: 32ff df3d 96fe 2bbe 6805 5b3c e9ad f23d
000000a0: c275 1f3a 7970 703d a802 2a3d 1128 febd
000000b0: d7e5 05be 19bd 49bd f3de 103d 3c74 e9bd
000000c0: 7a6e d63d fd1d 3ebb 39b0 fc3d 7719 813d
000000d0: 3ec6 12be dc34 aebc 3ed9 583e 0ff4 a5bd
000000e0: 45dc c8bd 9918 4ebc 2d5e 54be 4152 ccbd
000000f0: 45b7 8ebd 065a 593d 50a4 e13d ac56 26bd
00000100: 2490 cabd b832 dd3d 8d65 65be c697 edbd
00000110: 68a7 e3bd 3f5c 00bd 9a7c 29bd eb13 dc3c
00000120: 2945 b23d eca4 90bc 7867 98bc 94b4 523d
00000130: 5af8 e13d ff2a e93d 153b 303d 8e73 1fbe
00000140: 4d9c fbbd a7cb 093e c318 ef3d ae86 633d
00000150: 1907 103e 7bef 163e 428c 8d3d 56f5 6b3e
00000160: 0087 313d 1763 45be 5908 353d b459 253d
00000170: ef16 65be 17c7 d3bd 083a 363c c286 3fbd
00000180: 3585 913e fa8f 57bc e9af 9c3d 0469 15b9
00000190: 8099 99bd 5a39 743e c373 7a3e 5d52 eabd
000001a0: ca3c 2fbe 5bb0 2ebe 7698 9b3d f8e6 34be
000001b0: e3c7 e83c 2066 6bbe bda5 b2bd e786 303e
000001c0: 06a5 f83b 0748 84bd 3eec b8bb f90d 13be
000001d0: 0f2e 3bbd aa6b 913d dce9 4ebe a6cf 6e3e
000001e0: e2fb c9bd 476a 713e c5a5 a63c 9784 84be
000001f0: b0e8 8cbb 86cb 4cbe 9700 ac3d b462 b5bd
00000200: 0cfb ecbd ab97 8a3d 03b5 1d3e 59ad 83bd
00000210: fb25 e73c 3793 a13d 1e90 5ebc d168 4b3e
00000220: cab0 96bd eead 50be d6da c83d 1ce4 eb3d
00000230: 278e 20be e17b 9fbc 3687 90bc 968b c63d
00000240: be3d d93c 130b adbd 0190 8c3d 487d 633c
00000250: cd1f aebd 9cc9 5bbe 4809 9b3d b6db b5bd
00000260: 8f1a 0c3e 5d80 113e b4a7 fa3c a9d5 d5bc
00000270: e57b d2bd 2b50 47bb 9bff 303d f71f 5abd
00000280: a3c5 e53d c2b7 323d 5659 b6be e4a6 bfbd
00000290: b226 33be 7487 27be a1ce d7bc 82f4 833d
000002a0: 6aa8 d93b d174 913d 28f0 c3bd 92a0 943e
000002b0: 3006 c53d 7319 c3bc 6a8b 2abe c74b 19be
000002c0: 36cd 7dbe 6d90 3e3e 2205 1b3e 1080 7d3e
000002d0: 8571 4abd 6f93 4e3e feff 4fbd b8d9 62bb
000002e0: 5a52 933c 8c65 683d 7774 963e 4068 e8bd
000002f0: 0d28 75be 6a2a 84be 9020 ccbd 93b0 ecbd
00000300: 5038 d3bd ab3b 443b b3f7 3bbe 4617 7d3d
00000310: e545 35be c91a 3b3d 1344 11be dbf8 64bd
00000320: 0d1a da3c afae ae3d ad2a 2cbe 7450 6c3e
00000330: cc18 3dbe ce1d 793d 6393 5abe 1af7 193c
00000340: 64cc 323d 4724 8d3e 44e7 01bb 9220 853e
00000350: d358 c63d bd2b cdbc edc4 a3bd ff33 903e
00000360: 04da 29be a5dd 68be 8f2a 823e a27b 243d
00000370: 19e4 ddbc 52ac 00be 2624 5abe 0d4b 01be
00000380: 38b5 2bbd a787 07be 929b 833e c63f 743e
00000390: 70e7 1d3e d71f 743d 1843 ea3d 1d4b 0a3d
000003a0: d6c6 b3bc 78d1 5cbe 3d73 5f3e 6273 d3bd
000003b0: 6adf 2a3d d12f 93be 99e1 a7bd 3073 883e
000003c0: a1c7 bfbb 44b4 5abe 81c0 edbd 4c3d a3be
000003d0: 465b 8fbd 2df6 9f3d 41e4 ccbd 6c17 ac3d
000003e0: f247 2d3e 6fce bb3b cf59 11be 19dc 92bd
000003f0: f084 4c3e a449 4fbd 7bac a43e f19b c73d

decoder.fc2.bias f4 [27]
-0.17431444 -0.06874625 0.109717146 -0.0881146 0.08389177 -0.07763837 -0.04457639 -0.13496116
0.15291476 -0.018495379 0.047585234 -0.10680539 0.053699378 0.18549496 0.17708522 0.13222651
-0.09928818 -0.1048366 -0.17327544 -0.030308709 0.04275193 0.16773625 0.12626682 -0.08302641
-0.11620836 0.16771448 0.09961236
00000000: 7c7f 32be d5ca 8cbd 62b3 e03d 6d75 b4bd
00000010: 73cf ab3d de00 9fbd bc95 36bd 4233 0abe
00000020: b095 1c3e 9f83 97bc bce8 423d c9bc dabd
00000030: e1f3 5b3d 64f2 3d3e d455 353e 6366 073e
00000040: 9a57 cbbd 92b4 d6bd 1e6f 31be f849 f8bc
00000050: a61c 2f3d 0dc3 2b3e 174c 013e c009 aabd
00000060: a6fe edbd 58bd 2b3e 9101 cc3d
