data/model.pkl (torch, 11804 bytes, 10 tensors)

encoder.fc1.weight f4 [32, 27]
000000 fb c5 e5 bd 0b 1b ec 3c a5 b7 31 bd e7 fb 4b 3e
       -0.112194024 0.028821489 -0.043388028 0.19920312
000010 82 53 e6 3e 9b ac b2 3e 7e 06 42 3d b1 a2 67 be
       0.44985586 0.34897313 0.047369473 -0.22620656
000020 3d f2 32 be 97 53 1c 3d e3 b8 92 bd f2 79 97 3d
       -0.17475219 0.038165655 -0.071641706 0.07396306
000030 f5 5b c4 3e 11 20 ca 3e fe c5 c8 3d 57 e0 27 3f
       0.38351408 0.3947759 0.09803389 0.6557669
000040 a3 de cd 3c d9 ff 87 3e ca 88 c9 3e eb 53 84 3c
       0.025130576 0.26562384 0.39362174 0.016153296
000050 30 18 b2 bc da 6f 4d be 51 7d 5f 3d 92 a0 67 be
       -0.02174005 -0.20062199 0.05456287 -0.22619846
000060 93 ce bb be e9 67 8e 3f f2 2f 77 3e 28 bf 5a be
       -0.3668104 1.1125461 0.24139383 -0.21361983
000070 00 d4 0e 3e f0 cb 0f bd 94 2c b3 3e 75 ad 6d 3e
       0.13948059 -0.0351066 0.34994948 0.232107
000080 2c d3 34 be c0 f7 eb 3c 63 85 d9 3e 99 96 d5 3d
       -0.1765868 0.02880466 0.42484578 0.10429115
000090 7a 37 1c 3e a5 98 a3 3e 51 c2 58 bd 7e c3 cb be
       0.15255538 0.31952396 -0.05291969 -0.39797586
0000a0 93 02 33 be 48 5a 21 be 7c 63 18 bf f4 d8 01 3e
       -0.1748145 -0.15757096 -0.595268 0.12680417
0000b0 17 b1 5d 3d 09 81 86 3e 64 77 45 be 89 fc 7e 3f
       0.054123964 0.2627032 -0.19283825 0.9960409
0000c0 a1 99 fa bc 6a b8 b6 be 0c 91 11 3d 9c e3 ed 3e
       -0.030590834 -0.35687572 0.035538718 0.46462715
0000d0 ba 99 46 bf 0d 12 01 3e 26 10 cd bc e5 d8 6b 3e
       -0.7757832 0.12604542 -0.025032114 0.23031957
0000e0 fa 72 c9 bd 44 54 8f be 1c 9e ca be c3 27 5a 3e
       -0.09836383 -0.27993977 -0.39573753 0.2130423
0000f0 c6 ef 64 3e 76 4c d5 3c 80 8d 15 bf 70 2f d4 3c
       0.22357091 0.026037436 -0.58419037 0.025901526
000100 9e 73 7c be b0 95 65 3d 93 41 bc 3e 83 6d 5e 3d
       -0.2465348 0.056050956 0.3676878 0.054303657
000110 ac 51 03 3e f7 31 a2 be 65 43 bd be de 4a 13 bf
       0.12824124 -0.31678745 -0.3696548 -0.57536113
000120 99 6e 99 be ad 20 9c bc 42 fa 4b bf 2c 2f 2b 3d
       -0.29967192 -0.01905855 -0.7967874 0.041793033
000130 66 0b 4a 3d 0a 2e 1b bf 3d 3e 67 be a0 69 79 be
       0.049327277 -0.60617125 -0.22582336 -0.24356699
000140 32 df 77 bc f7 f5 bf 3d ae e1 16 be 69 cc bb bd
       -0.0151288975 0.09373086 -0.14734527 -0.091698475
000150 14 91 05 3e c5 4e 14 be 2a dc 22 3e 67 65 a7 bd
       0.13043624 -0.14483173 0.15904298 -0.08173638
000160 ac 3d 5b be 54 55 30 3e c9 c0 36 3d 4d 23 b5 bd
       -0.21410245 0.1722005 0.044617448 -0.08844624
000170 3a ef e3 bd c0 25 28 be 04 37 d8 be 35 2f 7d be
       -0.11129613 -0.1642065 -0.42229474 -0.2472504
000180 e8 8c cc 3e c1 25 57 3e 88 27 81 bd 02 bf 18 3e
       0.39951253 0.21010496 -0.06306368 0.14916614
000190 1f f0 70 bd 63 fa 0d 3e d6 9f f3 3c 47 e7 0e 3d
       -0.058822747 0.13865046 0.029739302 0.034888532
0001a0 66 b4 d5 3e 13 03 02 3f 35 61 e2 3d 83 f2 b7 bc
       0.41739196 0.5078594 0.11053697 -0.022454506
0001b0 ea 22 a6 bd be c9 cc 3d f6 6f 0b be 12 7e f7 3e
       -0.08112128 0.09999417 -0.13616928 0.48338372
0001c0 05 c9 9c bd 06 c0 34 be 49 0c 00 be a2 df 99 be
       -0.07655529 -0.17651376 -0.12504686 -0.3005343
0001d0 cd 6b 39 3f ac ed 11 3c 8f a8 05 3f 54 f1 6f 3e
       0.72430116 0.008906763 0.52210325 0.23431903
0001e0 fe 67 3e 3e 7f 16 ba be 88 9b dd be 2b d7 d2 3d
       0.18594357 -0.36345288 -0.43282723 0.10294946
0001f0 72 2f d6 3d 6e f3 59 3e 02 09 03 3f 0e 7b 69 3e
       0.10458268 0.21284267 0.5118562 0.22800848
000200 50 ca 77 3d f9 31 40 3d 43 59 87 3b 68 12 2a 3d
       0.060495675 0.046922658 0.004130514 0.04152146
000210 6f 99 88 3e 63 39 1e 3e 39 84 df 3c a7 84 57 be
       0.2667956 0.15451579 0.027284728 -0.21046697
000220 e5 dd 66 be dc 24 07 bd 4d 2f 85 3d ae cc 16 3f
       -0.22545584 -0.032994136 0.065031625 0.58906066
000230 08 15 74 3e 51 25 f9 bc e0 85 86 be c4 f8 c3 bd
       0.23836148 -0.030413302 -0.26274014 -0.09568933
000240 0b a5 94 3e 5c 34 2c 3e b1 1c 5d 3d c5 f4 24 be
       0.29032168 0.16816849 0.05398244 -0.16108997
000250 02 64 1d bf 44 e7 2f 3e 2c de 91 3e 4e 4d 1d 3e
       -0.61480725 0.17178065 0.28489816 0.1536152
000260 e7 4d c3 3e f1 58 56 3e 3b 6f 7e 3e 19 25 8f 3e
       0.38145372 0.20932366 0.24847119 0.2795799
000270 f4 be b5 3c 46 af a4 bd a2 bc 85 be dc 57 7a be
       0.02218578 -0.08041243 -0.26120478 -0.24447578
000280 f9 71 c6 bd b3 71 13 bd 2a 3d 84 bd af ab 81 bc
       -0.09689707 -0.035997104 -0.064569786 -0.015828935
000290 bc 7d a5 be 57 3f 8e 3d cf 0b 59 3e 2d 97 3c be
       -0.3232249 0.06945675 0.21195911 -0.18417044
0002a0 b9 ec 8b 3e 1e c4 73 be 3f 9a 96 3d 86 cc 06 bd
       0.27329043 -0.23805282 0.07353639 -0.032909892
0002b0 22 06 bc 3d 1d d8 1d bd 9f cd 9d be b0 3a ff bd
       0.09180857 -0.03853618 -0.3082094 -0.124623656
0002c0 59 95 8b 3c 84 a9 1c bd 31 cf fe 3e 3a 3c df 3e
       0.017038988 -0.0382476 0.4976745 0.43600637
0002d0 93 96 b8 3e 5d 2b a1 be c8 b3 0c 3f f2 d8 00 be
       0.3605238 -0.31478396 0.54961824 -0.12582758
0002e0 a7 fc 64 bd 64 05 43 3e f2 2d c0 3e 37 b7 f7 bd
       -0.05590501 0.19045025 0.37535053 -0.12095492
0002f0 84 a0 3e 3e d4 8c 9b bd b1 42 c0 bd 60 fc ac bc
       0.1861592 -0.0759522 -0.093877204 -0.021116436
000300 a2 f0 32 bf 33 fa 17 be 08 ea ba be 94 59 59 3e
       -0.69898427 -0.14841537 -0.36506677 0.21225578
000310 bc cb c6 3d a9 62 9e be d5 00 12 3e 09 c9 72 bc
       0.09706828 -0.30934647 0.1425813 -0.014818438
000320 4e 77 a2 be 01 89 7c be db 12 a6 bd 89 30 d2 bd
       -0.31731647 -0.24661638 -0.08109065 -0.102631636
000330 fc 93 04 bf 41 3d ba bd 4b f8 31 3e d6 86 7e be
       -0.51788306 -0.090937145 0.17379873 -0.24856123
000340 d9 a5 26 be 26 90 73 3e ea 83 32 3e db c4 f1 bd
       -0.16274203 0.23785457 0.17433134 -0.11805125
000350 fc 77 b0 3e 1d 37 36 3d 13 27 39 bf b4 1b 55 be
       0.3446654 0.044486154 -0.7232525 -0.20811349
000360 6e 87 00 3d 0c fe 71 3d e3 e1 07 3d ad 09 97 3d
       0.031379156 0.05908017 0.033174407 0.073748924
000370 ae 6f dd 3d 8d e0 c3 bd ce 83 46 3d 6f eb 08 3f
       0.10812317 -0.09564314 0.048465542 0.53484243
000380 34 57 17 3d d3 a2 84 be 9b ee 05 be 69 f5 75 3e
       0.036948398 -0.25905475 -0.13079302 0.24019398
000390 5d 39 c7 3e b8 1d 76 3f 20 2f af 3e ab 58 cf 3d
       0.38910952 0.961391 0.3421564 0.10124334
0003a0 94 ab aa be 6b af 07 be 36 ce 08 3e 50 ff e5 bc
       -0.3333403 -0.1325051 0.13359913 -0.028075844
0003b0 47 00 a0 be 4a 97 1d be b9 c2 dd 3c e3 a0 bf be
       -0.31250212 -0.15389743 0.02707039 -0.37427434
0003c0 ea 65 b2 be dd ed 38 bd f7 bb f0 3d 88 91 e2 bd
       -0.3484338 -0.04514872 0.117546014 -0.11062914
0003d0 44 09 fc 3d 27 d2 0a be e7 fc 50 3d 14 1e d2 3e
       0.12306455 -0.1355673 0.051022436 0.41038573
0003e0 22 6f 03 bd af 44 29 3d fe 2c b1 3e 35 9c aa bd
       -0.032088406 0.041325267 0.3460464 -0.083305754
0003f0 05 e7 8f bb c1 ac 74 bd d9 7c 7e 3d f1 b7 b7 3d
       -0.0043915533 -0.059735063 0.062130783 0.08970631

encoder.fc1.bias f4 [32]
000000 76 79 b7 bd c2 71 06 be d2 bf c9 bd 41 70 13 be
       -0.08958714 -0.13129333 -0.0985104 -0.1439829
000010 27 e2 15 3e e3 3c 38 be cc bc a6 bc 31 3e 06 be
       0.14637052 -0.17991976 -0.020353697 -0.13109662
000020 25 3c 10 3e 2b e0 29 3e c4 1e 1a 3d 0d 2e d8 bc
       0.14085443 0.1658942 0.037626997 -0.026389146
000030 42 ed dc bd 3f 5b 87 bd ce 35 89 3e 0b 9e d1 bb
       -0.10787441 -0.06609201 0.26798862 -0.006397014
000040 b7 08 c0 3d ca 9c 1a be a7 60 45 3e 58 0a 78 3e
       0.09376662 -0.15098873 0.19275151 0.24222696
000050 66 d4 8f bc f2 84 ac 3e b8 aa e2 3d d1 18 9a 3d
       -0.017557334 0.3369518 0.11067718 0.075242646
000060 04 52 82 be 49 f9 c3 bc 33 46 30 3d 91 b1 ee 3c
       -0.25453198 -0.02392258 0.043035697 0.029137405
000070 da 1a 97 bd dc d4 28 be a9 38 64 be 26 b1 89 bd
       -0.073781684 -0.1648745 -0.22287239 -0.067232415

encoder.fcmu.weight f4 [3, 32]
000000 27 50 a8 bd 84 03 10 be f0 90 5e be 89 40 85 3e
       -0.08218413 -0.14063841 -0.21734977 0.260258
000010 0d 03 08 3e f2 07 8b be 46 22 43 be 4e d8 83 be
       0.13282414 -0.271545 -0.19056043 -0.25750965
000020 5b 49 b9 bc bd b3 e2 be a9 46 85 3e 41 ee 48 3e
       -0.022617986 -0.44277754 0.26030472 0.19622137
000030 71 c5 b1 3d 0b 9e ae be a3 95 80 3e 7c 52 6b 3e
       0.08680237 -0.34104952 0.25114164 0.22980684
000040 90 8e 6f 3e 8b eb 3f be d3 bb 8a be 78 ec 85 bd
       0.23394227 -0.18742196 -0.27096424 -0.065392435
000050 c9 4a e8 be 58 5b a5 3e f8 04 af 3e 74 dd a6 3e
       -0.45369557 0.32296252 0.34183478 0.3259083
000060 d0 f7 33 be cc c1 1b 3e b8 45 99 3d 44 63 8f bc
       -0.17575002 0.15210646 0.07484001 -0.017503388
000070 7e d7 94 3e 83 5c 77 be 71 95 8c be 30 6e a6 3e
       0.29070657 -0.24156384 -0.27457765 0.3250594
000080 47 9a e2 be db ad e3 3e f0 e2 42 be 59 b2 e4 3d
       -0.4425833 0.4446858 -0.19031882 0.111668296
000090 f9 74 18 be 23 07 6c be 10 02 57 3e 10 9c be 3e
       -0.14888372 -0.23049597 0.2099688 0.3722844
0000a0 24 37 e6 bd 65 5d 00 3d 30 38 82 be 75 bc 06 3f
       -0.11240986 0.031339068 -0.25433493 0.5263131
0000b0 0c a4 35 be 19 de 04 3d a9 2f 90 be 9e 87 ab 3d
       -0.1773836 0.03243837 -0.28161362 0.08375476
0000c0 0d 57 ee 3e 4f 77 06 bf a3 f1 88 3e e4 5e f1 be
       0.4655079 -0.525258 0.26746854 -0.47142708
0000d0 28 0e 41 3d b7 27 77 3e c9 4d c4 bb 28 be 0f bc
       0.04713264 0.24136244 -0.005990718 -0.008773364
0000e0 db 2f 02 bf 86 ad a0 bd 45 4c e5 be 83 5c 52 be
       -0.5085427 -0.07845597 -0.44784752 -0.20543103
0000f0 f3 02 09 3d 40 7f ad 3e 0c ea 9a 3d b7 d0 9e 3e
       0.03345008 0.33886147 0.07564172 0.31018612
000100 80 65 01 3e c0 35 82 3d a8 fc ed be 2a c3 46 3e
       0.12636375 0.06357908 -0.46481824 0.19410387
000110 4b d0 7d 3e 7a 1a 3a 3e 8f 10 aa 3e 5a 05 89 be
       0.24786489 0.18174163 0.33215758 -0.26761895
000120 f8 39 c1 be a1 df ee bd 62 be d0 3e 05 6e ae bd
       -0.3773954 -0.116637476 0.4077025 -0.08517078
000130 f5 c7 bf 3e bb c4 83 3e 30 97 76 3e 9c ed 39 be
       0.37457243 0.2573603 0.24081111 -0.18157047
000140 e1 3f c6 be b1 f8 73 3d 19 01 8f 3d 44 3c 48 be
       -0.3872061 0.059563342 0.06982631 -0.1955424
000150 3e 2b 49 3d 3a a6 d0 3e a7 d1 3f be 7c ed cf bd
       0.049113505 0.4075182 -0.1873232 -0.101527184
000160 f8 16 db be af 3a cc be 30 5c 3e be 81 f8 b3 be
       -0.4279096 -0.39888522 -0.18589854 -0.3515053
000170 ed 1a 86 3e 7e 3a 0d 3e 55 13 79 be 8b 9e 89 be
       0.26192418 0.13791844 -0.24323781 -0.2687877

encoder.fcmu.bias f4 [3]
000000 6e 23 31 be 6b a0 e0 bd 54 f9 15 be
       -0.17298672 -0.10968097 -0.14645892

encoder.fcsig.weight f4 [3, 32]
000000 d0 f5 41 be 8c c3 6b be eb 6b 24 3e 5b 6e 8f 3d
       -0.18941426 -0.23023814 0.16056792 0.070034705
000010 8d ea 94 be b5 29 4e 3e 64 46 2d be 55 f6 ae 3c
       -0.29085198 0.20133097 -0.16921383 0.021357695
000020 3f 93 a4 be 13 44 74 be a2 d3 ee bd 02 b7 4c be
       -0.3214359 -0.23854093 -0.116614595 -0.19991687
000030 69 3e 27 be 91 70 c7 be b5 93 36 bd 01 0c a7 3d
       -0.16332401 -0.3895307 -0.04457446 0.081565864
000040 07 ce 7c be df 41 8b 3d 74 f8 9b be 66 cd 0e 3c
       -0.24687968 0.06799673 -0.30462992 0.008715963
000050 c1 61 93 3b ab d9 97 bd 56 ee 91 bd 2a 01 b8 bc
       0.004497737 -0.07414564 -0.07125537 -0.022461493
000060 33 4e 2e 3d 15 5d 0e be a6 31 65 be 4a 41 47 be
       0.042555045 -0.13902695 -0.2238222 -0.194585
000070 38 d8 b5 bd fd 7a 76 bd bd 82 13 3e 6b 77 f0 3d
       -0.08879131 -0.060175885 0.14405341 0.11741527
000080 a5 09 c3 bd e1 b6 57 be c5 4e 3d 3c 22 2b 3a be
       -0.09523324 -0.21065857 0.011554425 -0.18180516
000090 f2 d6 8b 3d 34 61 3a be 0a 32 af be 68 08 3d 3e
       0.06828107 -0.18201143 -0.34217864 0.18460238
0000a0 77 ba 55 be d0 1a a1 be f1 df 8b be 3e c7 0c 3e
       -0.20871912 -0.3146577 -0.2731929 0.1374788
0000b0 5b 1a 5e bc 91 02 4c be 05 20 2f be 07 f4 1e be
       -0.013556088 -0.19922854 -0.17102058 -0.15522777
0000c0 4f b8 bb bd 8c 9d 68 3e af a3 60 3b 08 4a ab bc
       -0.091660134 0.2271635 0.003427725 -0.020909324
0000d0 20 9a 0c be 04 a3 6f be e4 6d b2 3e 6c ac 38 3e
       -0.13730669 -0.2340203 0.34849465 0.18034524
0000e0 af a1 42 bc d8 ca d5 bd 90 e1 1e be db 13 3d be
       -0.011879369 -0.1043908 -0.15515733 -0.18464606
0000f0 53 fa 29 be c7 e0 6c bc 53 f6 90 3d e7 02 5e 3d
       -0.16599397 -0.014457888 0.070782326 0.054201987
000100 ec 25 a0 be 29 2d 30 3d 4e ad 7c 3e 45 f0 c8 3d
       -0.31278932 0.043011818 0.24675485 0.09811453
000110 49 d9 8b be 0b 93 4d 3d 23 85 98 be 8e 1a 29 3e
       -0.27314213 0.05018906 -0.29789075 0.16514036
000120 35 45 8c be 75 84 24 be 04 f8 90 be 45 1c 98 be
       -0.2739655 -0.16066153 -0.2831422 -0.29709068
000130 ca 61 e4 3e 9f 36 c7 bd 11 6a 29 bd 8f f9 d7 3d
       0.44605857 -0.09727215 -0.04136092 0.105456464
000140 fd 86 e4 3c 7e 6c 56 bd 86 b6 08 be 6f 26 1f be
       0.027896399 -0.05234956 -0.13350877 -0.15542005
000150 09 b5 ab bd dd d7 ad be ff 84 89 be dd 3d d0 bd
       -0.08384139 -0.33953753 -0.2685928 -0.101680495
000160 7d e3 39 be 41 ae 97 3c d9 20 84 be a8 23 09 bc
       -0.18153186 0.018515708 -0.2580631 -0.0083703175
000170 e7 91 73 3d b3 e4 3f be 86 1f 48 be b8 2f c8 3c
       0.059465315 -0.18739586 -0.19543275 0.024436817

encoder.fcsig.bias f4 [3]
000000 50 f5 83 3d 0c af 00 be 98 1b dc bd
       0.06443274 -0.12566775 -0.107474506

decoder.fc1.weight f4 [32, 3]
000000 60 23 a1 be 18 87 2e bf d0 ee a0 bf 2a 2f 55 3d
       -0.314723 -0.68174887 -1.257288 0.052046932
000010 e1 0d 54 bf 89 4c 32 3f 90 78 5b bf d7 fa 51 bf
       -0.8283368 0.69648033 -0.8573084 -0.82023376
000020 cf 9b dd 3e a1 3c a9 3e 2c 98 bc be 6c 49 5a be
       0.43282935 0.3305407 -0.36834848 -0.2131707
000030 e2 5e 17 bf c5 07 2c be 6b a6 4e 3f a9 bb 42 bf
       -0.59129155 -0.16799839 0.80722684 -0.76067597
000040 62 d3 f7 3d d0 92 6e 3e 97 cf 1c be 0f 10 61 bf
       0.12100865 0.23298192 -0.15313564 -0.8791513
000050 0e 0e a4 be 08 65 b9 3e 84 e4 70 3f 92 21 03 3f
       -0.32041973 0.36209893 0.9409869 0.512231
000060 b4 68 54 bf d2 0a ee 3e f9 bd 13 bf 3c 5c 4f 3f
       -0.82972264 0.4649263 -0.5771175 0.81000113
000070 e2 69 a7 be 18 45 33 3e 97 ab fa be 50 3b 06 bf
       -0.3269797 0.17506826 -0.48959038 -0.52434254
000080 d3 9e 4f bf 29 9e 4e 3f df de 48 be 63 da 55 3f
       -0.8110172 0.80710083 -0.19616269 0.83536357
000090 fc 56 da be 9a 0f 19 3e f9 1b 91 bf e5 9d 8c bf
       -0.4264449 0.14947358 -1.1336662 -1.0985686
0000a0 53 ad 08 3e 37 ec c4 3e 28 e1 f6 be 83 f7 60 3f
       0.13347368 0.38461468 -0.48218656 0.8787767
0000b0 37 e9 70 3f 22 56 0a 3e f1 3a ec 3e 57 b3 15 bf
       0.9410586 0.1350942 0.4613872 -0.58476776
0000c0 41 9b df 3d c6 a3 5c bf e5 f4 c1 3e 0a ca e2 3e
       0.10918284 -0.861874 0.37882152 0.4429477
0000d0 a3 73 3a 3f 29 1b e8 be ed b7 4a 3f e8 a1 e9 3e
       0.728327 -0.45333222 0.791869 0.45631337
0000e0 0d 48 7e bf f4 70 3d bf 5e 6f 6b 3f 23 9f 19 be
       -0.9932869 -0.7400048 0.9196681 -0.15002112
0000f0 46 57 5b 3f c2 e2 8b be 1b 69 cf be be 67 59 bf
       0.85680044 -0.2732144 -0.40509877 -0.84923923
000100 3e 52 c6 3e 97 85 29 bf ca 29 d7 3e 09 58 17 3e
       0.3873462 -0.66219467 0.4202407 0.14779676
000110 26 cf a9 bf 04 00 83 3f 96 3f e2 bd 37 39 a3 be
       -1.3266342 1.023438 -0.11047284 -0.3187959
000120 0c 20 20 bf 45 51 87 3e 81 1e 06 3f 25 5a a3 3e
       -0.625489 0.2642919 0.52390295 0.31904712
000130 5c 28 b2 bd 20 88 7f 3f 83 71 ea 3e ff ff 81 3f
       -0.08699104 0.99817085 0.45789728 1.0156249
000140 52 ca 02 3f bd 73 f1 be 9a 17 72 3d 1e f2 a6 bf
       0.51089966 -0.47158614 0.05910454 -1.3042638
000150 b9 84 42 3f 37 e1 04 bb 67 c6 14 bf 00 78 1f bf
       0.7598377 -0.002027584 -0.5811524 -0.6229248
000160 11 f9 42 bf 8d 2a 43 bf d6 6e 91 3f 7a 39 e6 3e
       -0.76161295 -0.762368 1.136195 0.44965726
000170 da 47 c1 3e 85 b7 45 3f 92 e9 cf be 53 1c 10 bf
       0.3775013 0.77233154 -0.40607888 -0.5629322

decoder.fc1.bias f4 [32]
000000 3b 10 65 be 37 83 43 bf 9d d2 0e be f9 48 c1 3e
       -0.22369473 -0.7637209 -0.1394753 0.37750986
000010 97 ea 41 3f 08 03 f1 3d 70 e3 71 bf 8e 01 2a 3f
       0.7574858 0.11768156 -0.9448767 0.6640862
000020 bc 02 64 39 54 e0 ae be eb 81 55 3f 0e 54 82 3c
       0.00021744793 -0.34155524 0.83401364 0.015909221
000030 a5 f5 11 3d a5 1a 62 bd cf 0f 22 bf 53 7e 27 3f
       0.035634656 -0.05520119 -0.6330537 0.6542713
000040 6f 9b f6 3e 7c a2 1e 3e 26 e9 1e bf 66 9c d6 be
       0.4816546 0.1549167 -0.62074506 -0.41916198
000050 70 7f 41 3f ea b6 17 bf 70 17 67 be 12 40 0d 3f
       0.7558508 -0.5926348 -0.22567534 0.5517589
000060 28 c9 f3 3e fc 51 96 be b5 eb 68 3e 96 1c 90 bc
       0.47614408 -0.29359424 0.22746165 -0.017591756
000070 42 3f 8b 3e a8 b8 a8 bd 50 29 f7 3c 57 de 18 be
       0.271967 -0.082383454 0.030171067 -0.14928566

decoder.fc2.weight f4 [27, 32]
000000 d3 27 af 3e db e1 d2 be e4 69 97 be c3 5f f7 3c
       0.3421007 -0.4118794 -0.29572976 0.03019703
000010 36 99 a4 3e 1f b4 88 bd dc ea 8e bd d3 71 ae bc
       0.3214814 -0.0667498 -0.069783896 -0.02129451
000020 32 9a 6a 3c 41 fb a2 3e fd 5a a3 bd bd 7a 2b 3d
       0.01431899 0.31832317 -0.07976339 0.0418651
000030 19 fb 15 3e 6c 0f fb bb 3c 1a 2f be 83 7c 13 3c
       0.14646567 -0.0076617505 -0.17099851 0.009001854
000040 de 08 a8 bd c2 1b 24 be 02 d7 cb 3e 45 01 58 be
       -0.08204816 -0.16026214 0.39812475 -0.21094234
000050 fc 82 02 be 89 54 97 3c e8 7e 83 3e 98 a6 b8 bd
       -0.12745279 0.018472927 0.2568276 -0.0901615
000060 21 1a 0c 3d a1 25 8d bd bb 9c bb 3e 77 53 fd 3c
       0.034204606 -0.06891943 0.36643013 0.030923588
000070 3b a4 e9 3d 4c f5 5a 3d 59 1c 39 bd 83 6a 34 3e
       0.114082776 0.05345659 -0.04519305 0.17618756
000080 39 c5 28 3d cd dd cb be 75 99 01 3e bf 4f 56 3d
       0.04120371 -0.39817658 0.12656195 0.052322146
000090 49 0a 51 3e 65 06 91 be 95 82 4b 3e 3f d7 74 3c
       0.2041408 -0.2832519 0.19874032 0.014943897
0000a0 56 78 f2 be 79 18 ba bd 31 8e a8 3e 83 94 6b be
       -0.47357434 -0.09086699 0.32920983 -0.23005871
0000b0 ed 7d e6 bd 38 34 e8 be 67 8b 9c be 14 d6 17 3e
       -0.11254487 -0.4535234 -0.30575106 0.14827758
0000c0 1f d7 25 3e 30 b7 00 3e b5 3e f6 3d 90 46 62 be
       0.16195343 0.1256988 0.12023679 -0.2209723
0000d0 eb 9a bd 3d e6 07 09 bf cf 88 af 3d a9 a4 a1 3d
       0.09258064 -0.5352768 0.08571016 0.078927346
0000e0 d2 5b 7b bd a2 99 ae 3d fd fb 87 3d b9 2a 28 3d
       -0.061366864 0.08525397 0.0663986 0.04105637
0000f0 67 aa 73 3d 0f 5a b9 bc fc 73 82 bd 47 42 a1 bd
       0.05948868 -0.022625951 -0.063697785 -0.078739695
000100 96 d5 f6 bd 8c 65 89 be 4d 1c ef 3d a6 ae ee bc
       -0.12052457 -0.26835287 0.1167532 -0.029136013
000110 25 7a f7 bd 60 fc 58 bb 6e 2f 90 bf 39 d6 90 be
       -0.12083844 -0.0033109412 -1.1264474 -0.2828844
000120 da 71 4c 3d 91 cf fe 3e 0f a1 77 3e 30 9b 9e 3d
       0.049913265 0.49767736 0.24182533 0.077444434
000130 fb 4a ef 3d 1d 7a b4 3e f6 0d 0b bf 7e 1b 90 bd
       0.11684223 0.35249415 -0.5431818 -0.07036494
000140 08 2b 8b bd 64 65 09 3e d1 56 2b 3f 92 cf 10 bf
       -0.06795317 0.13417584 0.66929346 -0.5656673
000150 e0 52 83 3e 29 ea 0a 3f 02 01 80 3f b1 ff 1f 3f
       0.25649166 0.5426355 1.0000308 0.6249953
000160 7e fe b1 bd 83 e0 af 3e ed c0 0a bf 17 fb b6 3e
       -0.08691119 0.34350976 -0.5420063 0.3573844
000170 8c b2 46 3f c8 d6 35 be 64 fd 9f 3e 38 f4 c1 3e
       0.7761619 -0.17757714 0.3124801 0.37881637
000180 3d 94 42 bf f5 cb 4f 3e af df 8f 3e 17 92 09 3d
       -0.76007444 0.20292647 0.28100345 0.033586588
000190 25 5a 0b 3e 14 10 a8 bd 3c 88 12 bd 49 ed 47 3e
       0.13608606 -0.08206192 -0.035774454 0.19524111
0001a0 6d 39 5b be 8d 91 9b 3d 10 44 e5 bd f6 43 33 3c
       -0.21408625 0.07596121 -0.111946225 0.010941496
0001b0 23 78 8a bf d6 df 47 3e 71 69 f9 be 2f 0d c2 3d
       -1.0817913 0.1951898 -0.48713258 0.09475171
0001c0 ee 08 72 3e b2 db 69 3e 6c 80 8c be cb 91 c8 be
       0.23636219 0.22837713 -0.27441728 -0.3917373
0001d0 5c d4 5c be 13 85 80 be 56 ae 96 be 7e 7e 2d 3e
       -0.21565384 -0.25101528 -0.29429883 0.16942784
0001e0 e3 81 c2 3d 49 48 45 bf b5 58 ca 3d f7 d1 a9 bf
       0.0949743 -0.77063423 0.09880201 -1.3267201
0001f0 2f 90 01 bf bd 3d 72 bd b7 e2 0d 3f 85 e1 e8 be
       -0.5061063 -0.05914091 0.55424064 -0.45484558
000200 28 9a 9f be b8 7e 37 bf 13 d0 58 3e d0 ae 5c be
       -0.311723 -0.7167773 0.21173124 -0.2155106
000210 50 60 a5 3d cc 64 d5 3e d1 f2 ca be b6 6b d2 bb
       0.08075011 0.41678464 -0.3963838 -0.0064215316
000220 40 ea 2d bd e3 ce 12 3f 9e de 59 3e 50 69 20 be
       -0.042459726 0.57346934 0.21276328 -0.15665174
000230 1a b6 03 be 6d c0 31 3e a1 bb a2 be df 55 73 be
       -0.12862435 0.17358561 -0.31783774 -0.23763226
000240 59 ac f1 3e 76 9c 25 bd 06 f0 52 be 79 72 c1 be
       0.47201803 -0.040432416 -0.20599374 -0.37782648
000250 3b 80 1d be a9 75 01 be 01 51 48 bf 6b e8 65 bd
       -0.15380947 -0.1264254 -0.782486 -0.056129854
000260 18 ec 2a 3e 11 72 02 bf 59 db f9 3d 10 c2 bc be
       0.16691625 -0.509553 0.1220004 -0.36866808
000270 3c 54 35 be c6 0d 3c 3e c5 fb b5 3e f1 45 6b 3e
       -0.17707914 0.18364629 0.35543647 0.229759
000280 d4 f0 1e 3e 9e a2 11 be cf 21 92 3e dd f9 4c 3d
       0.15521556 -0.1422219 0.2854142 0.050042976
000290 07 04 d6 3d c5 c5 e3 bc 69 ef 31 be 38 1c b6 bd
       0.10449987 -0.027804265 -0.17376484 -0.08892101
0002a0 20 c8 08 bf 10 ba 63 bd 9a b1 c6 bd 57 68 e5 bc
       -0.53430367 -0.055597365 -0.097018436 -0.028003855
0002b0 3e bb 68 bd 33 c7 65 3d 57 98 84 3e d7 a8 a4 be
       -0.056819193 0.056098174 0.25897476 -0.32160065
0002c0 7c 3a 33 3e e3 ad a4 3e 3b 20 dc 3d b3 57 13 bf
       0.17502779 0.32163915 0.10748335 -0.57555693
0002d0 86 fc ef bd 1c 9f fa be 70 ff 18 3e ba a0 84 3d
       -0.11718087 -0.48949516 0.14941192 0.06475969
0002e0 a8 74 38 be 99 c0 e3 3e d3 e6 af bd 65 f0 6f 3e
       -0.18013251 0.44482878 -0.08588948 0.23431547
0002f0 c2 58 dd bc b9 91 21 3e 91 ab d6 bd bd 7e 64 bd
       -0.027019862 0.15778245 -0.104819424 -0.05578493
000300 ac 5a 0d 3e e2 ec 10 3e ef 78 40 be 27 37 05 3e
       0.1380412 0.14152864 -0.18796133 0.1300932
000310 b2 81 cd bb 91 9c a3 3e 6c 30 91 be f6 4c 0a be
       -0.0062715644 0.31955388 -0.28357255 -0.13505921
000320 44 45 8b 3e a6 90 bc be b7 4b c4 3e 5d ca 11 bf
       0.27201283 -0.36829108 0.38339016 -0.56949407
000330 7b 29 b7 3d 69 94 bd 3e 2b af 85 3e b8 1a a1 3e
       0.08943459 0.3702729 0.26110205 0.31465697
000340 b8 aa 0a 3c 9c 33 ab 3d 5f 44 cb bc a3 00 b3 3d
       0.008463554 0.08359453 -0.024812875 0.08740356
000350 40 90 dc 3d 16 8c 41 3d 9e e0 7e be 43 8f 59 3e
       0.10769701 0.047252737 -0.24890372 0.21246056
000360 9e 76 a0 3d b5 9b 9c be fc 10 55 be e0 1a 07 3d
       0.078351244 -0.30587545 -0.2080726 0.032984614
000370 f2 38 3f 3e d0 a1 ee 3c 0a 70 ae bd bc 5c f5 3d
       0.18674067 0.029129893 -0.085174635 0.11980578
000380 65 78 1c be 56 6b 0b 3e f3 ec b2 3e fc 3e 29 be
       -0.15280302 0.13615164 0.34946403 -0.16527933
000390 b4 7f 03 3e ce 01 f8 3c 99 2c 08 be 86 ab 41 3d
       0.12841684 0.030274298 -0.13298263 0.047282718
0003a0 f6 c4 cf 3d d7 27 7e be af 7d 40 3d e5 f5 39 be
       0.10144989 -0.24819885 0.04699486 -0.18160208
0003b0 15 03 8e 3e 2a b7 e7 bb f0 01 23 be 21 de 2b 3e
       0.27736726 -0.0070713954 -0.15918708 0.16783954
0003c0 af ec 80 bd e8 5d 77 3e f0 2b 30 3e c8 1a ef bc
       -0.06295144 0.24156916 0.17204261 -0.029187575
0003d0 4d fe 02 be f0 c2 22 bd 1d b9 79 3e e5 d6 11 bd
       -0.1279232 -0.039736688 0.24387021 -0.03560533
0003e0 c5 8f 66 3d 03 11 34 3e 5b 7c af bd e6 f1 38 bd
       0.056289453 0.17584614 -0.08568641 -0.045152567
0003f0 a6 17 28 bd b3 71 06 be f2 42 3d be 72 27 30 3d
       -0.041038178 -0.1312931 -0.18482569 0.043006368

decoder.fc2.bias f4 [27]
000000 ce e9 6f 37 4e cb 0b 3d 2b fa 79 3c a2 df 38 3d
       1.4299947e-05 0.034129433 0.015257399 0.045135148
000010 d4 76 81 3e 45 a2 83 be 20 65 02 3e d7 82 83 3c
       0.2528597 -0.2570974 0.12733889 0.0160536
000020 9d 00 63 3e 87 b5 0a bd 67 eb d4 3d f8 51 58 bd
       0.22168203 -0.033864524 0.10396462 -0.052812546
000030 18 bb 96 bd 3b fd 3c 3e 39 2f c4 3d cb 6a fb 3d
       -0.07359904 0.18455975 0.095793195 0.122762285
000040 13 81 ee bc 79 e2 36 3d de 30 48 3e 30 09 23 bd
       -0.029114282 0.044649575 0.19549891 -0.039803684
000050 13 f1 2b bd 3f 6e 46 be c1 ee a0 bd d0 94 01 3c
       -0.041977953 -0.19377993 -0.07858039 0.007909015
000060 60 0e 54 be d0 12 cc 3d 5e c6 b5 3c
       -0.20708609 0.09964526 0.022189315
