data/model_3d.pkl (torch, 11804 bytes, 10 tensors)

encoder.fc1.weight f4 [32, 27]
000000 5a c8 03 bd 8c ec 96 3d 01 17 58 3e 9a 50 37 3e
       -0.032173492 0.073693365 0.21102525 0.17901841
000010 54 85 4c 3f 27 70 b0 3e 2e c4 87 bc e6 22 8b be
       0.7989094 0.34460565 -0.016573038 -0.27175063
000020 98 b9 a5 bd ee 27 4e 3e 59 96 1c be 3f 83 d6 3b
       -0.0809204 0.2013242 -0.15291728 0.0065464075
000030 51 f2 b1 3e b6 b2 21 3f d2 b5 33 3e b8 ff 36 3f
       0.34755185 0.63163316 0.17549828 0.71483946
000040 aa af 4a bd 28 7e 0a 3f e1 5f e5 3e 04 f9 64 bd
       -0.049483933 0.5409875 0.44799712 -0.055901542
000050 c4 fb b0 3e 29 2b e8 3d bd 90 c0 be 3c 14 b9 be
       0.34567082 0.11336357 -0.37610427 -0.3614825
000060 e1 89 f8 3d 2c 7d 09 40 55 aa 58 be ac 53 72 be
       0.12135673 2.148265 -0.21158727 -0.23664731
000070 e2 a0 38 3e 57 8a 89 bd dc fb 46 3f 36 1a f3 3e
       0.18030122 -0.06715839 0.77728057 0.47480935
000080 ba 79 e4 bd 3f 17 01 3f 8f df 14 3f e1 bb 06 3e
       -0.1115603 0.50426096 0.58153623 0.13157608
000090 80 9b 94 3e cc e5 d4 3e 59 02 4a bc f5 5c dc be
       0.29024887 0.4158157 -0.012329661 -0.4303967
0000a0 27 0e 3f be cc 13 8e bd 6a d5 2c bf 32 76 a3 3d
       -0.18657742 -0.0693737 -0.67513144 0.07981528
0000b0 d2 cd 14 3e f9 b7 bd 3e c3 59 86 3e f9 c4 97 3f
       0.14531639 0.37054422 0.26240358 1.1856986
0000c0 3a c1 a9 3e 9b eb c5 be 87 4d 08 bd fa 19 e5 3e
       0.33155233 -0.38656315 -0.03327706 0.4474638
0000d0 47 f2 2c bf 2e d6 f9 3e e1 ab ff 3d 97 5e aa 3e
       -0.67557186 0.4879622 0.12483955 0.3327529
0000e0 1b 11 eb 3c ed 36 3b bf a9 e8 ad be ac 5c 56 3e
       0.02869468 -0.73130685 -0.33966568 0.20933789
0000f0 98 4a c7 3e 6c 38 04 3c ae e6 4a bf 7e a1 05 3e
       0.38924098 0.008070093 -0.7925824 0.13049886
000100 76 34 54 be 16 64 09 3e c8 b1 b8 3e c2 15 e8 3d
       -0.20723137 0.13417086 0.36073136 0.11332275
000110 9e 69 52 3e 54 3a 11 bf 77 17 fc be e7 df 11 bf
       0.20548102 -0.56729627 -0.49236652 -0.5698227
000120 19 a1 1e bf d1 ec 85 bd e1 46 f0 bf 6d 99 3a bd
       -0.61964566 -0.0653931 -1.877163 -0.045556474
000130 5b 95 c5 3e 79 1d e5 be 17 70 9a be 84 23 b5 be
       0.38590512 -0.44749048 -0.30163643 -0.3537866
000140 32 7b d2 bd 96 94 ff 3d 24 d5 64 be 31 c5 91 3c
       -0.10277404 0.124795124 -0.22346932 0.017794224
000150 ab b3 91 3e 43 0d 6c be 5a 43 96 3d a4 a5 bb bc
       0.28457388 -0.23051934 0.07337065 -0.022906132
000160 8a af b6 be d6 11 4a be 30 c5 6c bd 54 64 84 3d
       -0.356808 -0.19733366 -0.05780524 0.064644486
000170 15 72 b7 bd 5b 4b 0a be 2e f4 43 bf af 45 7e be
       -0.08957306 -0.13505308 -0.76544464 -0.2483127
000180 da 2e 1d 3e 08 d9 ac 3d e7 70 af bd 7e 77 2c 3e
       0.15349904 0.08439833 -0.08566456 0.16842458
000190 2f c5 a5 be cd 4b f8 be 62 c1 48 be 54 c0 1f be
       -0.32377002 -0.4849533 -0.1960502 -0.15600711
0001a0 e8 30 cf 3e 3d 2e 9e 3e 5c a3 ae bd 96 af 9b be
       0.40467 0.30894652 -0.08527252 -0.304074
0001b0 b8 f3 54 3c d6 6f 88 3d ed 00 79 be cc 10 1a 3f
       0.01299756 0.06661956 -0.2431676 0.6018188
0001c0 70 2e f0 3d 1e 5c 05 be bb f8 44 be 08 38 0a be
       0.11727607 -0.13023421 -0.19235508 -0.13497937
0001d0 7c 11 78 3f 81 09 cd 3c 2e 5c 76 3f f5 84 f8 3d
       0.9690168 0.025028946 0.96234405 0.121347345
0001e0 db da 3a 3e d7 50 39 be 02 2b 87 be 2a d3 d2 3e
       0.18247549 -0.18097244 -0.264 0.4117673
0001f0 bb ff 84 3e 43 de c3 3e 71 12 04 3f 26 d1 63 3e
       0.25976357 0.3825551 0.5159064 0.22247753
000200 1e f9 17 3f ac 15 2b bd 27 70 a5 bc ca 2e e8 3d
       0.593645 -0.041768715 -0.02019508 0.11337049
000210 0c 80 82 3f 9e d9 2c 3e 45 43 7b 3b 2a be 16 be
       1.0195327 0.1687989 0.0038339656 -0.1472098
000220 a8 46 8d 3c d4 6f 87 3c 8b 84 2f 3d 12 f1 4b 3f
       0.017245606 0.016532816 0.042851012 0.7966472
000230 ce 45 11 3e 00 94 a1 be d6 f7 6e be 7a 28 80 3a
       0.14186785 -0.31558228 -0.2333673 0.0009777688
000240 b4 86 1e 3e 37 ea 72 3e 85 9c 35 be de b0 2b be
       0.15481073 0.23722158 -0.17735489 -0.16766688
000250 f1 eb 58 bf e5 08 77 3e 94 66 20 3f fe 9b dd bd
       -0.8473502 0.24124487 0.6265652 -0.10820769
000260 3c 49 d9 3e a1 68 93 3e 08 3c 39 3e 7e b8 3c 3f
       0.42438686 0.28790763 0.18089306 0.7371901
000270 45 3c 26 3e 1c c8 dc be db 5a 00 bf 64 d3 0d be
       0.16233929 -0.4312142 -0.50138634 -0.1385017
000280 77 70 98 be 8d f4 9d bd 1a fb 3a bd 00 62 cf 3d
       -0.29773304 -0.0771266 -0.045649625 0.10126114
000290 4f 52 5f be 11 39 7d 3e a9 c6 ef 3e 64 ef e6 3c
       -0.21808742 0.247288 0.46831253 0.028190322
0002a0 a9 c8 d9 3e cb 36 b9 be df bc 2f 3d 7f 1b 9d 3d
       0.42535904 -0.36174616 0.04290473 0.0767126
0002b0 0a b5 5a 3d 75 86 28 bd de c8 ab be 61 14 f3 bd
       0.05339531 -0.041143853 -0.33551687 -0.11869121
0002c0 b7 d2 cb 3c 00 41 9a 3d 27 84 3d 3f fd 8c 18 3f
       0.02488075 0.07531929 0.74029773 0.5959013
0002d0 29 9f 14 3f a2 b9 9a be ca d6 62 3f 8c 49 d5 3d
       0.5805536 -0.30219752 0.8860899 0.104144186
0002e0 6b 8e ff 3c c2 79 a3 3d cf 94 a9 3d 03 84 29 bc
       0.03119584 0.07982208 0.08280336 -0.010346415
0002f0 04 c8 e8 3e 1e 18 ad be 0d 07 6a bd 07 df 52 be
       0.454651 -0.33807462 -0.05713563 -0.2059289
000300 4c 2a 56 bf 26 29 88 be 8a f8 f1 be d7 42 b0 3e
       -0.8365829 -0.26593894 -0.47259933 0.34425995
000310 93 bc eb 3d f7 2a 90 be 6e 94 05 3e 2d 32 74 3d
       0.11510577 -0.2815778 0.13044903 0.059618164
000320 e8 40 55 3d 9d b4 82 be 02 e5 ef bd ca 7f 14 be
       0.052063853 -0.25528422 -0.11713602 -0.14501873
000330 4f 71 04 bf 6f e9 ce bd 07 e2 00 3d ea c1 05 bf
       -0.51735395 -0.10103118 0.031465556 -0.52249014
000340 98 44 97 bd 18 d8 d0 3c 60 c4 fa 3d 7d 64 33 3d
       -0.0738613 0.025493667 0.12244487 0.043797005
000350 b7 c5 27 3f 94 e3 4d 3d f7 14 94 bf 68 71 a0 bd
       0.65536064 0.050265864 -1.1568898 -0.078341305
000360 ad 5e 0a be 6f 05 04 3d 07 20 87 be f5 5f 9f 3d
       -0.13512678 0.032231744 -0.26391622 0.07781974
000370 62 21 99 3d c5 38 4f be 0f fc 8a 3e fe dd 94 3e
       0.074770704 -0.202365 0.2714543 0.29075617
000380 6a 2d 38 3d 14 3f b6 be 0b c9 2e bf 8e 4d 91 3e
       0.044965185 -0.35595 -0.6827552 0.28379482
000390 fc db 99 3e 7d 48 92 3f 77 f9 e2 3e fe 68 ac 3e
       0.30050647 1.1428372 0.44330952 0.33673853
0003a0 e1 59 8f bd 8d c6 0d be cb 84 c3 3d 17 59 cb 3e
       -0.06999565 -0.13845272 0.095468126 0.39716408
0003b0 d7 1a 6b bb 42 6b 47 bc 39 72 80 3d 72 62 18 bf
       -0.0035874152 -0.012171568 0.06271786 -0.59525216
0003c0 bd ad 06 be ae fb 27 3e 96 80 6c bc 56 4e 53 be
       -0.13152213 0.16404602 -0.014434954 -0.20635352
0003d0 04 c5 42 3e 6e a0 f1 bd 7e 8f 9b be 69 ca 1a 3d
       0.19020468 -0.11798178 -0.30382913 0.03779069
0003e0 ef aa 52 bd de 1a 0d 3d 17 bf f8 3e 10 61 88 3d
       -0.051432546 0.03444945 0.4858329 0.06659138
0003f0 17 89 f8 3d 5a 61 18 be 0f 03 99 bc bc 89 13 3e
       0.12135523 -0.14880887 -0.018678216 0.1440801

encoder.fc1.bias f4 [32]
000000 3c 91 3c 3c f6 32 cd 3c 52 ce c9 bd 0c 25 ad be
       0.011509236 0.025048714 -0.098538056 -0.33817327
000010 42 7c 9b 3e 63 05 62 be c8 0f cb 3d 24 6f 1e be
       0.3036824 -0.22072367 0.099151194 -0.15472084
000020 f9 5b 10 3e bc 11 91 3e 10 9a 12 3e ea f5 2a bd
       0.14097585 0.28333843 0.14316583 -0.04173843
000030 3e 0c 73 be ce ca 47 bd 7f 74 04 3e 9c fd 23 bd
       -0.23735139 -0.048777394 0.12935065 -0.040036783
000040 c3 80 b7 3d 63 f3 6b be 91 7a 68 3e b4 cc b0 3e
       0.08960106 -0.23042063 0.22703005 0.34531176
000050 f4 87 eb bd c8 e3 cc 3e 0d 62 71 3d 80 c4 f2 3d
       -0.115005404 0.40017533 0.0589314 0.11853886
000060 60 9f a9 be 1a 01 fb 3d 4e 3d c8 3c 0b b6 04 bd
       -0.33129406 0.122560695 0.024443295 -0.032400172
000070 75 c3 67 bd cc ba d7 bd 4d 8e 84 be d1 d3 06 be
       -0.056582887 -0.105336756 -0.25889817 -0.13166739

encoder.fcmu.weight f4 [3, 32]
000000 5e 6c ec bd 10 8b 1c be fa 47 8c be 28 28 98 3e
       -0.11544107 -0.15287423 -0.27398664 0.29718137
000010 c2 94 e2 3d cb 1a 94 be 62 11 74 be 4b 1a 68 be
       0.110635296 -0.2892669 -0.23834756 -0.2266628
000020 6a f6 21 3d ca 17 14 bf c4 de 97 3e e0 6a 88 3e
       0.03954164 -0.578488 0.29662144 0.2664404
000030 f7 96 e4 3d 39 1c c2 be 24 63 c1 3e ce f3 85 3e
       0.11161607 -0.37912157 0.3777095 0.2616257
000040 42 55 94 3e 5e 79 b9 be bf 53 c4 be 95 97 fa bd
       0.28971297 -0.36225408 -0.38345143 -0.12235943
000050 40 65 13 bf 08 9b b6 3e e2 96 e1 3e a3 48 b7 3e
       -0.5757637 0.35665154 0.44060427 0.35797605
000060 27 a2 94 bd 89 1d 6b 3e dc a8 88 3d bb 8f 1e 3e
       -0.072574906 0.22960486 0.06672832 0.15484516
000070 8e e8 c1 3e 85 fe 59 be ee bb b8 be 45 fa f2 3e
       0.37872738 -0.21288498 -0.3608088 0.47456565
000080 96 39 0b bf 8b 98 06 3f c9 20 28 be 9f 35 8d 3d
       -0.54384744 0.5257651 -0.16418757 0.06894993
000090 b7 fe 55 be 6c ce 78 be 96 fa 6b 3e 87 1e 20 3f
       -0.20897947 -0.24297494 0.2304481 0.6254658
0000a0 84 3f 17 be 92 96 05 bd b9 d3 89 be bc e7 22 3f
       -0.14770323 -0.0326143 -0.26919344 0.6363485
0000b0 b6 64 2a be a1 ab a9 3c c4 1f 8c be 61 25 ca 3e
       -0.1663998 0.020711722 -0.27367985 0.39481643
0000c0 52 d0 d5 3e b3 0a 4c bf ef 09 8f 3e ee ab 16 bf
       0.41760498 -0.79703826 0.27937266 -0.58856094
0000d0 cf 78 33 3d ce c3 7c 3e b7 4e 91 3d 57 85 3b bd
       0.043816384 0.24684069 0.07095092 -0.04578146
0000e0 6e 61 60 bf 1b ba ff bd fc d2 1a bf 53 29 a3 be
       -0.87648666 -0.12486669 -0.60478187 -0.31867465
0000f0 03 8b 80 3b e6 11 d0 3e 87 40 1c 3e 65 33 00 3f
       0.0039228215 0.40638655 0.1525899 0.5007842
000100 08 8d 31 3e 94 7d 75 3c 48 78 40 bf a1 97 51 3e
       0.17338955 0.014983553 -0.75183535 0.20467998
000110 75 0e 96 3e af 95 56 3e 36 ae 88 3e 6d 4c 94 be
       0.29307905 0.20955537 0.26695412 -0.28964558
000120 9f 87 e9 be 18 81 1b be d4 a5 ef 3e 73 08 04 be
       -0.45611283 -0.15185964 0.46806204 -0.12893848
000130 ff 95 53 3f 8c ca 96 3e 42 9c 99 3e d0 f6 9c be
       0.8265075 0.29451406 0.30002028 -0.30657053
000140 1e 69 c4 be 13 bf d1 3d 72 29 34 3d 39 9a 4b be
       -0.38361448 0.10241523 0.043984838 -0.1988305
000150 f5 01 15 3d 9e 2c e4 3e 0f 19 55 be 15 b3 07 be
       0.03637882 0.4456529 -0.2081034 -0.13251908
000160 8b cb 0c bf 99 fc e7 be 84 f1 74 be 25 4c c5 be
       -0.5499808 -0.45309904 -0.23920256 -0.38534656
000170 93 5d 9b 3e 57 43 19 3e 33 5a 92 be c9 af be be
       0.3034483 0.14967094 -0.28584442 -0.37243488

encoder.fcmu.bias f4 [3]
000000 66 2b 1f be 2c 09 e9 bd 23 e4 0c be
       -0.15543899 -0.113787025 -0.13758902

encoder.fcsig.weight f4 [3, 32]
000000 1c 7d 91 bd 10 f4 f4 bd 6e 8c 2d 3e 61 be ec 3d
       -0.07103941 -0.11960614 0.16948101 0.115597494
000010 37 95 b9 be 58 bb d6 3e 86 00 18 be cf db 62 3d
       -0.36246654 0.41939807 -0.1484395 0.055385407
000020 0f 2b d2 be 91 1a bc be 11 a9 95 bc 7d 3a 87 be
       -0.41048476 -0.3673902 -0.018269094 -0.2641181
000030 5d 0e 1e be b0 0e e3 be 7f 22 da 3d 08 d3 de 3d
       -0.15435167 -0.44347143 0.10651111 0.10880095
000040 88 43 45 be 64 1f ef 3d 18 b6 c4 be f6 ed 60 bb
       -0.19264042 0.11675909 -0.38420177 -0.0034321523
000050 9e ef af 3e 0e 16 37 be c2 a8 a9 bd 7f 15 48 bc
       0.343625 -0.17879507 -0.08284141 -0.012212156
000060 53 3a 2d 3e fb 52 33 be 85 b1 8e be 94 4e 46 be
       0.1691678 -0.17512123 -0.27869812 -0.19365913
000070 bc 63 98 bd cd 70 3f bd 71 28 73 3e 00 13 ac 3c
       -0.07440898 -0.046738435 0.23745896 0.021005154
000080 f8 f5 54 be 3e 5c 15 be 6c 7d d3 bd b5 fa 72 be
       -0.20796955 -0.14585969 -0.10326657 -0.2372845
000090 42 f1 88 3d c3 87 65 ba 84 55 06 bf 66 7e 80 3e
       0.06686641 -0.0008755887 -0.52474236 0.25096434
0000a0 34 45 53 be 37 f6 7c be 69 7f b8 be 61 a5 4c 3d
       -0.20631868 -0.24703299 -0.36034706 0.049962405
0000b0 15 33 1e 3e 14 97 c8 bd a7 98 3a be ef 57 48 bc
       0.15449174 -0.09794441 -0.18222295 -0.012227996
0000c0 01 ca 2f bd 30 11 00 3f cb 96 2a bb 91 bc 07 be
       -0.042917255 0.50026226 -0.002602982 -0.13255526
0000d0 f5 2d 0c be bd 12 0d be c4 5d c1 3e 1d 27 64 3e
       -0.13689406 -0.1377668 0.3776685 0.22280546
0000e0 9b 96 63 be 32 f0 b7 bd 2a 11 69 be d0 c9 17 bf
       -0.2222542 -0.089813605 -0.22760454 -0.59292316
0000f0 07 4f 62 be 9b d0 07 3d 58 99 1e 3c 8a 0f 59 bd
       -0.22100459 0.033157926 0.009680115 -0.052993335
000100 7b 64 b7 be 95 10 1a 3e 16 e5 52 3e 82 85 ef 3d
       -0.35818848 0.15045388 0.20595202 0.116953865
000110 2a 1a c3 be c6 54 89 bd 38 b7 ba be 80 40 88 3b
       -0.381059 -0.067056224 -0.3646791 0.0041580796
000120 77 87 59 be 5d 05 be 3b 6a fc 93 be ce af f5 be
       -0.21243082 0.005798979 -0.28903514 -0.4798569
000130 be ac 21 3f 36 b4 42 3d 0b f2 9e bd a6 71 cb 3e
       0.6315421 0.047535144 -0.0776101 0.39735144
000140 ee dd eb bb 3f ef 04 3e 35 07 ed bd 48 e4 7a be
       -0.007198087 0.1298189 -0.1157364 -0.24501145
000150 10 52 c5 bd c3 66 c7 be 66 c7 9f be 50 9d e5 bd
       -0.09634793 -0.38945588 -0.31206816 -0.112116456
000160 62 e8 a8 be 06 de cd 3d ab 42 c9 be 77 a6 96 be
       -0.32989794 0.10052113 -0.39308676 -0.29423878
000170 05 bb 89 3e 8e 67 37 be f5 3a 94 be fb 85 fa 3d
       0.26900497 -0.17910597 -0.2895123 0.12232586

encoder.fcsig.bias f4 [3]
000000 f5 9e cc 3d 2d 26 0d be f4 58 8f bd
       0.09991256 -0.13784094 -0.06999388

decoder.fc1.weight f4 [32, 3]
000000 6a 01 8f be b4 9a 66 bf 65 9f d2 bf df 7b 28 be
       -0.27930766 -0.9007981 -1.6454893 -0.16453503
000010 91 e3 82 bf fe 7d 7c 3f bd 94 9a bf ff 0a 52 bf
       -1.0225698 0.9862975 -1.2076641 -0.8204803
000020 45 70 9b 3e f7 e2 af 3e 67 0e 27 bf fa 68 85 be
       0.30359092 0.34352848 -0.6525635 -0.26056653
000030 84 8e f6 be e9 2b 31 bd e8 f8 7b 3f f2 b6 86 bf
       -0.48155606 -0.043254767 0.98426676 -1.052458
000040 52 13 5d be 3b 60 21 3d e4 7a ff 3c ee cf 8d bf
       -0.21589401 0.039398413 0.031186529 -1.107908
000050 6b 1b 1d bf 75 82 41 3f 8d 9f 4f 3f 13 98 31 3f
       -0.6136996 0.75589687 0.8110283 0.6937267
000060 bc 2b 98 bf e6 54 e2 3e a4 76 33 bf 6f 48 5c 3f
       -1.1888347 0.44205397 -0.70102906 0.86048025
000070 66 ec 44 be 3e a3 cf 3e 98 78 1e bf 8b 56 35 bf
       -0.19230804 0.4055423 -0.6190276 -0.7083518
000080 ca 08 bb bf 99 10 20 3f 0e f2 dc be ae cc 4e 3f
       -1.4612057 0.62525326 -0.43153423 0.80781066
000090 ce 38 f5 be cd 2c 11 3f 61 90 a7 bf f3 54 95 bf
       -0.478949 0.56708986 -1.3090936 -1.166655
0000a0 0c be 49 3e f2 f8 2f 3f 24 3e 54 bf db 68 88 3f
       0.19701403 0.68739235 -0.8290732 1.0656999
0000b0 8e db 95 3f 03 86 4b 3e e7 d5 d5 3e 52 0f 88 bf
       1.1707628 0.1987534 0.41764757 -1.0629675
0000c0 c5 4d 63 3d 8d 56 5d bf 88 9b 57 3f 0d 60 7a 3e
       0.05549409 -0.8646019 0.84221697 0.24450703
0000d0 6f 42 a9 3f af d8 2a bf 8a 3b 68 3f 98 12 2a 3f
       1.3223399 -0.6673688 0.9071585 0.6643462
0000e0 01 81 98 bf 7d d7 25 bf 8d d0 67 3f 3d 20 a9 be
       -1.1914369 -0.64781934 0.905526 -0.33032408
0000f0 23 a2 74 3f cc 8c d6 3d ae 5e 62 bf cd c2 70 bf
       0.955599 0.104760736 -0.8842572 -0.9404724
000100 eb 7c 2b 3f b8 4b 62 bf 54 5c b5 3e cd 4d da 3c
       0.66987485 -0.8839679 0.35422003 0.026648426
000110 e5 3a ce bf 4a a4 8f 3f 77 a2 3a 3d f9 28 c9 be
       -1.6111723 1.1222012 0.045565095 -0.39289072
000120 57 2a 35 bf 6f 0c 62 3e a8 ae 49 3f d5 e6 b6 3e
       -0.7076773 0.22075056 0.7878213 0.35722986
000130 bc ec 48 3e c7 3d a6 3f 06 c1 18 3f d0 76 ad 3f
       0.19621557 1.2987603 0.5966953 1.3551884
000140 ce bd c6 3e f7 f6 41 bf e9 d3 28 3e c7 2f d2 bf
       0.38816684 -0.75767463 0.16487087 -1.642083
000150 b0 ea 34 3f 83 89 00 be ac 13 4b bf 97 54 5f bf
       0.70670605 -0.12552457 -0.7932689 -0.8723845
000160 ae 06 4a bf f5 81 5e bf 24 b1 b6 3f f0 30 26 3f
       -0.7891644 -0.8691705 1.4272809 0.6491842
000170 02 9d d4 3e 0c 75 78 3f fd 82 f2 be 23 60 91 bf
       0.41526037 0.970536 -0.4736556 -1.1357464

decoder.fc1.bias f4 [32]
000000 e3 2c db be d5 bf 7d bf 8b ac b9 bd 1d e5 15 3f
       -0.42807683 -0.9912084 -0.09066113 0.58552724
000010 53 24 92 3f b4 61 94 3e e7 82 98 bf 81 dc 43 3f
       1.1417335 0.28980792 -1.1914948 0.7650834
000020 a0 e6 3e 3d ac d1 2c bf 7d 3c 88 3f 35 8a 3f 3e
       0.04660666 -0.67507434 1.064346 0.18705066
000030 78 44 0a bd 95 c5 40 bf ea 94 15 bf 5b 07 46 3f
       -0.033756703 -0.75301486 -0.5843035 0.77354974
000040 5c 71 dc 3e c6 f5 e3 be 98 56 85 bf d3 1b 18 bf
       0.43055236 -0.44523448 -1.0417051 -0.59417456
000050 6f 7a 46 3f f2 09 69 bf 82 59 04 bf 68 3e 29 3f
       0.7753057 -0.910308 -0.5169908 0.6611085
000060 03 6a 0a 3f 47 1e 5c be ae f3 65 bc f8 cd 0a bf
       0.5406801 -0.21495925 -0.014035149 -0.54220533
000070 85 4e 09 3f 29 f2 99 be 9e 80 98 be f4 a9 13 bf
       0.53635436 -0.30067566 -0.29785627 -0.576812

decoder.fc2.weight f4 [27, 32]
000000 2f 64 ca 3e 0f c5 00 bf ae 5d 70 be bd f7 4d 3e
       0.3952956 -0.5030069 -0.23473236 0.20114036
000010 89 99 ef 3e 83 bf 87 bd d7 53 13 bd c2 b5 ce 3c
       0.46796826 -0.06628325 -0.035968628 0.025233153
000020 3e 67 80 3e af 3b d7 3e af 31 1e bd 8b fe a1 3e
       0.25078768 0.42037722 -0.0386216 0.31639513
000030 cb 7e e8 3d 07 c4 bc bd c2 84 5e be bc 0e a2 bd
       0.11352309 -0.09217077 -0.2173033 -0.079129666
000040 c6 4f 00 be 8b d4 9b be 72 59 49 3f c0 b0 50 be
       -0.12530431 -0.30435595 0.7865211 -0.20379925
000050 65 da 43 be 6e a6 8f 3d a1 d2 a5 3e 85 0e 50 be
       -0.1912628 0.07014166 0.3238726 -0.20318039
000060 fc b0 9f bc bf 8f 69 be 76 eb 10 3f 05 18 06 be
       -0.019493572 -0.22808741 0.56609285 -0.130951
000070 b5 e7 f3 3c 1c 8e 37 bc 09 30 88 be 11 be 40 bd
       0.029773572 -0.011203315 -0.26599148 -0.04705626
000080 b7 1a 85 3d f9 12 87 bf 18 6e fb 3d df b7 56 bc
       0.06499236 -1.0552665 0.12276858 -0.013105362
000090 0f f2 84 3e 9e d3 7a be d1 92 33 3e 45 d5 1d be
       0.25965926 -0.24494788 0.17536475 -0.15413387
0000a0 d5 89 00 bf fb dc 12 3d 1d f5 12 3f cc 46 d4 be
       -0.50210315 0.035855275 0.57405263 -0.41460264
0000b0 07 1a a6 bd 4c 27 84 be ef 25 52 be 16 ea 53 be
       -0.08110433 -0.2581123 -0.20522283 -0.20694765
0000c0 de 17 08 bd ba 9e a5 be f6 cd 9e 3e 8d 09 44 3f
       -0.033225887 -0.3234766 0.3101651 0.76577073
0000d0 de b3 94 bd 7b a1 a5 be 8a 18 8f 3e 8e e7 dd 3d
       -0.072608694 -0.32349762 0.2794841 0.10835181
0000e0 9a f8 e8 bd f6 81 18 3f 61 ed 78 3d 34 bb ab bc
       -0.11375542 0.59573305 0.060773257 -0.020963289
0000f0 1a 3f c4 bd 88 46 83 bd 90 4c c7 3e c4 1f 7d bd
       -0.09582348 -0.06409937 0.389256 -0.061797872
000100 47 c8 c1 be 6d 8e cb be 70 1e bf 3e 8a b9 0d bf
       -0.37848112 -0.397571 0.3732791 -0.55361235
000110 ac 4d aa bd b6 43 d8 3d a4 d5 05 c0 a8 e9 b6 be
       -0.08315596 0.1055979 -2.0911646 -0.3572514
000120 a3 f4 e0 be d7 f6 22 3e 1e 96 3d 3e 62 30 db 3b
       -0.43936643 0.15914474 0.18514296 0.0066891173
000130 a2 2a 09 3e 2c f2 29 3f 04 55 4d be d2 4d d7 be
       0.1339517 0.6638515 -0.20051962 -0.4205156
000140 24 86 06 be 1e dc a9 bc 5a 0b af 3e 23 87 a9 bf
       -0.13137108 -0.020734843 0.34188348 -1.3244365
000150 7e b8 63 3e ce 09 57 3f 93 2f 84 3f 58 a2 04 3f
       0.22238347 0.83999336 1.0327018 0.51810217
000160 75 eb 19 3c b3 cf ee 3e 00 bf 04 bf c6 6f 03 3f
       0.009394516 0.46642837 -0.5185394 0.5134243
000170 e2 c0 39 3f 94 45 7d be 6e a1 8c 3e 01 5a 21 3d
       0.7255994 -0.24733573 0.2746691 0.039392475
000180 c8 e3 2a bf 3a ef 1e 3e 10 e2 1c bd 10 8b b2 bd
       -0.66753817 0.15520945 -0.038301528 -0.0871793
000190 35 b6 33 3e 3e e8 09 be 23 e2 87 be 41 c9 c7 3e
       0.17549975 -0.134675 -0.26539716 0.39020732
0001a0 a9 34 0a 3f 95 e6 57 3e 76 c7 be be 5b 1f 48 bc
       0.53986603 0.21084054 -0.37261552 -0.012214507
0001b0 2e 6b ca bf c4 bd c9 3d 1a 3c 87 bf 86 32 63 be
       -1.5813959 0.09850648 -1.0565217 -0.22187242
0001c0 56 ff 9d 3e 6f e6 82 3e 3b 8d 8f be df ed 29 3f
       0.30858868 0.25566432 -0.28037438 0.6637859
0001d0 23 2c ea be 23 b4 00 be ef 6b 5d 3f c6 97 2b 3e
       -0.457368 -0.12568717 0.8649282 0.16757116
0001e0 fd a6 ab 3e 8b e9 79 bf e9 aa a6 3e 21 36 eb bf
       0.3352584 -0.97621983 0.3255227 -1.8375894
0001f0 5b 09 81 bf 5a eb 89 3f 9c ad 0c 3f ba df 92 3e
       -1.008098 1.0774949 0.54952407 0.28686315
000200 9a 57 da be 9f 6f 83 bf 41 82 c6 3e 50 2d 73 be
       -0.4264496 -1.0268439 0.3877125 -0.23747754
000210 c0 a4 f6 bd bb 93 29 3f ab 40 51 bf d6 c6 fb bd
       -0.12043142 0.66241044 -0.817393 -0.12293784
000220 b7 07 a5 3d 25 74 30 3f c9 33 c3 3e 31 92 98 be
       0.08058112 0.6892722 0.38125446 -0.29799035
000230 2b ce 03 be cb 25 d5 3c b1 ef a7 be fd cb 1e be
       -0.12871616 0.026018998 -0.32800058 -0.15507503
000240 df b8 f1 3e d3 e7 b4 3e 81 ac 90 bd d5 f6 8a be
       0.47211358 0.35333118 -0.070641525 -0.27141443
000250 9d 7b 8b be fd b6 36 be 5d 50 3f bf 5c 50 f9 be
       -0.27242747 -0.17843242 -0.74732 -0.48694122
000260 01 6e 40 3e 02 9f 2b bf 34 58 c8 3e 40 1e 1e bf
       0.18791963 -0.670395 0.39129794 -0.6176491
000270 31 69 8b bd fb ab 1d 3e d3 a9 18 3f 66 10 44 3f
       -0.06807173 0.15397637 0.5963413 0.7658752
000280 5b 34 db 3e 6c c9 3b bf 68 e6 25 3e a4 7c af 3d
       0.42813382 -0.7335422 0.16201174 0.08568695
000290 6a e7 65 3e 9e 06 35 3d 21 d2 a3 3d f7 67 f0 bd
       0.22451559 0.044195764 0.07999063 -0.1173858
0002a0 f6 35 1b bf 85 ba 67 bd d2 3a b0 be 7a ab bf bc
       -0.6062921 -0.056574363 -0.34419876 -0.023397196
0002b0 5c 6c d2 3d 3a 49 5d 3e 52 0f a3 3e 63 65 11 bf
       0.10274574 0.21609965 0.31847626 -0.5679533
0002c0 d6 50 bc 3e e1 65 58 3f 04 46 0a 3e 90 de 92 be
       0.36780423 0.84530455 0.13503271 -0.28685427
0002d0 69 c9 10 3e 3f 99 61 bf 6b 38 71 be 64 a1 ca 3e
       0.14139332 -0.8812446 -0.23556678 0.39576256
0002e0 4d fd 64 be 40 ee e9 3e 3b 8b ef be 27 d4 1b 3f
       -0.22362252 0.45689583 -0.46785912 0.60870594
0002f0 3d e9 fa bd 1c 59 10 3e f4 d8 a2 be 89 77 3c be
       -0.12251518 0.14096493 -0.31806147 -0.18404974
000300 0c 6a 40 3e cb da 43 3f 61 f8 cb be de 4b 09 3e
       0.18790454 0.76505727 -0.39837936 0.13407847
000310 33 df eb bd cf 4a 04 3f 5c f2 75 bf 71 1a 5b bd
       -0.11517181 0.5167665 -0.96072936 -0.053492013
000320 ec fc 9f 3e 09 41 d7 be 87 50 f6 3a 4c 1f 05 bf
       0.31247652 -0.42041805 0.001879231 -0.5200088
000330 f4 48 d6 3d 83 34 17 3f 59 13 07 3f bc 9f 80 3e
       0.104631335 0.590645 0.527639 0.25121868
000340 c6 cf 7e be f9 ca ac bd 84 77 c9 bd 73 76 05 3e
       -0.24883947 -0.084371515 -0.09837249 0.13033466
000350 ab 78 19 3e 0a 7f b1 bd 53 f5 ab 3c 57 b8 46 3e
       0.14987437 -0.08666809 0.020991003 0.19406258
000360 bb db a7 bd 5e f8 54 be 36 fd 8e be 16 a1 0d 3e
       -0.08196207 -0.2079787 -0.2792756 0.1383098
000370 e6 fc 93 3e d9 a0 c6 3d 71 52 67 bd 94 8d 92 bc
       0.28903884 0.09698648 -0.056475107 -0.017889775
000380 ef c7 d0 be 4a 0b 4f 3e e8 13 9f 3d 56 d8 05 be
       -0.40777537 0.2021915 0.07767469 -0.13070807
000390 8e 78 9e 3d 8a 6a 34 be 30 78 90 bd 49 b2 96 3d
       0.07737838 -0.17618766 -0.07054174 0.07358224
0003a0 b0 aa d7 bd 69 11 ed be 22 7a 4b 3e 65 ae 7d be
       -0.10530603 -0.46302345 0.19870809 -0.24773557
0003b0 66 80 81 3e 0a ab 90 bc 9b e2 9d 3d a3 7a 81 3e
       0.25293273 -0.017659683 0.07709237 0.25288877
0003c0 ec bb 02 3c 17 05 a1 3e bf 99 00 3f 47 6f bc 3e
       0.007979374 0.31449196 0.502346 0.36803648
0003d0 7b c9 92 be aa 52 4d be e5 99 40 bc 8d f6 9f 3d
       -0.28669342 -0.20051065 -0.011755441 0.07810698
0003e0 2f c3 26 3e 8d d8 ef 3e 75 ae 9a be 60 36 1e 3e
       0.16285394 0.46844903 -0.30211225 0.1545043
0003f0 ed ea da be 72 5c d8 3d 96 f5 f4 be b9 d6 fc 3e
       -0.4275736 0.105645075 -0.47843617 0.4938257

decoder.fc2.bias f4 [27]
000000 63 40 2a bc 3b ef 3a bd 25 da 2f be 21 75 31 3d
       -0.010391328 -0.045638304 -0.1717306 0.043324593
000010 9f 5c 69 3d c7 d6 3e be b0 27 01 bd af 16 6d bd
       0.056973096 -0.18636619 -0.03153199 -0.05788296
000020 51 ec 8e 3e fc b8 69 bd dd 1d e8 3d 9e 2a 42 3b
       0.2791467 -0.05706118 0.11333821 0.0029627453
000030 e9 99 23 bd 2b e7 a3 3e 2b 49 0c 3e 58 e8 39 3e
       -0.039941702 0.32012305 0.13699786 0.18155038
000040 e6 ef bd 3d 5d e7 4c bd 3a b5 78 3e 89 bc e4 3c
       0.092742726 -0.050025333 0.24287882 0.027921932
000050 e8 97 d8 3d ca 72 5a be 3f 31 8d 3c d7 aa c0 bd
       0.10575849 -0.21332851 0.017235396 -0.09407585
000060 1d 74 ed bd ff 9d 9f 3c fc f3 0f 3d
       -0.115944125 0.019484518 0.03514479
