data/model.pkl (torch, 11804 bytes, 10 tensors)

encoder.fc1.weight f4 [32, 27]
000000 11 83 fe bc 50 c4 22 3e 29 9a a7 3c 3f cf cd 3d
       -0.031068357 0.158952 0.020459251 0.10049295
000010 40 05 3b 3f bf 34 dd 3e 9e 69 b4 b9 83 44 b1 be
       0.73054886 0.43204305 -0.00034410966 -0.34622583
000020 b2 0c 23 be f7 26 79 3d e2 67 11 be e5 43 19 3d
       -0.15922812 0.060828175 -0.14199784 0.037418265
000030 29 5f d7 3d 7a 77 de 3e 59 e1 17 3e 86 ec 64 3f
       0.10516197 0.43450528 0.14832057 0.89423406
000040 83 d7 c7 bc cc 89 0a 3f 2a 21 b8 3e 20 fd ad bd
       -0.024394756 0.5411651 0.35962802 -0.084955454
000050 4a b1 80 3e 2e fe 40 bd 1a 81 97 be 31 5b 86 be
       0.2513526 -0.047117405 -0.29590684 -0.2624145
000060 d3 73 fd bc b2 fc e2 3f c7 e0 d9 bd 05 3a 50 be
       -0.030939018 1.7733366 -0.10638576 -0.20334633
000070 6d 23 d8 3d fa e7 20 bc 14 dd 04 3f 1c 65 ad 3e
       0.10553632 -0.0098209325 0.5189984 0.33866203
000080 87 74 0a be e1 94 9d 3e 76 da dd 3e 24 72 3f 3e
       -0.13521014 0.30777648 0.43330735 0.18695885
000090 09 0e 95 3e 9f e5 8d 3e e9 55 70 bc 13 5a e2 be
       0.2911227 0.2771425 -0.01466892 -0.44209346
0000a0 65 e0 06 be 73 38 1b be 44 9b 43 bf c1 d3 06 3e
       -0.13171537 -0.15158252 -0.7640879 0.13166715
0000b0 3a 2c 8e 3e a6 9c bc 3e 8c 14 3f 3e 01 2a a2 3f
       0.27768117 0.36838263 0.18660182 1.2669069
0000c0 9d fd c8 3d 49 4f 8c be d3 d3 84 bd 11 43 f9 3e
       0.09813998 -0.2740424 -0.06485715 0.4868398
0000d0 1c 49 36 bf f9 e4 0c 3e 17 8b 9d 3b d8 0b 82 3e
       -0.71205306 0.13759221 0.0048078406 0.2539966
0000e0 3e fd 11 be 6a 17 cb be 17 d7 00 bf f0 9a 6b 3e
       -0.1425676 -0.396663 -0.503282 0.23008323
0000f0 fd 0c 52 3e 9f 44 5d bc c6 06 17 bf c3 32 9e 3c
       0.20512767 -0.01350513 -0.5899471 0.019311314
000100 eb 18 86 be b2 f3 5a 3d e9 46 e1 3e 66 5e f9 3c
       -0.26190886 0.053455062 0.43999413 0.03044052
000110 21 77 26 3e c6 60 9d be 76 7c f6 be 43 4c 0a bf
       0.16256382 -0.30737895 -0.4814183 -0.54022616
000120 94 33 00 bf 00 06 26 be 3d 72 71 bf 0a 54 13 3d
       -0.500787 -0.16213226 -0.9431494 0.035968818
000130 b2 13 8b 3e 3a cc 27 bf f9 a7 4f be 3e be 52 be
       0.27163464 -0.65546 -0.2027892 -0.20580384
000140 73 04 3a bc 15 5c d1 3d 38 30 79 be 97 1f b2 bd
       -0.0113536 0.102226414 -0.243348 -0.086974315
000150 bf 30 c2 3e da 8b 8c be 52 58 b8 3d 3e 5c ba bd
       0.37927815 -0.27450448 0.09001221 -0.09099625
000160 c2 eb 8b be 76 c4 d5 3d 27 dd d5 bc eb 43 a3 bd
       -0.27328306 0.104378626 -0.02610643 -0.07971939
000170 86 67 3f bd 54 cf 31 be 6c 6f cf be 5d d8 8e be
       -0.046729587 -0.17364246 -0.40514696 -0.27899447
000180 bb c6 d9 3e 75 ed 28 3e fa d8 0f be 0b d5 70 3e
       0.42534432 0.16496833 -0.14047614 0.2351877
000190 a1 f5 1e bd 50 02 a7 3c 0c 0b 75 bd 30 30 40 3c
       -0.03880847 0.020386845 -0.05982499 0.011730239
0001a0 bf 9f c9 3e 9e 05 dc 3e 8b a0 4d 3d 8d 9f 04 3d
       0.3937969 0.42973036 0.050201934 0.032378722
0001b0 b6 17 d3 bd 1b 94 ee 3d c0 82 5c be 3e 66 03 3f
       -0.10307257 0.116493426 -0.21534252 0.51327884
0001c0 54 01 b0 bd b6 03 89 be d1 d6 2c be 1a a3 8f be
       -0.08594003 -0.26760644 -0.16878821 -0.28054124
0001d0 51 bf 85 3f e6 43 66 bb af 04 46 3f 80 f7 97 3e
       1.044901 -0.0035135685 0.77350897 0.29681015
0001e0 92 82 9f 3e e5 10 a9 be 29 22 de be cc ad 18 3e
       0.31154305 -0.33020702 -0.43385437 0.14910048
0001f0 72 18 a3 3d 5c 8e 77 3e 9e e0 f1 3e 49 f3 32 3e
       0.07963647 0.241754 0.47241682 0.17475618
000200 df a9 7b 3b 72 31 3a 3e 4a 54 0f be 16 b9 07 3e
       0.0038400812 0.18182924 -0.13996997 0.13254198
000210 e2 4c 3c 3f cd 1d 23 3e 10 40 86 bd d1 e5 d6 bd
       0.73554814 0.15929337 -0.06555188 -0.10493053
000220 05 81 50 bd f6 f2 cc 3c b3 7b 04 3d bd 96 30 3f
       -0.050904293 0.025018197 0.03234453 0.6898001
000230 5b 97 8c 3e ee 80 4c be c1 cd 70 be 8b 76 f9 3c
       0.27459225 -0.19971058 -0.23515989 0.030452034
000240 78 5a 46 3e a3 be 26 3e 82 8c 8a bc c3 6d 75 be
       0.19370449 0.1628366 -0.016912702 -0.23967652
000250 aa d8 2a bf 86 fe 9d 3e 31 01 0a 3f 1b 1d cb 3b
       -0.66736853 0.30858248 0.5390807 0.006198538
000260 83 29 d2 3e 93 68 a7 3e b1 db 91 3e 81 21 24 3f
       0.41047296 0.3269697 0.28487924 0.6411362
000270 9b 0b 88 3c 1e 3b b6 be 81 b0 c6 be dd 97 6c be
       0.016607096 -0.35591978 -0.38806537 -0.23104806
000280 4f 94 c8 bd e3 8a df bd 65 a6 f7 3c e5 84 38 bc
       -0.097939126 -0.109151624 0.03023071 -0.011262153
000290 59 5f c6 be eb 78 5f 3d 9f 13 82 3e fd f3 1e be
       -0.3874462 0.054558676 0.25405595 -0.15522762
0002a0 d6 8d ba 3e c0 b5 9a be 46 71 a1 3c ab 35 31 bd
       0.36436337 -0.3021679 0.019707333 -0.043264072
0002b0 30 87 f1 bc 5f 6e 1b 3b a3 17 a4 be 67 66 a2 bd
       -0.029483408 0.002371691 -0.32049283 -0.07929688
0002c0 6d 39 0b 3d 15 fe 3c be cd 2e 3f 3f 8f 0c 03 3f
       0.033990312 -0.184563 0.7468079 0.5119104
0002d0 8d 48 e1 3e b6 1f 3b be 61 b4 4a 3f de 44 09 bd
       0.44000664 -0.18273816 0.79181486 -0.033512942
0002e0 f0 8c b5 bd 8a 41 a7 3d d0 b7 b8 3e c8 11 8c bd
       -0.08864772 0.081667975 0.36077738 -0.06839329
0002f0 fe e5 67 3e b5 7c 8d be 75 d0 5a be ba ce c0 bb
       0.22646329 -0.27634206 -0.21368583 -0.0058840187
000300 00 47 38 bf 4a 9d 80 be cd 1b be be 53 c4 47 3e
       -0.7198334 -0.25120002 -0.37130585 0.19508485
000310 1d 41 58 3e a6 be 67 be 1f 4f 4d 3e 81 ba d2 3d
       0.21118589 -0.2263132 0.20049714 0.10289479
000320 7b 42 2f be c1 93 ba bd 8b 48 c4 bd c9 ac 4f be
       -0.17115204 -0.09110213 -0.09584149 -0.20280756
000330 e7 e0 0a bf 69 a3 66 bd e8 74 0f 3e 77 e0 8d be
       -0.54249424 -0.056308184 0.1400944 -0.27710316
000340 69 73 38 be 3c ff 10 3e 00 21 cb 3d 70 ae f9 3d
       -0.18012775 0.14159864 0.099184036 0.121914744
000350 5d a1 01 3f 3f 02 50 3d d1 ff 79 bf 4c 9f 04 be
       0.50636846 0.050783392 -0.9765597 -0.12951392
000360 fa b0 a0 ba ca 60 9f 3d 41 a8 4d bd c2 40 ec bd
       -0.0012259774 0.07782133 -0.050209288 -0.11535789
000370 08 29 3f 3e 36 5e d6 bd 57 84 58 3e 6a 98 e1 3e
       0.18667996 -0.10467188 0.21144234 0.44061595
000380 f8 7d b3 3c f1 95 8b be 97 f9 a8 be 9c 62 21 3e
       0.021910653 -0.27262834 -0.33002922 0.15760273
000390 1f 0e 0d 3f 39 a6 88 3f 10 a7 be 3e 21 29 bf 3d
       0.5509967 1.0675727 0.37236834 0.093340166
0003a0 3b 81 9f be f7 e2 c1 bd ef c9 c0 3d 23 2c 65 3d
       -0.31153283 -0.09467118 0.09413516 0.055950295
0003b0 8e 9c 56 be 6d a4 48 be fe 6a 05 3e 75 b3 d3 be
       -0.20958158 -0.19593973 0.13029096 -0.41347852
0003c0 f0 86 9b be cf ba 5c bd 53 88 db 3c c6 94 47 be
       -0.30376387 -0.053889092 0.026798403 -0.19490346
0003d0 e6 2b bc 3d 17 e1 28 be 73 56 c4 bd b0 77 a9 3e
       0.091880605 -0.16492115 -0.095868014 0.33099127
0003e0 9e a7 c9 bc 21 6f 72 3d 1e 55 e3 3e a2 d3 45 bd
       -0.024616059 0.059188012 0.44400877 -0.048297532
0003f0 19 ad d4 3c 88 74 20 bd 92 50 92 3d dc 70 40 3e
       0.025961446 -0.039173633 0.07144274 0.18793052

encoder.fc1.bias f4 [32]
000000 e4 f4 53 bd f2 5a 2b bd c3 d9 df bd 64 2b 3a be
       -0.051747218 -0.04183478 -0.109302066 -0.18180615
000010 5f 32 34 3e 93 02 29 be 04 e5 6a 3c aa 70 fd bd
       0.1759734 -0.16504888 0.014336828 -0.123750046
000020 8f 0b 07 3e 33 d6 39 3e 1b c5 16 3d 2c 30 ee bc
       0.13188003 0.18148117 0.03680907 -0.029075705
000030 e1 27 e3 bd ce dc 96 bd 2e 2e 6b 3e 88 53 22 bd
       -0.11091591 -0.07366334 0.22966835 -0.039630443
000040 8c d6 db 3d 03 27 71 be 72 5c 84 3e c0 a0 8e 3e
       0.10734281 -0.23550038 0.2585178 0.27857018
000050 50 79 80 bd f6 39 bd 3e 40 06 8a 3d 34 40 c6 3d
       -0.062731385 0.36958283 0.06739473 0.096802145
000060 fc 6b 8d be 1f 7c 43 3d 93 36 7f 3d 36 37 cb 3c
       -0.27621448 0.047725793 0.062307905 0.0248066
000070 01 7b 9e bd a2 49 eb bd 04 a6 8d be b7 ac b6 bd
       -0.07738305 -0.11488654 -0.27665722 -0.089196615

encoder.fcmu.weight f4 [3, 32]
000000 ab 3e d3 bd 87 64 0c be 49 94 20 be 21 16 8d 3e
       -0.10314687 -0.13710223 -0.15681566 0.27555946
000010 be 6b 03 3e fb f1 83 be 0c 56 44 be 2d 5c 6a be
       0.12834069 -0.25770554 -0.1917345 -0.22886725
000020 c5 1b 10 3c 6f c5 f7 be 5c 23 74 3e e2 3d 7e 3e
       0.008795683 -0.48392817 0.23841614 0.24828294
000030 6f 08 da 3c f8 2c bb be 0a 94 a9 3e a8 09 54 3e
       0.02661535 -0.36557746 0.33120757 0.20706809
000040 b5 f1 8e 3e 25 e3 51 be 61 7d 91 be a1 3b 00 be
       0.27918783 -0.20496805 -0.2841597 -0.12522747
000050 20 ae fd be 34 79 ad 3e 67 5f a3 3e 24 b4 b0 3e
       -0.4954691 0.33881533 0.31908724 0.34512436
000060 8d be 03 be 56 f0 2f 3e 49 fb 46 3d 0b 18 2b bb
       -0.12865658 0.17181525 0.048579488 -0.002610686
000070 e4 8b 9f 3e 4e 4b 54 be 38 05 94 be e8 26 c6 3e
       0.31161416 -0.20731851 -0.28910232 0.38701558
000080 26 79 07 bf af 20 f7 3e b2 a2 27 be 24 83 8a 3d
       -0.5291923 0.48267123 -0.16370657 0.06763294
000090 4b 62 68 be 81 0f 8d be 08 ee 65 3e 68 eb 01 3f
       -0.22693746 -0.2755089 0.22454083 0.50749826
0000a0 5c c2 0b be 02 d2 90 bc 56 ad 88 be 33 73 17 3f
       -0.13648361 -0.017678265 -0.26694745 0.59160155
0000b0 f7 08 45 be aa 97 d5 3b 01 19 7e be f7 58 90 3e
       -0.19241701 0.006518324 -0.24814226 0.28192875
0000c0 2c 5d de 3e a4 a6 22 bf a1 fe 92 3e fc 90 0f bf
       0.4343046 -0.63535523 0.2870989 -0.56080604
0000d0 d6 c8 12 3d 07 13 79 3e d1 a1 25 3d a0 b7 4a bc
       0.035836063 0.24323665 0.040437523 -0.012372881
0000e0 20 b1 1d bf 00 65 cb bd 36 b8 1b bf 31 97 6e be
       -0.61598396 -0.099313736 -0.6082796 -0.23299862
0000f0 33 64 5c bd f9 1b bb 3e d9 03 d0 3d b7 13 02 3f
       -0.053806495 0.3654478 0.10156984 0.5081133
000100 c7 c1 21 3e 9a 2e 3d 3d d5 f3 17 bf d1 3b 45 3e
       0.15796576 0.04618702 -0.59356433 0.192611
000110 57 27 8e 3e d5 cb 33 3e 6c 70 a7 3e be e9 a2 be
       0.2776439 0.17558224 0.3270296 -0.31818956
000120 e6 48 c1 be 41 55 e4 bd f1 74 e5 3e 86 44 05 be
       -0.3775093 -0.111490734 0.44815782 -0.13014421
000130 41 d6 0c 3f 96 74 91 3e 3f cd 80 3e 0e 6f 87 be
       0.55014426 0.2840926 0.2515659 -0.26451916
000140 84 9d cf be 79 e7 0c 3e b8 8a 1b 3d 4f e2 4c be
       -0.40549862 0.13760175 0.03797409 -0.20008205
000150 d7 50 27 3d c1 30 d9 3e d3 08 6e be 87 8f d1 bd
       0.04084858 0.4242001 -0.23245554 -0.10232454
000160 10 db fd be 55 86 d6 be 0c bb 50 be 4d e3 c2 be
       -0.49581194 -0.41899362 -0.20383853 -0.38064042
000170 73 b7 97 3e bf 53 f9 3d 12 57 83 be d0 3c aa be
       0.29632148 0.121741764 -0.25652367 -0.3324952

encoder.fcmu.bias f4 [3]
000000 c4 6b 29 be 50 5a f0 bd 07 44 1b be
       -0.16545016 -0.11735976 -0.15162669

encoder.fcsig.weight f4 [3, 32]
000000 6a 27 1c be c2 d9 33 be f0 43 5e 3e d5 3b c9 3d
       -0.1524941 -0.17563537 0.21705604 0.09825865
000010 04 5f b5 be 8b 93 b0 3e c3 c2 4f be 7f e6 7a bc
       -0.35424054 0.34487566 -0.2028914 -0.015313744
000020 96 77 cc be 17 b4 a8 be fc bf a8 bd 09 cb 86 be
       -0.39934987 -0.32949898 -0.08239743 -0.2632678
000030 d3 59 12 be 8e ca de be 51 e8 fe 3d d7 e2 28 3e
       -0.14292078 -0.43513912 0.124466546 0.16492783
000040 a8 41 75 be aa 03 60 3e 1b 23 b9 be 15 b0 b7 bc
       -0.23950827 0.21876398 -0.36159596 -0.02242283
000050 82 2d 1d 3e 6b 87 15 be f6 8a 37 bd 50 fa c6 ba
       0.15349391 -0.14602439 -0.044810258 -0.00151808
000060 42 54 b1 3d 37 fb 4a be 82 e1 81 be fb dc 67 be
       0.08658649 -0.19822393 -0.2536736 -0.22642891
000070 d2 68 05 be c4 ea 7f bd 75 49 87 3e 4b 9e 36 3e
       -0.13028267 -0.06247975 0.2642323 0.17833821
000080 49 58 46 be 57 47 2d be 59 0c a5 bd 6f 17 f6 bd
       -0.19369616 -0.16921745 -0.08058996 -0.12016188
000090 89 b9 87 3d b9 98 8d bd 2b ab d9 be 09 41 94 3e
       0.06627185 -0.06913895 -0.42513403 0.28955868
0000a0 7a 00 91 be d3 fc a7 be 36 af a5 be 13 45 32 3d
       -0.28320676 -0.32810077 -0.32360238 0.043522906
0000b0 63 47 11 bd ab d4 3d be 05 48 c5 be ab c3 bf bd
       -0.03546847 -0.18538158 -0.3853151 -0.093634926
0000c0 e0 ca 9e bd 66 94 cc 3e b4 3b 1e 3d 5b a4 93 bd
       -0.07753539 0.3995697 0.038631156 -0.07209083
0000d0 32 51 62 bd f8 0e 55 be 02 6d e2 3e c3 b3 45 3e
       -0.055253215 -0.20806491 0.4422379 0.19306855
0000e0 1a 10 24 be bb 6a ae bd 6f 44 53 be 5f d5 a6 be
       -0.16021767 -0.08516451 -0.20631574 -0.32584664
0000f0 19 78 7c be 96 66 89 bd 82 8c 16 3e f1 bc cd 3c
       -0.24655189 -0.0670902 0.14702037 0.025114508
000100 e5 79 a9 be f2 5c 2c 3d 5b 46 67 3e df c5 05 3e
       -0.3310081 0.042080827 0.22585432 0.13063763
000110 18 0c c7 be e1 58 6a bc 7d 59 be be 67 45 de bb
       -0.38876414 -0.014303417 -0.3717765 -0.0067831757
000120 83 e0 4e be c6 b3 80 bd 8f 76 9b be 2d 46 d4 be
       -0.20202832 -0.06284289 -0.3036389 -0.4145979
000130 f0 b2 1a 3f 91 86 b8 bc 59 4c aa bc 32 78 5e 3e
       0.60429287 -0.022525104 -0.020788359 0.21725538
000140 3d 19 74 bc 20 8b 15 3e 8a 59 17 be 90 7d 53 be
       -0.014898595 0.14603853 -0.1478025 -0.20653367
000150 5e a3 04 be 2e b0 a7 be e7 01 8c be 81 00 36 be
       -0.12952945 -0.32751602 -0.273452 -0.1777363
000160 3c 19 90 be 0a ef 7a 3c 7a 4f 99 be 62 27 8a bd
       -0.28144252 0.01531578 -0.29943448 -0.06745793
000170 6e 47 f7 3d 8d d1 57 be bb 5c 74 be 08 83 f3 3d
       0.12074171 -0.21076031 -0.23863499 0.118902266

encoder.fcsig.bias f4 [3]
000000 db d3 ad 3d a6 ee 03 be 6a a8 cd bd
       0.08487674 -0.12884006 -0.10041888

decoder.fc1.weight f4 [32, 3]
000000 ab ac c7 be 4c e5 4a bf 75 bb c4 bf fd 12 93 bd
       -0.38998923 -0.7925613 -1.5369707 -0.07181356
000010 85 65 88 bf 40 6e 62 3f 74 cb 7e bf 61 08 76 bf
       -1.0655981 0.8844948 -0.99529195 -0.96106535
000020 b8 24 a4 3e 86 25 a1 3e f5 f3 24 bf e1 da af be
       0.32059264 0.3147394 -0.6443475 -0.3434668
000030 d9 29 11 bf 27 9f db bd fc 50 6c 3f 83 8e 73 bf
       -0.5670448 -0.10723715 0.9231107 -0.9513933
000040 dd c9 67 bc 28 44 96 3d 0e a4 7e 3c a9 25 7e bf
       -0.014147249 0.073372185 0.015542043 -0.99276215
000050 5c 42 22 bf 27 89 26 3f 30 56 67 3f 73 bb 1b 3f
       -0.63382506 0.6505303 0.90365887 0.608329
000060 5d c1 86 bf 91 29 ca 3e 33 c7 39 bf 7c ee 72 3f
       -1.052776 0.39484838 -0.7256958 0.9489515
000070 75 61 c6 be 63 bd f3 3e f1 84 3b bf 61 bf 36 bf
       -0.3874623 0.47605428 -0.7324973 -0.7138577
000080 68 e6 8a bf 24 ba 43 3f 33 1c b3 be c8 1b 5e 3f
       -1.0851564 0.76455903 -0.34982452 0.8676114
000090 3a 22 0c bf 23 83 91 3e e1 fa b6 bf 3e 3e 99 bf
       -0.54739726 0.28420362 -1.4295312 -1.197212
0000a0 0a 01 18 3e 9a 58 16 3f 7b 11 47 bf b5 99 98 3f
       0.14844146 0.58728945 -0.7776105 1.1921908
0000b0 77 b6 86 3f 90 65 d1 3d 90 6e f2 3e f6 d5 56 bf
       1.0524434 0.1022445 0.47349977 -0.8392023
0000c0 c7 6f 6b 3c 93 b8 6e bf 3b 63 36 3f c5 1e 85 3e
       0.0143699115 -0.9325039 0.71245164 0.26000038
0000d0 a7 d6 8e 3f a1 e9 1a bf 4f 29 75 3f 4a 82 36 3f
       1.1159257 -0.6051274 0.95766157 0.71292555
0000e0 48 89 8e bf 49 2a 43 bf 53 67 65 3f bc 19 82 be
       -1.1135645 -0.762364 0.89610785 -0.2541026
0000f0 1a 01 6b 3f ad 8b 00 3d 52 0f 31 bf 59 cd 7a bf
       0.91798556 0.031383205 -0.69164 -0.97969586
000100 68 4d 28 3f 73 28 42 bf 04 25 d4 3e d7 d0 0e 3e
       0.6574311 -0.7584297 0.4143449 0.13946854
000110 85 89 c8 bf c5 46 8a 3f 35 23 37 bd 8c a0 cc be
       -1.5666968 1.0802847 -0.04471131 -0.39966238
000120 74 be 38 bf da ad be 3e 95 76 29 3f 4a 69 d0 3e
       -0.7216561 0.37242013 0.66196567 0.4070533
000130 fe be f5 3d ac 27 98 3f a0 dd 0b 3f 3d f0 92 3f
       0.119993195 1.1887107 0.5463505 1.1479565
000140 3e da fc 3e 35 98 2a bf 14 40 6c 3d bf 35 d8 bf
       0.49385256 -0.666385 0.057678297 -1.6891402
000150 b3 ba 38 3f f8 29 04 be 97 d2 2a bf 54 8b 34 bf
       0.7215988 -0.12906635 -0.66727585 -0.705251
000160 7b 1e 3a bf 7f f2 62 bf bb 79 a2 3f a4 85 45 3f
       -0.7270276 -0.8865127 1.2693399 0.77157044
000170 b8 9f f5 3e ef 1c 71 3f da b7 02 bf 9e cd 76 bf
       0.47973418 0.94184774 -0.51061785 -0.96407497

decoder.fc1.bias f4 [32]
000000 b4 74 d6 be d3 0f 92 bf 86 d3 99 bd df 99 ff 3e
       -0.41885912 -1.1411079 -0.07511048 0.49922082
000010 68 20 79 3f 7c d0 34 3e 2d 9f 99 bf 22 a3 3f 3f
       0.97315073 0.17657655 -1.2001702 0.74858296
000020 a3 1e b3 bb 01 df 06 bf be 44 7e 3f 0f 70 2f bd
       -0.0054662987 -0.52684027 0.9932364 -0.042831477
000030 1c 34 1c 3e 75 8f 0d bf 8f c9 04 bf 60 dc 5a 3f
       0.15254253 -0.55297023 -0.51870054 0.85492516
000040 49 a0 00 3f 4d e9 85 be b2 49 59 bf d8 66 f4 be
       0.50244576 -0.26154557 -0.84878075 -0.47734714
000050 45 96 57 3f 8d 2a 2e bf b4 ab d4 be fc 4a 31 3f
       0.8421367 -0.6803368 -0.4153725 0.6925504
000060 65 a6 fc 3e 90 9a 61 be 49 01 37 3d 0b 99 67 be
       0.493457 -0.22031617 0.04467896 -0.22616975
000070 53 0f e7 3e e4 8c 89 be 12 88 40 be b9 6e ec be
       0.4512888 -0.26865304 -0.18801907 -0.46178225

decoder.fc2.weight f4 [27, 32]
000000 3b f9 cd 3e 21 40 30 bf 86 e8 7d be f4 87 46 3e
       0.4022921 -0.6884785 -0.24795732 0.193878
000010 12 a9 f2 3e dc c7 4d 3c 12 cd 57 be ae e6 9f 3d
       0.47394615 0.012559857 -0.21074322 0.078076705
000020 83 ea 15 3e aa 26 a4 3e b0 f5 90 bd 13 35 1f 3e
       0.1464024 0.32060748 -0.07078111 0.1554759
000030 0a 3f d4 3d 63 35 4f be b0 89 8a be dc 41 e9 bc
       0.10363586 -0.20235209 -0.27058172 -0.028473787
000040 10 23 b4 bd 68 c5 4e be ee da 2b 3f 74 3a 31 be
       -0.0879575 -0.20192492 0.67130935 -0.17307454
000050 7c 6e 37 be 35 50 a6 3b 45 17 aa 3e c0 df 4d be
       -0.1791324 0.0050754794 0.33220878 -0.20104885
000060 60 6a 0c 3d 99 80 39 be e4 7b e8 3e 29 b4 a9 bd
       0.034281135 -0.18115462 0.4540702 -0.08286316
000070 f6 e9 ba 3c 93 77 68 3d 35 76 62 be e4 96 7b 3c
       0.02281664 0.05675466 -0.22115405 0.015355799
000080 1b 88 7a 3d 97 88 6b bf 17 e5 8a 3d 1e e2 d2 3c
       0.061164957 -0.92005295 0.06781977 0.025742587
000090 d6 b7 94 3e 42 58 82 be f0 c0 d1 3e 1a a3 e2 bd
       0.29046506 -0.2545796 0.40967512 -0.110662654
0000a0 4b 80 15 bf ab 09 e2 3c 5d 70 04 3f 76 b5 8f be
       -0.58398885 0.0275925 0.5173395 -0.2806813
0000b0 3f d8 f3 bd 47 46 d2 be f5 aa 25 be 78 84 d1 bd
       -0.1190648 -0.41069242 -0.16178496 -0.102303445
0000c0 d8 3f bf 3d 57 92 97 bd a3 de 75 3e d3 1e 01 3f
       0.09338349 -0.07400959 0.2401071 0.5043766
0000d0 dd 6d 5d bb 8b d0 6a be 0a f0 2d 3e 94 a4 65 3d
       -0.0033787407 -0.22931115 0.16986099 0.056065157
0000e0 23 c6 14 bd 9a 4f d2 3e 7c 4d a2 3d d9 98 05 3d
       -0.03632177 0.41076356 0.07924935 0.03261647
0000f0 bc 07 b7 bc fa 93 fc bd c5 58 06 3e 9e 57 bd 3a
       -0.022342555 -0.12332912 0.131198 0.0014445668
000100 30 db 37 be 5a ac 1d bf bc 99 a5 3e 59 2d a3 be
       -0.17954707 -0.6159111 0.32343853 -0.31870535
000110 f6 f2 91 bd 3d 37 8c 3d 66 f2 cd bf 8a ea af be
       -0.07126419 0.06846473 -1.6089599 -0.34358627
000120 64 cd 56 be 80 87 91 3e 00 e7 7c 3e 83 5e a3 bb
       -0.20976788 0.2842369 0.24697495 -0.004985632
000130 f2 c2 07 3e 95 17 eb 3e 9d 1f cc be ce 6a de be
       0.1325796 0.4591643 -0.3986787 -0.4344086
000140 e3 81 0e be 8b 91 6c bd 84 5a 33 3e 7e 30 74 bf
       -0.13916735 -0.057755988 0.17514998 -0.95386493
000150 3c ae 27 3e 9e f5 3c 3f 3d 1c b5 3f 87 39 16 3f
       0.16375059 0.7381228 1.4149243 0.5868153
000160 b5 02 d6 3c b8 ea b9 3e 71 0b d5 be 02 0a e9 3e
       0.026124338 0.3631189 -0.41610292 0.45515448
000170 04 ee 25 3f f3 8f 85 be 3a e9 d7 3e 4c 2a b0 3e
       0.6481631 -0.26086387 0.42170125 0.3440727
000180 89 a6 35 bf fe ec a4 3e 9c 8a 36 3e ca 98 d0 bd
       -0.7095724 0.3221206 0.17826313 -0.10185392
000190 be c9 29 3e 2f 34 8c bd 82 74 a4 3d 44 93 9c 3e
       0.16580865 -0.06845891 0.080300346 0.30581105
0001a0 5c 14 17 3e 25 cc 3e 3e 37 98 dd be 85 4d 5c 3c
       0.1475386 0.18632562 -0.43280193 0.0134462165
0001b0 b7 65 de bf 48 25 40 3e 5b 0f 50 bf d4 73 0c be
       -1.7374791 0.18764222 -0.8127343 -0.1371606
0001c0 b9 90 a3 3e 11 db d7 3e 66 67 e7 bd 72 79 99 3e
       0.31946352 0.42159322 -0.112990186 0.29975468
0001d0 78 46 a5 be 92 e2 51 be d0 11 a6 3e aa 01 34 3e
       -0.32280326 -0.20496586 0.32435465 0.1757876
0001e0 79 30 81 3e 3c 8e 74 bf aa 3f ad 3e 7d 1f 03 c0
       0.25232294 -0.9552953 0.33837634 -2.048797
0001f0 c3 6d 57 bf a8 55 23 3f ba ba 22 3f be 90 4c 3d
       -0.8415186 0.63802576 0.6356617 0.049942724
000200 a0 70 fd be 21 f2 9e bf 54 14 8a 3e 72 bc 4f be
       -0.4949999 -1.2417642 0.26968634 -0.2028673
000210 46 ea a4 3c 43 bd 0e 3f 1e b7 04 bf e8 d7 ad bd
       0.020131242 0.5575754 -0.51841915 -0.084884465
000220 10 2f 54 3d b1 a9 2e 3f 73 af c1 3e 9e a0 25 be
       0.051802695 0.6822768 0.3782917 -0.16174552
000230 43 5c c7 bd 5f 1e 47 3e c3 47 c4 be b4 7c 45 be
       -0.097343944 0.1944518 -0.38336 -0.19285852
000240 6e 93 2e 3f 27 e8 bc 3e ae 67 1f bd 5a b1 b8 be
       0.6819371 0.36895868 -0.038917236 -0.36072809
000250 f5 d7 3b be 39 75 cc bd 70 7f 81 bf 50 29 8f be
       -0.183441 -0.09983296 -1.0117016 -0.27961206
000260 75 8f 58 3e 02 09 19 bf 9f 42 ff 3d 83 4e f5 be
       0.21148475 -0.5977937 0.12463879 -0.47911462
000270 92 e5 9e ba 0f b7 eb 3c 7f b5 d7 3e 49 e8 e6 3e
       -0.0012122861 0.028773813 0.42130658 0.45099095
000280 1a 13 b4 3e 0d 2a cf be e0 1f 90 3e 88 09 d8 bc
       0.35170823 -0.4046177 0.2814932 -0.026371732
000290 84 1c de 3d 99 2a 7c 3d f1 a6 32 bd 31 09 03 be
       0.10845283 0.06156406 -0.04361624 -0.12796475
0002a0 64 4d 26 bf 34 de db 3c 06 45 97 be a3 26 d9 bd
       -0.6496184 0.026839353 -0.29544848 -0.106030725
0002b0 19 9e c7 3b 41 61 7a 3e 60 7c ac 3e e2 76 ee be
       0.0060918448 0.24451162 0.3368864 -0.46575075
0002c0 57 f4 86 3e 74 a0 36 3f 6f 2e a1 3d 23 d5 b7 be
       0.26358292 0.7133858 0.07870185 -0.35904798
0002d0 82 50 b4 3d 6d 69 42 bf a5 65 d0 bd c7 00 9f 3e
       0.08804418 -0.75942117 -0.10175637 0.3105528
0002e0 b0 5d 72 be b4 f0 cf 3e 64 cf 5c be 2a d9 dd 3e
       -0.23668551 0.4061333 -0.21563488 0.43329746
0002f0 02 01 b9 bd 48 c4 28 3e 75 71 51 be 26 b0 32 be
       -0.09033395 0.16481125 -0.20453437 -0.17450008
000300 13 d8 15 3e 79 92 18 3f 33 f9 a8 be c5 2b 93 3e
       0.14633207 0.595985 -0.33002624 0.2874433
000310 15 2c 0f bd 4a 0c c4 3e 53 8f 74 bf ed c4 1b be
       -0.03495415 0.38290626 -0.95531195 -0.1521184
000320 94 48 67 3e 92 1c f5 be fc e2 6b 3e 2b 41 14 bf
       0.2258628 -0.4787336 0.23035806 -0.5791194
000330 78 b7 68 3d 9c 69 02 3f fe 2d 0d 3f 44 48 91 3e
       0.056815594 0.509424 0.55148304 0.28375447
000340 42 ce 6f bd bb cf 9e bd 3a 5d c8 bc ca 40 22 3e
       -0.058546312 -0.07754465 -0.024458516 0.15845028
000350 29 d7 39 3e 28 61 8b bd f4 75 3a be 85 da 83 3e
       0.18148483 -0.068056405 -0.18209058 0.25752655
000360 45 9b 3c bd c8 51 69 be 27 f1 87 be f7 83 a7 bc
       -0.046046514 -0.22785103 -0.26551172 -0.020448668
000370 48 33 a1 3e ea 67 fc 3d 1e 38 6b be 13 88 49 3c
       0.31484437 0.123245075 -0.22970626 0.012300509
000380 f6 5d 83 be be 84 80 3e d2 3d 1a 3e db ce 08 be
       -0.25657624 0.25101274 0.15062645 -0.13360159
000390 79 72 a7 3d c3 44 d3 bd 0b 10 ab 3d 51 89 ca 3c
       0.08176131 -0.1031585 0.08352669 0.02472368
0003a0 54 e6 13 bc d6 c1 0d bf 9a c5 86 3d 17 26 39 be
       -0.0090270825 -0.55373895 0.06580658 -0.18080936
0003b0 ca b0 94 3e 23 15 2a 3b 86 47 53 bd 3c 86 80 3e
       0.2904113 0.002595254 -0.051581882 0.25102413
0003c0 07 02 93 bb 87 c9 8f 3e b4 5e cd 3e 89 b9 86 3e
       -0.0044863257 0.2808344 0.40111315 0.26313427
0003d0 9f eb 44 be 78 0c 82 bd 17 18 e8 3b 70 29 8c 3d
       -0.19230507 -0.063500345 0.00708295 0.06843841
0003e0 a2 33 00 3e fb 54 d0 3e a8 1e 1c be a0 49 ea 3c
       0.12519696 0.40689835 -0.1524607 0.02859956
0003f0 d9 67 98 be aa bc 9c bc 3c be 8a be fb d2 c3 3e
       -0.2976673 -0.01913293 -0.27098262 0.38246903

decoder.fc2.bias f4 [27]
000000 1f ff 5a 3d eb 93 a6 bc 4f 62 81 bd 49 1b 9b 3c
       0.05346596 -0.020334205 -0.06317579 0.018933909
000010 9f 23 4e 3e 1a 59 92 be d0 77 81 3d c2 80 0d bd
       0.20130776 -0.28583604 0.063216805 -0.03454662
000020 7e ab 9d 3e 45 de 1e bd 9f 93 00 3e c5 cb 51 bd
       0.307949 -0.03878619 0.12556313 -0.05121972
000030 53 12 50 bd de 86 8a 3e a8 fa 40 3e ba ea 61 3e
       -0.050798725 0.2705602 0.18845618 0.22062197
000040 cf 40 95 3d a1 12 77 3d 98 d2 15 3e 3c 45 15 bc
       0.07287752 0.0603205 0.14631116 -0.009110745
000050 09 79 6e 3d 11 5b 41 be 78 4d d8 bd 62 c4 7c bd
       0.058220897 -0.18882395 -0.10561651 -0.061710723
000060 ae 92 79 be bd dd d6 3c 8c 04 b9 bd
       -0.2437236 0.02622878 -0.090340704
