data/model.pkl (torch, 10716 bytes, 10 tensors)

encoder.fc1.weight f4 [26, 27]
000000 ba 75 98 3e 7b 99 2d 3e cf ab 54 3e be 64 00 be
       0.29777318 0.1695308 0.20768665 -0.1253843
000010 57 bd 55 be 8f 79 39 bf 4f a6 a2 be 12 bb 87 be
       -0.20873009 -0.7245111 -0.31767508 -0.2650991
000020 15 43 4a be 3f fc a3 be 4b b4 e2 be 0a 26 a4 be
       -0.19752152 -0.32028386 -0.44278178 -0.32060272
000030 df 23 22 bf 4f 82 31 bf 9e 98 12 bf 00 10 07 bf
       -0.63335985 -0.6933946 -0.57264125 -0.5275879
000040 13 e4 17 bf eb 68 26 bf 33 b3 7a bf 21 70 c0 be
       -0.5933239 -0.6500384 -0.97929686 -0.37585548
000050 fb e1 6c be e0 ea 87 be 2e e1 87 be 8f b6 6f 3d
       -0.2313308 -0.26546383 -0.26538986 0.05852371
000060 bc b6 8d bf cd 92 7d bf 82 9d 49 be fe d9 b8 bd
       -1.1071391 -0.99052125 -0.1968899 -0.09025954
000070 c7 0d bd 3d c9 af 5f bd 8a ed 31 3e 54 1f 0f 3f
       0.092311434 -0.054611 0.1737577 0.5590718
000080 f6 23 8a 3c c9 a5 61 bd 54 82 95 bd 90 c1 d3 3e
       0.01686285 -0.055089746 -0.07300249 0.41358614
000090 96 23 22 3d 14 fb 42 3a cc 67 7e 3f 33 de d1 3d
       0.03958472 0.0007437926 0.9937713 0.10247459
0000a0 18 63 08 bf bc d0 dd be f7 e1 9c 3f d6 86 23 3f
       -0.53276205 -0.43323314 1.2256459 0.6387762
0000b0 56 d6 92 3e 03 b8 64 3f 3e de 04 bf 2f e9 8e 3e
       0.2867915 0.8934328 -0.51901615 0.2791228
0000c0 42 ff 31 3e 5f a7 b1 be f4 34 62 3f 55 34 3d be
       0.1738253 -0.34698007 0.8836205 -0.18476994
0000d0 d2 c8 cb be ea 9d f9 be 57 e7 94 be 3c a0 09 3e
       -0.3980165 -0.4875329 -0.29082748 0.13440031
0000e0 6b e9 3b 3e 90 f9 87 bd 32 9c 9a be a6 9b 8e bf
       0.1835076 -0.06639397 -0.30197293 -1.114125
0000f0 7e cd 40 3d d4 9b 16 3f d3 2d 85 3e 1a 47 94 3e
       0.047070973 0.58831525 0.26011524 0.28960496
000100 36 38 45 3e fd c6 77 3e f4 ea 1e bf 77 3c 4c bf
       0.19259724 0.24197002 -0.6207726 -0.7977976
000110 0c c2 55 3d 78 bb e8 bf df aa b4 be 36 9f 0d bf
       0.05218701 -1.8182211 -0.35286614 -0.5532106
000120 07 ec 6b bf 6b 80 2f be 73 c7 be bf f7 34 0e 3f
       -0.92157024 -0.17138831 -1.4904617 0.5554957
000130 ae 2c 83 3e 4a 35 ce bc 3a 17 59 bd aa 37 3f bf
       0.25620025 -0.025171895 -0.053000666 -0.7469431
000140 d6 db f4 be 27 4f c8 bd 88 8e 32 bd 4c 43 d5 be
       -0.47823972 -0.09780722 -0.04359296 -0.41652906
000150 18 02 fe 3c 51 dc e8 3d 9c 0b 78 3d 00 af fc bd
       0.031006858 0.11370147 0.060557947 -0.12338066
000160 15 08 9a 3d b9 15 09 3f 88 a2 33 be dc 55 e4 3d
       0.07521073 0.5354877 -0.1754247 0.11149189
000170 ee d3 84 3f 4a db b9 3d 50 97 ba 3b ad 53 f7 be
       1.0377176 0.09075029 0.0056943074 -0.48306027
000180 5e 36 57 bf 1d 67 e9 3e 67 8a 3a bd 82 5b 0e bf
       -0.8406733 0.45586482 -0.045542147 -0.5560838
000190 d4 34 07 be b7 3b 23 3e 81 dd 6c 3e 92 c5 aa be
       -0.13203746 0.15940748 0.23131372 -0.3335386
0001a0 16 c9 d0 3d bf 67 00 3f a8 1f b3 bf 98 c9 46 be
       0.10194604 0.50158304 -1.3994036 -0.1941284
0001b0 6b f8 cb be 84 e9 27 be eb 71 ec 3d b4 04 63 be
       -0.39837965 -0.16397673 0.11545166 -0.22169763
0001c0 cd 4b 30 bf 13 d6 39 3e 3a e3 55 be 7c f6 12 3e
       -0.6886566 0.18148069 -0.20887461 0.14351839
0001d0 d1 fb 9c 3e 2a d7 c1 be 57 d7 ae bc 7e bc fe 3e
       0.3066087 -0.3785947 -0.021342916 0.49753183
0001e0 70 1b 32 3e 0a 09 91 3f 03 94 24 3f d1 9f ff be
       0.17393279 1.1330884 0.6428835 -0.49926618
0001f0 b0 79 76 3e 9b 67 bd bd 8b 80 5d 3e 35 c5 f7 3d
       0.24069858 -0.09248277 0.21631067 0.12098161
000200 f7 1c b1 3d 48 71 ab 3d b2 05 ef 3e c7 dd 88 bc
       0.08648103 0.08371216 0.46684033 -0.016707314
000210 6a 3a 91 3e 5b d6 92 be 8a 7d 80 bf 7f 6a 10 be
       0.2836488 -0.28679165 -1.0038311 -0.14103125
000220 0c 9d 2a bf 2f 50 b5 be f2 28 37 3f 47 9b eb 3e
       -0.66645885 -0.35412738 0.7154685 0.46016905
000230 d8 74 42 bf ac 23 f0 be 2c a4 46 3e dd 00 22 bf
       -0.7595954 -0.46902215 0.19398564 -0.6328257
000240 4c 8a 27 3e 60 27 0f 3d da 22 9b bf cd 55 9b bf
       0.1636135 0.03494966 -1.2120011 -1.2135559
000250 36 bb a0 bf bd 0c 50 bf da 86 93 3e d4 10 1e bf
       -1.2557132 -0.8126944 0.2881382 -0.6174443
000260 21 b5 33 bf af 82 12 be 18 0a 62 3d 83 d1 6b 3e
       -0.70198256 -0.14307664 0.055185407 0.23029141
000270 32 f7 8a bf 0d 96 7b bf 49 4f 7f be 5a 9e 5c bf
       -1.0856688 -0.98275834 -0.24932589 -0.86179125
000280 85 da e9 bd e6 0f 1d 3c b8 4b aa 3c 88 59 0c 3e
       -0.114186324 0.00958631 0.020788059 0.13706028
000290 d1 eb a3 3e 43 8a 19 bf 7b 15 cc bf ea a2 a5 bd
       0.3201585 -0.59976596 -1.5944055 -0.08087714
0002a0 34 f7 0e 3e b7 ac 23 be 1c f9 57 bc d8 55 57 be
       0.13961488 -0.15983854 -0.013181951 -0.2102884
0002b0 bf ac d6 be ac 67 2f bf 5d 22 db bd b9 14 74 3f
       -0.4192867 -0.68517566 -0.10699914 0.9534412
0002c0 f3 40 8b 3e a2 a7 10 bf b9 31 87 be 11 2c 0f bf
       0.2719799 -0.5650579 -0.26405123 -0.55926615
0002d0 fa ff b5 be b8 05 f8 bd 2b cb e5 be bb 59 a4 3e
       -0.35546857 -0.12110466 -0.44881567 0.3209971
0002e0 1b b8 88 be 39 f0 b9 be b3 45 86 3e 06 85 07 3f
       -0.2670296 -0.36316088 0.2622505 0.5293735
0002f0 d1 a6 ea 3e 15 86 92 bd 63 d8 c6 be a2 f0 34 be
       0.45830396 -0.0715448 -0.38836965 -0.17669919
000300 88 2e 4d bf 00 82 3a bf 48 1f ec 3d 83 61 0e bf
       -0.80149126 -0.72854614 0.11529404 -0.5561754
000310 cc ae 92 3e 36 ac a1 be 91 bd ed bd ce 78 72 bd
       0.28648984 -0.315767 -0.116084225 -0.05919724
000320 ac 51 9e 3e dc c7 bb 3d 03 e5 c9 3e 99 c8 f9 3e
       0.30921686 0.091689795 0.39432535 0.48785856
000330 c1 96 a7 bf f5 90 02 be 54 a0 dc be 7f 34 fd be
       -1.3092881 -0.12750609 -0.4309107 -0.49454114
000340 3e dc 40 be d4 4e 1c 3d bc 94 18 3e 9b 1b 48 3e
       -0.18834016 0.038161114 0.14900488 0.1954178
000350 19 86 59 bf e6 c4 f4 3e 5c 2c d0 be f8 0e 97 bf
       -0.8497024 0.47806472 -0.40658844 -1.1801443
000360 b0 fe 0f bf 8c 29 a1 be 83 48 02 be 3f c9 f6 be
       -0.56248 -0.3147701 -0.12722974 -0.48200414
000370 58 1a a3 bf ce e4 a3 3a a3 dd 86 be 38 5c 8f 3e
       -1.2742414 0.0012504102 -0.2634097 0.28000045
000380 14 55 46 bf 54 eb 55 be 1b ea 69 bc b4 bb 93 bf
       -0.7747357 -0.20890552 -0.0142770065 -1.1541657
000390 40 22 03 3f 70 b0 67 3e 0a 46 40 be c2 9a 73 3d
       0.51224136 0.226259 -0.18776718 0.05947376
0003a0 f5 23 23 bf 5a 13 7e 3e 9e b8 92 be 05 6d 13 3e
       -0.6372674 0.2481207 -0.28656477 0.14397056
0003b0 7c ee 13 3f db ed f4 be e8 ef 1c 3f c7 df 9d bf
       0.57785773 -0.4783772 0.6130357 -1.2333916
0003c0 b8 67 f7 3e 8f 1e bc 3e f6 1d 90 3e 44 21 b7 3e
       0.4832132 0.36742064 0.28147858 0.35767567
0003d0 be 6a 19 3f b3 8b c6 3e b0 4b d9 bd fd d9 41 3e
       0.599285 0.38778457 -0.10610139 0.18930812
0003e0 c8 2a 7b bf 9b f1 1a 3f c3 68 57 3e 63 e1 aa 3e
       -0.98112154 0.6052491 0.21036057 0.3337508
0003f0 23 89 ba be b6 cc 31 be 4d a7 41 3e 85 3d 55 bf
       -0.36432752 -0.17363247 0.18911476 -0.83296996

encoder.fc1.bias f4 [26]
000000 49 72 70 be 6e df e7 3c 40 02 00 be 38 3a f3 bc
       -0.23481096 0.028304782 -0.12500858 -0.029690847
000010 ba b2 82 bd 05 7c af be 73 29 fd 3d a6 07 2b be
       -0.06381746 -0.34274307 0.123614214 -0.16702136
000020 b6 2a 5c bd 93 6a 23 3e e4 e9 28 be d9 71 81 be
       -0.05375167 0.15958624 -0.16495472 -0.2528217
000030 58 9f 84 be 04 71 c1 be 16 b4 1b be d3 90 84 be
       -0.2590282 -0.37781537 -0.15205416 -0.25891742
000040 99 11 c4 be ac 15 9b be 64 e1 f8 bc b3 a8 af be
       -0.38294676 -0.30289972 -0.030380912 -0.34308395
000050 51 a9 87 be 0b a6 73 be 9e 0f 8c 3e 37 42 d2 be
       -0.26496366 -0.23793809 0.27355665 -0.41066143
000060 6a bb a1 bc 59 db e6 bd
       -0.019742686 -0.11272306

encoder.fcmu.weight f4 [4, 26]
000000 99 81 f4 3e 74 4e ef bc b2 ca 33 3e 62 64 b6 bd
       0.47755125 -0.029212214 0.17557791 -0.08905865
000010 f7 7e 30 be c4 f6 45 3e aa b4 26 3e 53 65 6d bd
       -0.17235933 0.19332415 0.16279855 -0.05795796
000020 dc db 8f be 5b f2 c5 3e d4 6c 87 3e 1a 2e 7a bd
       -0.28097427 0.38661465 0.26450217 -0.061079122
000030 a9 93 0c bd 08 fc b6 be 3c 9f f3 be 14 06 c6 3e
       -0.034320507 -0.3573916 -0.47582424 0.38676512
000040 55 15 44 3d 61 78 2c be 77 35 b8 3e 7f c1 87 3e
       0.047871906 -0.16842796 0.3597829 0.26514813
000050 2b 90 8a be 31 a5 3c 3e 2f 68 61 be 1a 6d 35 bf
       -0.27063116 0.1842239 -0.22012399 -0.708696
000060 ae b0 f2 3b c2 08 f7 3e 31 04 1d 3e c7 59 ac bd
       0.0074063158 0.4824887 0.1533363 -0.08415561
000070 b3 fc b1 be 04 d4 a1 be a5 35 14 be 9a 96 cb 3e
       -0.34763107 -0.31607068 -0.14473589 0.39763337
000080 68 af 64 bd 14 45 9f be ca 13 9b 3d c4 f1 57 be
       -0.055831343 -0.3110739 0.07572134 -0.2108832
000090 d9 3d 9b 3e d5 f3 cf bd 7e 0c 6d 3e ae 6e cf 3e
       0.30320624 -0.10153929 0.23149297 0.4051413
0000a0 a1 ca aa be 13 6c 4c 3e c6 73 9f be 41 a7 0d be
       -0.3335772 0.19963102 -0.31143016 -0.13833334
0000b0 06 7a b0 3d 38 e2 27 bf 9f 04 11 3f 5e e8 0a 3e
       0.08617024 -0.6557956 0.56647676 0.13565204
0000c0 13 43 03 3e 1e 7a f0 3d 7d dd 79 3e 43 5c 14 be
       0.12818556 0.11742042 0.24400897 -0.1448832
0000d0 7d 5f 9f 3d d5 80 8c be 6c 72 f8 bc c2 35 aa be
       0.07781885 -0.2744204 -0.030327998 -0.3324414
0000e0 c6 a8 89 3d e7 a1 83 3e 26 0e 03 3f c6 d3 10 3f
       0.06721644 0.2570946 0.51193464 0.5657314
0000f0 79 37 1e 3f 24 01 d2 bd 60 7d 02 be c9 00 3f bf
       0.61803395 -0.10254124 -0.1274314 -0.74610573
000100 16 31 6d be 37 18 13 3e 60 8f 9a bc fd 82 ca 3e
       -0.23163256 0.14364706 -0.018867195 0.3955306
000110 0d 3b c7 3d 5c e0 07 be 14 9d 58 3e 21 c1 10 3d
       0.0972806 -0.1326918 0.2115367 0.035340432
000120 c2 11 3c be 5c a3 33 3e 55 45 ea 3e 4f 2c 0d 3d
       -0.18366149 0.17542785 0.4575602 0.034466084
000130 60 2a 0a be eb 5b 3d 3e 1f 4e 0f 3e 67 6a 1f 3c
       -0.13492727 0.18492095 0.13994645 0.009729958
000140 18 c0 87 3d d2 9e 59 3d 51 f2 59 3d a0 d4 a6 3d
       0.06628436 0.05312998 0.053209607 0.08146024
000150 19 c4 b2 bd da 7b bc 3d 87 47 c0 3d 25 39 05 be
       -0.08728809 0.0920331 0.09388643 -0.1301008
000160 3b 5c 16 3e 3a 83 23 3e bb 3d 2e be 7a ee 93 be
       0.1468362 0.15968028 -0.17015736 -0.2889288
000170 47 60 11 be 25 3e a5 3d d5 b1 b0 bd e9 30 e9 3d
       -0.14196883 0.08068494 -0.08627669 0.11386282
000180 0a 47 a4 3d c0 2e 90 bd e9 b8 20 3d 2c 86 dc ba
       0.08021362 -0.07040167 0.039238844 -0.0016824654
000190 9d 2d a0 bd cf 1d e0 3c dd 7e 06 bd 84 36 2c be
       -0.078212 0.027357964 -0.03283583 -0.16817671

encoder.fcmu.bias f4 [4]
000000 0e 41 32 be 31 b9 89 3d c2 1c 4c be 11 e4 c1 ba
       -0.17407629 0.067247756 -0.19932845 -0.00147927

encoder.fcsig.weight f4 [4, 26]
000000 69 da 68 bd 39 7f 8b be 5c be e8 bd 51 61 c7 be
       -0.056848917 -0.272455 -0.11364433 -0.38941434
000010 aa 40 aa be 4a 61 9d 3a 87 87 af be 2a ff 03 be
       -0.3325246 0.0012007144 -0.34283087 -0.12890306
000020 6b 6c 7c be 38 d1 ca bd a8 4c f5 3d c4 48 8e 3a
       -0.24650733 -0.099031866 0.11977512 0.0010855426
000030 a7 d2 c4 bd 06 36 eb 3c 5f ff 93 bd c8 25 34 be
       -0.09610491 0.028712284 -0.072264425 -0.17592537
000040 a0 84 f3 bd 58 46 46 be 36 fc ae be 00 cb 22 bd
       -0.118905306 -0.19362772 -0.34176797 -0.039744377
000050 c9 11 ed bd c8 17 8d 3d 1b 4e 81 be 06 c4 aa 3d
       -0.11575658 0.068893015 -0.25254902 0.0833817
000060 26 ce 83 be db 32 0e be 80 ca bb 3e 74 00 b9 be
       -0.25743216 -0.13886587 0.36677933 -0.36133158
000070 b7 19 61 be df c9 5e be 64 69 8a be f2 b3 1c bd
       -0.21982466 -0.21756695 -0.27033532 -0.038257547
000080 1b 87 ad be 7d da 38 3d 83 fb 66 be 88 df 31 be
       -0.3389214 0.04513024 -0.22556882 -0.17370427
000090 cc 0b 41 3a 2d 49 75 be 8d 38 46 3d d0 3a 26 3c
       0.00073641236 -0.23953696 0.048393775 0.010145858
0000a0 61 bb 6d 3e 75 d9 92 bd ac da e1 3e af f0 4b be
       0.2321601 -0.07170383 0.44112146 -0.19916032
0000b0 d6 52 bf be 04 d3 11 3e c3 70 77 3e 9b 52 44 3e
       -0.37367886 0.14240652 0.24164109 0.19172136
0000c0 4e 0d a6 be 30 8c d3 3d 4f 0f dc be 19 84 81 3d
       -0.32432026 0.10329473 -0.4298043 0.06324024
0000d0 ce 65 c5 3e 89 4c 72 be a0 d7 16 3d 4b c6 85 bd
       0.38554233 -0.23662008 0.03682673 -0.06531962
0000e0 21 d2 af be 8e 2a 00 3e 0c d9 4f bd 92 38 21 3d
       -0.34340003 0.12516233 -0.0507441 0.03936059
0000f0 8d e5 5d bd f7 75 03 bd f0 1f ae 3c 7b fd 03 3d
       -0.054173995 -0.032094922 0.021255463 0.03222416
000100 4b 00 93 be de f4 b0 ba 00 d6 3b bd d1 be a9 bd
       -0.2871116 -0.001350071 -0.045858383 -0.082883485
000110 fd 06 1e bd 45 5c db be dc 39 84 bd 17 8c 73 be
       -0.038580883 -0.42843834 -0.06456348 -0.23783909
000120 fe 0b a7 3d 72 3a e3 3b 5b 6b 0b bf 92 57 0c bd
       0.08156584 0.0069344575 -0.54460686 -0.0342632
000130 70 01 8d be 44 2d 7f 3d f3 f7 c6 bd 3d 80 07 be
       -0.2754016 0.062299028 -0.09715261 -0.13232513
000140 c4 20 9f bd 70 8b 36 3c ca e2 15 bd d0 5e 0d be
       -0.077699214 0.011141643 -0.036593236 -0.138057
000150 e2 77 2b bd 57 ea 2b bd 6c 17 3b 3c 1c ea 09 3e
       -0.041862376 -0.04197153 0.011419158 0.13468212
000160 a6 71 3c 3b d0 81 5c bd 17 de e3 bc 91 24 bb 3d
       0.0028754263 -0.053834736 -0.027815862 0.09137834
000170 8c ec b2 3d b1 6a b1 bb 73 fe 86 3d e2 7c 28 bc
       0.08736524 -0.00541433 0.06591501 -0.010283681
000180 de d4 ab bd 41 09 6c bc 71 f8 42 3d 45 fb 58 bd
       -0.083902106 -0.014406503 0.047600213 -0.052974004
000190 bf 91 31 3b c5 47 be bd 72 51 da b8 07 70 05 bc
       0.0027094928 -0.09291033 -0.000104102204 -0.008144385

encoder.fcsig.bias f4 [4]
000000 ed 94 99 be 94 a5 ce be 89 e8 8a be a7 d9 d3 3d
       -0.29996434 -0.403607 -0.27130535 0.10344248

decoder.fc1.weight f4 [26, 4]
000000 07 dc 0b 3f bb 91 ac be 9c 27 5a 3b ee 94 b3 bd
       0.5463261 -0.33704934 0.003328777 -0.087686405
000010 06 da 12 be 64 ee 1e 3f 6d 73 ec 3d a3 ed 1f bd
       -0.14340982 0.62082505 0.11545453 -0.039044987
000020 fd 70 07 3e 12 3d df 3e 6e 92 10 3f 1f ba 6e bd
       0.13226695 0.4360128 0.56473434 -0.058282968
000030 03 0f a2 be 6d 89 33 be 02 bc 4b 3f 33 4e df bd
       -0.31652078 -0.17532893 0.7958375 -0.10903587
000040 f0 42 8f bd 20 e8 76 3d 63 26 8a 3c 74 b9 90 3d
       -0.06995189 0.060279965 0.016864007 0.070666224
000050 87 7c 86 3e ba 45 9e be fb 34 d6 3e d2 06 cc bd
       0.26266882 -0.30912572 0.41837296 -0.09962238
000060 bd 7e b8 3d 26 10 ec bc 5d e4 2d bd 3e 3e 1d 3e
       0.090085484 -0.028816294 -0.042454112 0.15355775
000070 81 be ec 3e 27 ec 1d 3f 0d d5 06 bf 63 b9 99 3d
       0.46239093 0.61688465 -0.5266884 0.07506063
000080 a6 f0 a8 3d b2 c6 34 bf 86 72 6e 3e 9a 64 cd 3d
       0.08249025 -0.70615685 0.23285875 0.10028954
000090 38 4f 83 3c c2 a5 c1 3d 7e 01 c3 bd aa 28 1f be
       0.016028985 0.09455444 -0.09521769 -0.15542856
0000a0 22 1b 1e bf 62 67 b2 be 78 41 ca bd d3 c3 81 bd
       -0.6176015 -0.348445 -0.098757684 -0.06336179
0000b0 4a f9 24 bf 88 dc 56 3e 3c 9b 1d bf d4 4a 20 be
       -0.64442885 0.20982563 -0.61564994 -0.15653545
0000c0 36 1b ca 3d 66 ed 30 3f 78 f0 f7 3e a6 53 a1 3c
       0.09868471 0.6911224 0.4842565 0.019693207
0000d0 e8 70 15 3f a5 0e af bd 82 fe 48 bd a3 54 ac 3c
       0.58375406 -0.08547715 -0.049070843 0.021036452
0000e0 8c 66 63 be 85 51 94 be 60 0f 43 bf da 9e 18 3d
       -0.22207087 -0.28968444 -0.76195335 0.037260868
0000f0 5b 8c 4e 3e d2 19 c4 3d 50 08 e3 3b 31 97 c3 bd
       0.20170729 0.09575237 0.006928481 -0.09550322
000100 37 83 24 bf 62 61 1d bd 4a 85 7f 3e 6c 38 08 3d
       -0.6426272 -0.03842295 0.2495319 0.033256933
000110 3d 35 16 3f a8 ac 39 3e f1 3a 40 3d ff 81 34 3c
       0.58674985 0.1813227 0.04693121 0.011017322
000120 7b 14 5e 3e 7a ef db bd d8 ae 0c 3f be 79 bb 3c
       0.216875 -0.10739036 0.5495429 0.0228852
000130 34 fd d2 3d 64 3e 4b bf d7 c6 6f be f7 ab 14 bd
       0.10302201 -0.79392076 -0.23415695 -0.03629681
000140 cf 9e 2f be 1d b6 82 be a2 8a 6f 3e c9 6f 56 3c
       -0.17150424 -0.25529566 0.23392728 0.013088175
000150 9b bb d4 be 0a 82 38 3e d6 ea 30 3d 02 6e 03 3d
       -0.41549382 0.18018356 0.043192707 0.032087334
000160 ff f0 3c 3f fc 88 9d 3c b7 5c 08 3d b4 54 03 3c
       0.7380523 0.019230358 0.033291545 0.0080158
000170 2e b7 f2 be 20 6e 11 3f 26 80 39 bd 82 77 82 bd
       -0.4740538 0.5680866 -0.045288227 -0.063704506
000180 28 6e 23 bf 92 81 09 be ce 3c 86 3e 9d 34 e8 3c
       -0.6383996 -0.13428333 0.26218265 0.0283454
000190 d2 ca 1d be 96 20 45 3f 9b a3 a5 be 84 77 f0 3c
       -0.15409401 0.7700285 -0.32351384 0.029353864

decoder.fc1.bias f4 [26]
000000 db fd 86 bd e3 be 78 be c7 91 a0 3e 68 e6 0c 3e
       -0.06591388 -0.24291568 0.3136122 0.13759768
000010 bf 1e 7d bf ef 84 1d be de 52 47 bf 01 95 bd be
       -0.9887504 -0.15382741 -0.7786082 -0.37027743
000020 1e e7 15 3e 85 14 34 bf b4 88 9f be c6 04 3b bf
       0.14638945 -0.7034381 -0.31158984 -0.7305416
000030 f3 3b 00 bf d1 dd b2 3e 2f 1b bb 3d 44 0f da be
       -0.50091475 0.34934857 0.09136044 -0.42589772
000040 b2 ab 6e 3e 03 20 df be 01 e9 a0 bd 23 b8 75 be
       0.23307684 -0.4357911 -0.07856942 -0.23996024
000050 44 a7 b9 bd a9 f3 a8 3d d6 a5 44 bf a0 74 c0 be
       -0.090651065 0.082495995 -0.76815546 -0.37588978
000060 2a ad 43 bf 89 4a 66 be
       -0.764361 -0.2248937

decoder.fc2.weight f4 [27, 26]
000000 b0 54 d6 bc 4a 83 97 be 18 af 0b bd 56 6b 86 3e
       -0.026163429 -0.29592353 -0.03410253 0.26253766
000010 f3 67 89 3e 0b ca b7 3d 84 29 f4 3d f9 92 89 3e
       0.2683712 0.089740835 0.11921981 0.26869944
000020 d5 c0 9b 3d 08 4d 6f 3e 70 b9 71 3d f4 f9 07 be
       0.07605139 0.23369229 0.059014738 -0.13278943
000030 e9 dd f8 3c fc 9a 99 3e 0b 8a 51 3e 6a 9c 2f 3b
       0.030379253 0.30001056 0.20462815 0.002679611
000040 37 f8 cb 3d 5e 7d 4e 3f 7e 0a 42 3e 46 87 75 bd
       0.099594526 0.80660045 0.18949315 -0.05994346
000050 06 52 b4 bd 7b 21 80 be d9 27 04 3f d7 6c 1c be
       -0.08804707 -0.25025544 0.516233 -0.15275894
000060 fd 53 ba 3e db 92 24 3d ec 50 bf bb d0 3b d3 be
       0.36392203 0.040179115 -0.005838504 -0.4125657
000070 b7 11 8d 3e c1 1a ff bd 4e 6c 11 be a1 dd 37 3d
       0.27552578 -0.12456275 -0.14201471 0.044889096
000080 42 bd 9b 3e 8e a5 25 3e 15 6d 22 3e 5f 27 21 bf
       0.3041783 0.16176435 0.15861924 -0.629507
000090 22 29 20 3f 16 94 a5 be ad 85 c3 bd 35 89 dc 3d
       0.62562764 -0.32339543 -0.09546981 0.10768358
0000a0 f0 06 17 be 78 80 8f 3e 43 92 c7 bd ce 58 aa 3e
       -0.1474874 0.280277 -0.09744694 0.33270878
0000b0 8f 29 8b bd 74 30 84 3e fb a5 22 bf 60 03 24 be
       -0.06795036 0.25818217 -0.63534516 -0.16016912
0000c0 d9 50 0f 3f c2 1d 00 be bc 28 09 bf ef e9 79 be
       0.5598274 -0.12511352 -0.5357778 -0.24405645
0000d0 a4 86 26 3f 27 11 94 bb e6 64 06 3f 96 ef 96 bc
       0.65049195 -0.0045186463 0.5249771 -0.01842479
0000e0 b7 2f 3d bf 84 1e ba 3c 06 38 7a 3e 66 7c 33 3c
       -0.7390093 0.02271963 0.24435434 0.010954952
0000f0 c7 1d de bd 94 0c d0 3d 78 14 92 be 30 ad 99 be
       -0.10845523 0.10158649 -0.2853124 -0.30014944
000100 b2 81 94 be e6 b3 e0 3e 94 3f 74 bf b6 86 a6 3e
       -0.290052 0.43887252 -0.9540951 0.3252465
000110 00 5f 40 be bc 4b 1e 3f 90 80 96 bd 59 4b 57 3e
       -0.1878624 0.6183431 -0.0734874 0.21024837
000120 93 db ca 3c 6b a6 b1 3d c4 ec 39 3f 2f c9 cb 3e
       0.024762904 0.0867432 0.726269 0.39801928
000130 12 2e 86 3e ad a7 0d bd 5b 82 e3 3d 49 83 20 3f
       0.26207024 -0.034583736 0.11108848 0.62700325
000140 61 e9 b6 bd 36 23 1f bf 68 e9 22 3f 3e 0d 98 be
       -0.08931232 -0.621631 0.636374 -0.29697603
000150 b8 95 4a bd ed 39 44 3d f8 cc 85 be 20 ec 42 bf
       -0.04945919 0.047906805 -0.2613294 -0.7614155
000160 0c a0 b8 3a d5 d3 c9 bc 21 98 29 3f 42 9e 47 be
       0.0014085784 -0.024637142 0.66247755 -0.19493964
000170 30 b6 a8 3d 5f 02 2e 3e 82 8b 9e be 81 dd 39 3f
       0.082378745 0.16993092 -0.3096581 0.72603613
000180 fd b3 e8 be a4 8c 40 3d 93 dd cf 3c ac 2e 9d bc
       -0.4544982 0.047009125 0.02537421 -0.019187294
000190 9b d1 5e be 94 2f 67 3e b1 6b d8 be 1b c0 d4 3e
       -0.21759646 0.22576743 -0.42269662 0.41552815
0001a0 31 82 9b 3b 9d 7b 9b 3e 30 5f 04 be ee d5 4f bf
       0.0047457446 0.30367747 -0.12926936 -0.81185806
0001b0 0b 55 96 3d 40 83 ef be 61 5f 8c 3d 0d 24 31 3f
       0.073404394 -0.46779823 0.068541296 0.69195634
0001c0 04 82 60 bd df 24 84 bf 0b 99 d3 3c 1a 2c 1c bf
       -0.054811493 -1.0323752 0.025829813 -0.61004794
0001d0 b2 8c 4b 3f d0 98 36 bd c2 71 1c bd 33 db 11 3e
       0.7951156 -0.044579327 -0.038194425 0.14243774
0001e0 2e 10 42 bf 3d 76 a4 3e 73 3c 5a bf 49 06 e0 3e
       -0.7580594 0.3212146 -0.8524849 0.43754795
0001f0 43 80 54 be 79 3c b6 be 6f 94 6d 3e c9 c2 35 3e
       -0.20752053 -0.35593012 0.23201154 0.17750086
000200 0c 0e 40 be 10 36 46 3f 2e c8 92 be 16 9b 83 3e
       -0.18755358 0.7742624 -0.2866835 0.2570426
000210 07 21 0a 3e 8e ad 59 bd bb 5a 04 3e eb 9d 80 be
       0.13489161 -0.05314403 0.12925236 -0.25120482
000220 e8 b4 99 bd 2c b8 71 be cb 08 65 3d 03 d2 2c be
       -0.07505208 -0.23605412 0.05591659 -0.16876988
000230 8a 06 09 3e e7 d9 14 bf 2d 6e 67 be 74 4c 4f bf
       0.133814 -0.5814499 -0.22600622 -0.80976033
000240 56 1b 47 3e ca 9a 4b bd 59 37 26 3f 58 ae 75 3f
       0.19444022 -0.049708165 0.64928204 0.9596915
000250 e3 5e 8c be c0 1e ca 3d 53 b8 89 3e 09 54 ce 3e
       -0.27416143 0.09869146 0.2689844 0.4029849
000260 86 9f ae 3f 8a 78 38 3e 0e f1 14 bf b9 93 55 be
       1.3642433 0.18014732 -0.5818032 -0.20857133
000270 64 5d ed 3e c6 6c c2 3d ab f1 af bd d8 69 62 ba
       0.46360314 0.09493403 -0.085910164 -0.0008636988
000280 35 2d 23 be a1 df e7 3e d4 aa 02 bf 36 0d 7d be
       -0.15935214 0.45287803 -0.51041913 -0.24712071
000290 19 6f 20 3e f3 b9 c4 bd 23 41 4f bf ce ff 87 3e
       0.1566738 -0.096057795 -0.80958766 0.2656235
0002a0 e4 ba a6 bc 95 bf ba 3e 17 40 8d bd 2e 94 e9 3e
       -0.020352788 0.3647429 -0.0689699 0.45620865
0002b0 9a 1c 02 bf 80 70 22 bf 01 99 64 3e 9f a7 13 3d
       -0.5082489 -0.6345291 0.22323991 0.036048528
0002c0 e4 22 26 be e3 ce b4 be 53 b1 8b 3c 4e eb aa 3d
       -0.16224247 -0.35314092 0.017052328 0.08345662
0002d0 a5 4e 8b be 10 a9 c1 3d c9 c6 39 3f 94 3e 8d 3d
       -0.2720844 0.09456074 0.7256895 0.068967015
0002e0 1f ed 67 be cd 98 04 be 22 3d ae be 26 8b 75 be
       -0.22649048 -0.12948914 -0.34031016 -0.23978862
0002f0 ca b7 dc 3e ab 76 29 3d 1c 58 18 3f 14 7c 62 3d
       0.4310897 0.041372936 0.59509444 0.05529411
000300 4d f9 2d 3f 02 89 db be f3 ad df 3d 16 78 52 bd
       0.6795853 -0.42877966 0.1092185 -0.051384054
000310 10 7e 83 bd 72 d2 e2 3e ab a4 c5 3d 5d 7b 35 be
       -0.06420529 0.44301182 0.096505485 -0.1772284
000320 2b 3d 9f be 7b 96 46 3f 3b 6b ed 3e 5c 58 f7 3d
       -0.31101355 0.77573365 0.46370873 0.120774
000330 b2 77 d4 3e f9 29 02 3f 88 19 49 3f 0f 50 91 bc
       0.4149757 0.50845295 0.7855458 -0.01773837
000340 24 e2 4f bb 9f 3c 5f bf b1 e4 5f be c4 e4 21 3e
       -0.0031720484 -0.87201875 -0.21864583 0.15809923
000350 33 bd 88 bf 39 99 2a be 1c a0 3e be 46 91 a3 bd
       -1.0682739 -0.16660012 -0.18615764 -0.07986693
000360 13 4f 51 3e f2 6b b2 be 9e 66 7c 3e 0e 3d 11 bf
       0.2044032 -0.3484798 0.2464852 -0.5673379
000370 db 05 14 bf c7 56 e9 bd b0 f5 45 bb b1 46 c2 3d
       -0.57821435 -0.113935046 -0.0030206256 0.094861396
000380 ec 01 23 3e d4 e6 0f 3e c5 de c2 bd e6 1a b3 3e
       0.15918702 0.14052898 -0.09515146 0.3498146
000390 1f 3c 73 be 3d 0d df bd d5 1c ef 3d b1 02 fd be
       -0.23753403 -0.10891197 0.11675421 -0.49416116
0003a0 1b ef 36 bf 02 4e 14 bf 99 26 c9 3d 13 c3 82 3e
       -0.71458596 -0.5793153 0.09821815 0.25539455
0003b0 56 29 86 be ed 15 17 3e cb ef 56 3e bd 20 1c 3e
       -0.26203412 0.14754458 0.20989911 0.15246864
0003c0 6f 51 70 3e 9b 79 b7 bb bb 2f 11 3e 2d 89 5e be
       0.23468564 -0.0055992133 0.14178364 -0.21732016
0003d0 3a 5c 97 3c 3a 34 be 3d 38 7c 1e 3e 7f 38 1a 3e
       0.018476594 0.09287305 0.15477073 0.15060614
0003e0 c7 de 21 3d 4b 61 05 bc ed 64 71 3e c3 85 9f be
       0.039519098 -0.008140872 0.23573656 -0.3115674
0003f0 1b 5e 55 3e ee fa cb 3e 0b 47 b3 3d ac 11 23 3d
       0.2083668 0.39839882 0.08753785 0.039811775

decoder.fc2.bias f4 [27]
000000 69 ee 3c bd b8 24 8c be 04 2e d9 3e fa 44 85 be
       -0.046125803 -0.27371764 0.4241792 -0.26029187
000010 aa 76 ca 3c 8d fc 60 be 7a cb af 3e 7a 4c 9d be
       0.024714787 -0.2197134 0.34334928 -0.3072241
000020 22 0b d2 3e 58 b3 f4 3b 62 91 ae bc 4a 44 a3 be
       0.4102412 0.0074676685 -0.021309558 -0.31888038
000030 eb 37 4a be 34 e9 69 be 17 19 06 3c cb e0 60 be
       -0.19747894 -0.22842866 0.008184693 -0.21960752
000040 99 05 77 3e 82 8c 89 be 33 53 5d 3e 77 88 0a 3e
       0.24123229 -0.2686501 0.21613769 0.1352862
000050 f4 8a 39 3e e8 3a 86 3e e9 ab dc 3d 9b 95 18 bd
       0.18119413 0.26216817 0.10774977 -0.03725205
000060 82 22 28 be 4a 16 a3 3d b2 dd 3b be
       -0.16419414 0.07963236 -0.18346289
