data/model.pkl (torch, 12261 bytes, 10 tensors)

encoder.fc1.weight f4 [32, 27]
00000000: d7e8 fcbc 221d fe3d 972e bb3d a0d9 ed3d
00000010: 7e88 453f f13f ed3e f9ea efbc 620d bfbe
00000020: 8edb f6bd 2110 ef3d 873d 22be 25d1 233d
00000030: 1c51 4a3e 0491 093f 959c 2b3e 988d 5d3f
00000040: cd94 3a3c d9c4 103f df14 e13e fa83 a9bd
00000050: 8fe2 8b3e 8fb4 9a3d 5f6c 94be e80d 9cbe
00000060: 0659 433d 93c6 f83f 7578 2bbe 99a1 2dbe
00000070: 2e30 043e 4887 193c b281 083f 34b9 a23e
00000080: 152b cdbd 2d34 c03e 8314 003f fc54 e43d
00000090: 1674 943e 5bd3 d03e 457b 53bd 5d65 01bf
000000a0: ad63 31be 0bc2 26be 0565 4cbf d39a 773d
000000b0: ec37 b43e b8a7 a83e f36a 163e 7b87 993f
000000c0: 3c69 013e 5a40 a6be b51c febc 24d7 f43e
000000d0: 876b 32bf 1e96 333e 0029 993d 1696 9a3e
000000e0: 1388 9cbd ec18 04bf 256e eebe 8f77 3c3e
000000f0: ed82 a53e 43b4 abbc 1f80 29bf 5fac e63d
00000100: a350 b2be 4114 b93d 63d5 a93e dbe0 7c3d
00000110: b804 323e f5fd dfbe 8bfe fbbe 14d5 1fbf
00000120: ff9c 0fbf b6dd 3ebe 236e a2bf ac20 f1bc
00000130: 6f1d b33e c396 03bf b9f2 21be 8f2a d1bd
00000140: 3a5d b5bd d0df f73d 30d2 51be f5d9 1ebd
00000150: e33a 973e 4b17 8ebe fcd7 a73c 1893 d1bd
00000160: 51a2 82be 4127 463d 947d 3abd 1fb2 13bd
00000170: dcaf dcbd 1225 aebd 67d5 ffbe 8fea 95be
00000180: 76d6 bd3e feec c43d e2c0 62be aca8 523e
00000190: 5a74 29be 6a9f debd 734f 26be 820f bd3c
000001a0: 09e0 ce3e 51bb c03e afdb ccbd decb edbd
000001b0: eb4d bfbd 5aa3 883d 89dd 58be d484 013f
000001c0: 644b 1ab9 0898 68be cfcc 4dbe 35b3 4ebe
000001d0: dcc2 7e3f d6b6 fb3c 8fab 613f 4069 243e
000001e0: 9907 a23e a0e3 85be 90ad c8be 66f2 693e
000001f0: 49c8 1a3e 510a 883e 19b8 f63e 3d1c 193e
00000200: d596 5a3e 6d74 9c3d 9256 80bd 64e6 043e
00000210: 85cc 503f da07 0f3e 7731 21bd f61b ffbd
00000220: 0807 18bd 6d94 c43c 0efb 883d 4391 363f
00000230: d471 883e 1998 8dbe d33a 84be 5e3d 2b3d
00000240: 827f 393e a4d2 3a3e 5505 373b cb2e 51be
00000250: 2237 43bf c984 843e 03f4 0a3f dc3b c9bc
00000260: b3f1 e63e b8a5 b23e b2bd 493e d783 293f
00000270: 80f1 d63d 3335 b6be 58d5 d8be fad1 8cbe
00000280: 7780 0ebe 09c4 b8bd 4f92 b93c 55a1 b5ba
00000290: 9d13 a7be 2b7b de3d adf6 933e 8a00 5ebd
000002a0: 7ade 993e 167f adbe 08c0 553d 5529 00bd
000002b0: 92e6 8f3d 1931 22bd 2150 68be 105b ccbd
000002c0: 7f14 df3b 39a4 23be e14b 363f 1916 323f
000002d0: 1ca3 f93e 65af 80be b10d 463f 7045 a33d
000002e0: 44ce 24bd 3f85 843d 94ac 783e 5ade a6bd
000002f0: 6df3 9f3e 56f5 a3be 96cd 28be 1db3 9cbd
00000300: ef7f 2cbf a33f 7fbe b4e8 dfbe db3a 8d3e
00000310: f686 463e b5d7 6bbe de48 1a3e 9c34 bf3d
00000320: 6f40 93bd 9c03 0cbe f3cb 73bd 2f92 2ebe
00000330: 2afa 0cbf 2d61 c1bd 032a 003e 411f a6be
00000340: 760d b8bd 85cc 803d ecbf e93d 5f90 6f3d
00000350: ac5d 123f 2ac0 993c 9792 83bf a5b9 d2bc
00000360: ac7b 29bd d836 9c3d c65c 2ebe b7fe 0f3d
00000370: 0c50 2c3e a99a dfbd b65f 8a3e d87d b53e
00000380: 7ff2 363c 7ed6 acbe dbb6 f3be 2060 7b3e
00000390: 9bc4 e03e 0098 893f 2a88 d93e 2885 703e
000003a0: ffd7 3fbe 3137 9abd 49f7 0d3e 75b9 8f3e
000003b0: 4f22 2bbe 31b9 ecbd 57ca 033d b5f8 f7be
000003c0: f5d6 95be d94c 803d 4bb9 83bc 9906 34be
000003d0: af40 db3d 9dd5 f8bd a92a 49be 1046 ee3d
000003e0: 5067 3d3b 9910 6a3d 5975 d53e 21c0 e2bc
000003f0: 26fa 913d bb0d b7bd dfee 733c 9025 b33d
-0.030872745 0.124079004 0.09139746 0.11613774 0.77161396 0.46337846 -0.029286848 -0.37314898
-0.120535955 0.11672998 -0.15843783 0.039994378 0.19757503 0.537369 0.1675895 0.8654418
0.011388016 0.56550366 0.43961236 -0.08277126 0.27321288 0.0755397 -0.2898893 -0.3047936
0.04769232 1.94356 -0.1674517 -0.16956176 0.12909004 0.0093706325 0.533229 0.31781924
-0.10017983 0.37539807 0.500313 0.11149022 0.28994817 0.4078625 -0.05163123 -0.50545293
-0.1732318 -0.16284959 -0.79841644 0.060450386 0.35198915 0.3294046 0.14689235 1.199447
0.126378 -0.3247097 -0.031019548 0.4782039 -0.69695324 0.17537734 0.07478523 0.3019263
-0.076431416 -0.5160053 -0.4656841 0.18404983 0.3232645 -0.020959979 -0.6621112 0.11263346
-0.34827146 0.09037066 0.33170614 0.061737876 0.17384613 -0.4374844 -0.49217638 -0.62434506
-0.5609893 -0.18639264 -1.2689861 -0.029434524 0.34983394 -0.5140192 -0.15815248 -0.102131955
-0.08855672 0.12103236 -0.20490336 -0.03878208 0.29537115 -0.27752146 0.020488732 -0.10233134
-0.25514463 0.04837728 -0.045529917 -0.03605854 -0.1077573 -0.08503164 -0.499675 -0.29280517
0.37077683 0.09615515 -0.22143891 0.20572156 -0.16548291 -0.108702496 -0.16241245 0.023078684
0.404053 0.3764291 -0.10002839 -0.1161115 -0.093410335 0.06671782 -0.21178259 0.50593305
-0.0001471467 -0.22714245 -0.2009766 -0.2018555 0.9951608 0.030726831 0.881524 0.16055775
0.31646422 -0.26150227 -0.39194918 0.22846374 0.15115465 0.2657037 0.4818733 0.14952178
0.213466 0.07639394 -0.06266512 0.12978512 0.8156207 0.13967839 -0.039353814 -0.12456505
-0.03711608 0.023996556 0.0668851 0.713154 0.26649344 -0.27655104 -0.2582613 0.04180657
0.18115047 0.18244416 0.0027926762 -0.20428006 -0.76256 0.25882557 0.5427858 -0.024564676
0.45106277 0.34892058 0.1970127 0.66216797 0.10495281 -0.35587463 -0.42350268 -0.2750395
-0.13916193 -0.09021766 0.022652773 -0.0013857285 -0.3263215 0.10863336 0.28899136 -0.054199733
0.3005255 -0.3388602 0.05218509 -0.031289417 0.070264 -0.039597604 -0.22686817 -0.09978306
0.0068078632 -0.15980615 0.7120953 0.6956497 0.48757255 -0.25133815 0.7736464 0.079722285
-0.040235773 0.06470727 0.24284583 -0.08147879 0.31240407 -0.32023114 -0.16484675 -0.07651351
-0.6738271 -0.24926619 -0.43732226 0.27583966 0.19387421 -0.23031504 0.15066859 0.09336206
-0.07190024 -0.13673252 -0.059520673 -0.17047952 -0.5506922 -0.09442363 0.12516026 -0.3244572
-0.089869425 0.06289009 0.11413559 0.058487292 0.5717418 0.018768389 -1.0279111 -0.025723288
-0.04137771 0.07627648 -0.17027578 0.035155024 0.1682741 -0.10918171 0.27026147 0.35447574
0.011166214 -0.33757395 -0.47600445 0.24548388 0.43899998 1.0749512 0.42486697 0.23488295
-0.1873474 -0.07530058 0.13863863 0.2807118 -0.16712306 -0.1155876 0.03217539 -0.48431936
-0.29265562 0.062646575 -0.016079566 -0.17580642 0.10705697 -0.121501185 -0.1964518 0.11634457
0.002890069 0.057144735 0.41691092 -0.027679505 0.0712779 -0.08938166 0.014888494 0.08747399

encoder.fc1.bias f4 [32]
00000000: 0724 90bc 9b59 0abd a670 00be 0477 76be
00000010: f19b 5e3e cac5 39be 5341 5b3d 9d29 03be
00000020: b339 0f3e 5dc5 5c3e 3095 e23d 96f1 9bbc
00000030: 4233 3fbe c2a5 32bd b909 4a3e d688 85bd
00000040: 77de cf3d 9a17 73be 3ad1 663e 8dbd a63e
00000050: 930e 90bd 1b7d cc3e 6522 433d cf84 d93d
00000060: 2170 8fbe 5363 993d b837 233d e28a 07bc
00000070: 6cba 04bd 0887 0abe 651e 81be 46d3 e7bd
-0.017595304 -0.03377686 -0.12542972 -0.24068838 0.21739174 -0.18141857 0.053529095 -0.12808843
0.13986854 0.21559663 0.110636115 -0.019036096 -0.18671897 -0.04361511 0.19730271 -0.0652024
0.10149854 -0.23739472 0.22540751 0.3256649 -0.0703403 0.39939198 0.047640223 0.10621034
-0.28015235 0.07489648 0.03984806 -0.008272858 -0.03240435 -0.13528073 -0.25218502 -0.11319594

encoder.fcmu.weight f4 [3, 32]
00000000: 1ed7 f2bd 4386 f6bd 6594 36be 2f7a 8a3e
00000010: be24 d43d a7e9 6cbe 089b 6cbe 7fea 51be
00000020: 42e5 3a3d b4b4 00bf 5dc6 873e e823 7e3e
00000030: f470 6b3d 3c73 b2be 98e3 bf3e 0516 713e
00000040: 4b4c 933e ab7e 52be 536e a7be 3266 eabd
00000050: 4b14 0cbf 731a b03e ed28 a03e 0558 ae3e
00000060: 3b00 06be 71e4 4e3e 0d77 ea3d 4900 843d
00000070: 3843 b23e 70b2 60be 350a a1be 0e2f af3e
00000080: b9dd 0abf 8e36 ff3e 13c6 34be 483d 603d
00000090: 0c16 6ebe eb14 91be f41c 673e b49e 113f
000000a0: f815 29be 7c61 e9bb e4c4 8cbe 2de9 193f
000000b0: 6c23 24be feee 4b3c 0404 85be 19bc 9c3e
000000c0: 9887 db3e 4e4b 31bf 17ac 993e ffff 0ebf
000000d0: ef27 333d ed39 7c3e fd81 733d 9a93 0dbd
000000e0: 595e 30bf e995 c8bd 81e2 1dbf 95c1 72be
000000f0: e253 20bd 8184 c73e 8523 1d3e 8a83 043f
00000100: a63e 243e fae9 3f3c 5108 25bf ca71 3f3e
00000110: ba29 8b3e 7543 4c3e a581 8b3e 7e1d 89be
00000120: 92ab c5be 3a58 ecbd 231a e03e 4d16 0fbe
00000130: c4d8 313f 1ec2 923e b082 8c3e ba11 85be
00000140: 38ee babe babf e03d 0894 253d b910 51be
00000150: 36a3 523c c3ec dd3e 067c 76be 8a44 dcbd
00000160: d6de f6be 8c0a e0be 43de 56be 8bb8 b9be
00000170: 872d 953e 4d70 fd3d 3f32 84be bd2a cfbe
-0.118574366 -0.12037327 -0.17830046 0.27046344 0.103585705 -0.23136006 -0.23106015 -0.2049961
0.045628794 -0.5027573 0.26518527 0.24818385 0.057480767 -0.34853542 0.37478328 0.23543556
0.28769144 -0.20556132 -0.32701358 -0.114452735 -0.54718465 0.3439518 0.31281224 0.3405153
-0.13086025 0.20204331 0.114484884 0.06445367 0.3481691 -0.21943069 -0.314531 0.34215587
-0.5424457 0.4984631 -0.17653684 0.054745942 -0.23250598 -0.28336272 0.22569638 0.56882787
-0.16512287 -0.0071222167 -0.27493966 0.60121423 -0.16029137 0.012447117 -0.25979626 0.30612257
0.42876887 -0.6925553 0.30014107 -0.5585937 0.043739256 0.24631472 0.05945014 -0.034564592
-0.68893963 -0.09794218 -0.6167374 -0.23706658 -0.039142497 0.3896828 0.15345581 0.5176321
0.16039523 0.011713499 -0.64465815 0.18695751 0.27180272 0.19947608 0.27247348 -0.26780313
-0.3860746 -0.115402654 0.4376994 -0.13973351 0.69471383 0.28663725 0.27443457 -0.25990087
-0.3650987 0.10974069 0.040424377 -0.20416535 0.012856295 0.43344697 -0.24070749 -0.1075526
-0.48216885 -0.43758047 -0.20983224 -0.36273608 0.29136297 0.12374935 -0.25819585 -0.40462294

encoder.fcmu.bias f4 [3]
00000000: d8fb 29be 1788 e8bd 4644 17be
-0.16599977 -0.11354082 -0.14772138

encoder.fcsig.weight f4 [3, 32]
00000000: f015 15be faa5 ffbd 6327 723e 1f98 bb3d
00000010: f926 c1be c7a8 c83e 988b 58be 3165 783d
00000020: 6326 d4be 8882 aebe 0f33 aabd 1833 82be
00000030: 4eee 9ebd c1b5 dabe e5f7 193e d5b1 fb3d
00000040: 205b 62be d6b6 123e 16dd bfbe cc3d 9bbc
00000050: b639 553e 7169 23be 1547 afbd cfea 09bc
00000060: 688f 733d 7e52 5dbe 8343 83be d756 74be
00000070: d182 e1bd 9eb6 98bc 696f 8b3e b163 153e
00000080: d1bc 3cbe e4e1 19be 83c0 01be 784c efbd
00000090: 39b7 a53d 56b9 ecbc 939b debe af61 923e
000000a0: ab02 8dbe 09eb a0be d4b1 a2be eac8 dd3c
000000b0: 3f7f f63b 9ac5 25be 8b1f aebe dccd c7bd
000000c0: 28ab 93bd ee7c e93e 01ad 083d bec9 c5bd
000000d0: 9ebc 8abd d0e9 36be ce85 d03e ce03 563e
000000e0: d115 34be bb74 9cbd 11d4 52be 1ad4 c8be
000000f0: 6b4d 72be 7448 d5bb 2fbe 0d3e 47b4 2dbd
00000100: 450e a7be 525e cf3d 67ec 4f3e 705b 1e3e
00000110: 7ccc c9be e3dc 4fbc b123 b6be 35cb 1a3c
00000120: f9d1 46be cf1f e7bc 21b5 94be 4748 dabe
00000130: 9cfd 253f 8c19 073d e2f2 a4bc 8341 813e
00000140: 1a6d 403b 520f 263e 7c2b 02be 768d 52be
00000150: cd90 10be 45d1 a5be 835f 9dbe cc4e 26be
00000160: 2f1a c3be 47e7 103d d263 b0be bb47 1abe
00000170: 4d81 453e 0c50 42be 4bc1 75be 83d7 cb3d
-0.1455915 -0.124828294 0.23647837 0.09159874 -0.37725046 0.39191267 -0.21147001 0.06064338
-0.41435537 -0.34083962 -0.0831052 -0.25429606 -0.07760297 -0.42716792 0.1503597 0.12289778
-0.22105074 0.14327559 -0.37473363 -0.018950365 0.20822796 -0.15958191 -0.0855848 -0.008417799
0.059462935 -0.216135 -0.25637445 -0.23861252 -0.110112794 -0.018641766 0.27233437 0.1458881
-0.18431403 -0.15027577 -0.12671094 -0.11684507 0.080915876 -0.028896969 -0.4347807 0.28590152
-0.27541098 -0.31429318 -0.31776297 0.027073342 0.007522493 -0.1618866 -0.3400844 -0.097560614
-0.0721038 0.45603126 0.033368114 -0.0965762 -0.06774257 -0.1786263 0.40727085 0.20899889
-0.17586447 -0.07639452 -0.2058871 -0.3922432 -0.23662345 -0.006508881 0.1384208 -0.042408254
-0.32628074 0.10125412 0.20305024 0.15464568 -0.39413822 -0.012686941 -0.35574105 0.009447862
-0.19416036 -0.02821341 -0.2904444 -0.42633268 0.648401 0.032983348 -0.020135347 0.25245294
0.0029361905 0.16216782 -0.127119 -0.20561776 -0.14117737 -0.32386222 -0.30736932 -0.16240996
-0.38105914 0.035376813 -0.34451157 -0.15066426 0.19287606 -0.18975848 -0.23999517 0.09953215

encoder.fcsig.bias f4 [3]
00000000: 3c8e b93d e86a ffbd f956 9fbd
0.09060332 -0.124715626 -0.077802606

decoder.fc1.weight f4 [32, 3]
00000000: edc0 b3be bf49 48bf ef28 c8bf 53e1 1ebe
00000010: b867 83bf ca2d 6a3f 87be 7abf d4aa 62bf
00000020: 58d9 9e3e 84e6 853e 65ae 20bf b62f 78be
00000030: 4bc3 07bf f523 8cbd 2667 673f 630e 6fbf
00000040: d3d7 82bd a7b9 ac3d 27ba 763b e43b 86bf
00000050: c736 1dbf a0d2 303f 43ef 563f c6a0 0f3f
00000060: f128 8cbf 6495 d43e b939 31bf 3221 6b3f
00000070: 9975 c6be c4f9 cf3e 87dc 22bf 1ea3 24bf
00000080: 8d5f a1bf 6bd0 2e3f cb8b c3be 31d8 4f3f
00000090: c16c febe 3625 c53e 4a28 afbf 4830 99bf
000000a0: d7ff 193e 99bd 183f 0df6 4cbf 8baa 893f
000000b0: faa3 893f 470c 133e 31da ec3e cb23 62bf
000000c0: d548 0b3d fb37 75bf 3974 513f ead4 803e
000000d0: 19d1 983f 1533 2abf 85b0 653f 7033 2e3f
000000e0: 724d 92bf 100b 39bf 1609 693f b9bb 8fbe
000000f0: 2ebf 653f a94e e43d 017a 4bbf 49ad 79bf
00000100: 0324 293f 9f06 4fbf a9b3 b13e 1778 e23d
00000110: 04aa c8bf 96c2 873f 4534 9ebb d180 bbbe
00000120: 0205 3abf bc89 ba3e 2d13 303f e441 b93e
00000130: c1d3 213e 01cc 973f 59e2 133f e422 943f
00000140: b767 e03e a4bd 29bf 3876 0c3e 3a2a ccbf
00000150: ec6e 383f 981e 00be a641 3bbf 31c6 4abf
00000160: 2886 33bf f2a2 55bf e677 a03f 7f28 493f
00000170: d483 e73e 8d6b 763f b10c 17bf 2386 7fbf
-0.35108128 -0.7823753 -1.5637492 -0.15515642 -1.0266027 0.9147612 -0.9794697 -0.88541913
0.31025195 0.26152432 -0.62766105 -0.2423695 -0.5303237 -0.06842796 0.9039177 -0.9338133
-0.063888215 0.08433848 0.0037647577 -1.0487027 -0.6141171 0.6907139 0.83958834 0.56104696
-1.0949994 0.41520226 -0.692287 0.9184753 -0.38761595 0.40620244 -0.6361775 -0.643114
-1.2607285 0.6828677 -0.3819259 0.81189257 -0.49692348 0.38504952 -1.368417 -1.1967859
0.15039001 0.59664303 -0.80062944 1.075517 1.0753167 0.14360152 0.46260217 -0.88335866
0.034005005 -0.95788544 0.81817967 0.2516244 1.1938812 -0.66484195 0.8972247 0.6804724
-1.1429884 -0.72282505 0.9102949 -0.2807291 0.8974484 0.11147816 -0.7948304 -0.9753004
0.66070575 -0.8086948 0.34707382 0.110580616 -1.5676885 1.0606258 -0.0048280084 -0.36621717
-0.7266389 0.36433208 0.6877926 0.36183083 0.15803434 1.1859132 0.57767254 1.1573148
0.43829128 -0.66304994 0.13716972 -1.5950387 0.72044253 -0.1251167 -0.73147047 -0.79208666
-0.7012658 -0.8345176 1.253659 0.7857742 0.45217764 0.9625786 -0.5900374 -0.9981405

decoder.fc1.bias f4 [32]
00000000: 98ae d1be f323 90bf 134b 5ebd 0d7a 013f
00000010: fa96 7a3f a6fd 423e 70a3 96bf 0fcd 4d3f
00000020: 464f 8ebc 570e 1bbf da8b 823f 379e 813d
00000030: f072 6a3d 7544 19bf dc30 fabe 3c0c 453f
00000040: b5fb bf3e 384a a4be a309 6bbf 4d03 f3be
00000050: b1a7 413f 6d33 46bf a831 ecbe 8335 213f
00000060: 806d e03e 7294 32be e9aa d5bc 2b88 c0be
00000070: a147 fd3e 5be1 89be f10d 7bbe 412d ebbe
-0.40953517 -1.1260971 -0.054270815 0.5057686 0.9788662 0.19042072 -1.1768627 0.8039102
-0.017371785 -0.60568756 1.0198929 0.06329005 0.05723852 -0.5987008 -0.48865402 0.76971793
0.37496725 -0.32087874 -0.9181158 -0.47463456 0.756465 -0.7742222 -0.46131635 0.6297228
0.43833542 -0.1743944 -0.026082473 -0.37603888 0.4946871 -0.26929745 -0.24517037 -0.45932963

decoder.fc2.weight f4 [27, 32]
00000000: d677 cd3e cd9d 2dbf 0133 80be 1a4e 663e
00000010: 49bd f93e 361e a538 bbb5 71be 036e 8c3d
00000020: fea7 3a3e ed76 a33e 538c 81bd 2b52 3a3e
00000030: 9636 cf3d b90b 3fbe a6ec 79be bbdf 05bd
00000040: e93e 04be 9b46 83be a929 323f 948b 1bbe
00000050: 8dc0 3dbe 0f9c 603c d938 b93e 5d15 4bbe
00000060: 431b b33c 29a6 54be 4d25 f93e d416 d8bd
00000070: ca7e a43c 698a c93c 924d 6cbe 1fb0 a5bc
00000080: a22d 903d d7b6 81bf 3f93 673d f7a5 093c
00000090: 79b9 663e ba78 86be 5a0f ba3e 6ac7 0bbe
000000a0: 534f 0abf 33e1 b63d e57c 093f 8669 a8be
000000b0: 1e02 fbbd 8f23 bcbe 81e6 0cbe bfb3 27be
000000c0: faf4 f338 d8af 2dbe 36fc 6a3e 81bc 293f
000000d0: fdd7 0abd fc50 21be 6769 4c3e 0b8b a93d
000000e0: fae0 c1bd 6cc6 cc3e 76cc 113e f0b0 7c3c
000000f0: d384 5ebd dd45 ccbd 2a80 863e 3aa8 7a3c
00000100: f8ce 64be 13d0 29bf 4c98 b53e 037d debe
00000110: b59a 2cbd 6adf fe3d a50a d2bf be28 a1be
00000120: e4f5 88be 44f0 873e f724 2e3e ef01 9fbc
00000130: fad3 9f3d 316d 0b3f 5172 a4be 8ac4 0bbf
00000140: 4970 0cbe ab51 fabc e021 4f3e c699 82bf
00000150: 72f2 f03d c56e 433f 83c5 ac3f b766 0b3f
00000160: c1f8 843d 9cbb c33e 099f d0be 6c10 fa3e
00000170: 0a83 163f a53a 84be e0c0 d63e 55e7 603e
00000180: 7893 22bf fcec 9c3e 06ce af3d e678 a5bd
00000190: a207 193e 0302 cabd 703c 3c3d 7166 ab3e
000001a0: 40fa ab3e 211d 7c3e aa9e ccbe dced a2bb
000001b0: 4ad4 c7bf c637 063e 6799 68bf 5524 cbbd
000001c0: 0a0b 973e 96d8 b93e 34ef 8bbe 996a 053f
000001d0: c5b8 afbe 2ac8 40be cdce 0b3f 95d7 433e
000001e0: ea7a 823e cb5a 78bf ac13 c23e e4d3 efbf
000001f0: 4e8c 65bf e6b9 4b3f a82f 1d3f 214a e33d
00000200: 820e cfbe 9585 8dbf 9162 673e 5027 58be
00000210: 1f6e a3bd 7f7e 013f d2af e1be 452b d9bd
00000220: fd0a a83d aecc 263f 4981 a83e 630c cfbd
00000230: a499 a3bd a20b 2a3e 007f a9be 3ba6 7abe
00000240: 508e 1e3f efde c33e 42ee 5dbe a452 61be
00000250: 2fb6 83be 42e4 923c 6b40 6cbf df4e bbbe
00000260: e55c 283e 04ab 17bf 896c 543e 7103 edbe
00000270: 7ba4 68bd f041 a13d 7310 d33e f6be 2f3f
00000280: e988 cb3e 3839 0ebf 6b77 853e 58c5 15bc
00000290: 5fe5 223e fee8 bc3d 40c8 d83d 3049 fbbd
000002a0: 12b0 2abf f16e 043d 2312 98be 3d4d d8bd
000002b0: a5c4 f53c e942 6a3e 041b b63e e1fe fcbe
000002c0: 90b6 993e 9b11 413f 3d8a 0b3e 9734 bdbe
000002d0: 44ae ad3d 5f32 5bbf bf1c 01be 995b 9b3e
000002e0: 34e8 4bbe bc1b d63e 925b 9bbe 9f62 f63e
000002f0: 6186 d7bd 25c4 343e 220c 85be b89c 10be
00000300: fc32 1e3e ef52 1f3f 538a b2be 2c7e 343e
00000310: 7818 54bd e989 df3e be20 73bf b5b5 d0bd
00000320: c448 913e b7ce cbbe 3250 003e d200 febe
00000330: df7c 9a3d 0418 0c3f 4d80 f73e 73d4 663e
00000340: 0a9e cbbd 01f4 67bd ae8e 0b3c 01f8 1c3e
00000350: 437c 083e 64b6 3bbd 220e b4bd 1f64 6a3e
00000360: 30e6 62bd daa4 3abe fe85 64be 2591 653d
00000370: e934 893e e388 ee3d 1b3d 08be ffab 45bd
00000380: 6cfd 8fbe ac19 183e 70bc 073e 4b09 02be
00000390: 35f0 c63d 46a9 f6bd dfba b53d 991f 4f3c
000003a0: f444 3bbd 736d f9be 3698 cd3d 30a1 54be
000003b0: 0221 8b3e 9293 ecbc b3e5 673b c299 303e
000003c0: e9a1 093d 8f45 983e ee96 033f 3231 9d3e
000003d0: 0cee 95be 2eec dbbd 160a 863d 168c e93c
000003e0: fd2c 2c3e d760 e53e bfa2 42be 4401 9a3d
000003f0: cf9a d4be e633 233d 744e a4be 2fe1 f93e
0.4013049 -0.6781891 -0.25038913 0.22490731 0.48777226 7.87344e-05 -0.23604481 0.068569206
0.18228146 0.3192667 -0.06325593 0.18195407 0.10117833 -0.18656816 -0.2440668 -0.03268407
-0.12914623 -0.25639805 0.6959482 -0.15189964 -0.18530484 0.013709082 0.36176184 -0.19832368
0.021863585 -0.2076651 0.4866127 -0.10551229 0.020079989 0.024602132 -0.23076466 -0.020225583
0.07039954 -1.0133923 0.05653691 0.0084013855 0.2253169 -0.26263982 0.36339837 -0.13650289
-0.5402729 0.08929672 0.537062 -0.32893008 -0.12256263 -0.3674588 -0.13759805 -0.16377161
0.000116327734 -0.1696161 0.22947773 0.6630326 -0.03389739 -0.1575355 0.19962083 0.082784735
-0.09466739 0.39995134 0.14238152 0.015423045 -0.05432589 -0.09974263 0.26269656 0.015298897
-0.22344577 -0.6633312 0.35467756 -0.4345475 -0.042139728 0.124449566 -1.6409498 -0.31476396
-0.267501 0.26550496 0.17006288 -0.019410102 0.07804103 0.5446349 -0.32118466 -0.5459677
-0.13714708 -0.03055652 0.20227766 -1.0203178 0.11764993 0.76340896 1.3497776 0.54453605
0.064927585 0.38229072 -0.40746334 0.48840654 0.587937 -0.25825992 0.41944027 0.21963246
-0.6350627 0.30649555 0.08584218 -0.080797 0.14944318 -0.09863665 0.045956075 0.33476594
0.33589363 0.24620487 -0.399648 -0.0049722027 -1.561166 0.13107213 -0.90859073 -0.09919039
0.2950061 0.36298054 -0.27330935 0.5211578 -0.34320655 -0.18826357 0.5461243 0.19125207
0.254844 -0.9701354 0.37905633 -1.8736539 -0.8966721 0.79580534 0.6140084 0.11098123
-0.40440756 -1.1056391 0.22596194 -0.21108747 -0.07979988 0.5058364 -0.44079453 -0.10603956
0.08205221 0.65156066 0.32911137 -0.101097845 -0.07988289 0.16606 -0.33104706 -0.24477474
0.619359 0.38256022 -0.2167292 -0.22004181 -0.25724933 0.017931107 -0.92285794 -0.3658361
0.16441686 -0.59245324 0.20744528 -0.46291688 -0.056797486 0.07873905 0.41223487 0.6865076
0.39752892 -0.5555606 0.2606767 -0.009141289 0.1590781 0.09224127 0.1058507 -0.12269819
-0.6667491 0.032332364 -0.29701337 -0.10561607 0.030000994 0.22877087 0.35567486 -0.49413207
0.30022097 0.7541749 0.13626952 -0.36954185 0.08480504 -0.85623735 -0.12608622 0.3034332
-0.19912797 0.41818035 -0.303433 0.48122117 -0.105236776 0.17652948 -0.2598582 -0.14122283
0.15449136 0.6223592 -0.34871158 0.17626256 -0.051781148 0.43659905 -0.94971836 -0.10190908
0.28375828 -0.39806148 0.12530592 -0.4961 0.075433485 0.54724145 0.48340073 0.2254198
-0.09942253 -0.056629185 0.008517904 0.15328981 0.13328652 -0.045828238 -0.08791758 0.22889756
-0.055395305 -0.18226948 -0.22316739 0.056046624 0.2679818 0.11647203 -0.1330456 -0.04825973
-0.28123033 0.14853543 0.13255477 -0.12698857 0.097137846 -0.12044005 0.088735335 0.012641811
-0.045720056 -0.48716316 0.100387976 -0.20764613 0.2717362 -0.02887896 0.0035384714 0.17246154
0.033601675 0.2974057 0.51402175 0.30701596 -0.29283178 -0.10738407 0.065448925 0.028509181
0.16814037 0.44800445 -0.19007395 0.07519773 -0.4152436 0.039844416 -0.32091105 0.48804614

decoder.fc2.bias f4 [27]
00000000: f932 393d 68fc 85bd c8b6 b6bd faa9 ce3c
00000010: e3da b83d e9a2 7bbe b542 6a3c dcbc 5dbd
00000020: 5fe4 533e d3a5 82bc 0b4b 3d3e 4eaa 96bd
00000030: cad3 51bd d390 ae3e f6e2 413e 15ba 193e
00000040: 0bbf 463d 57ea fb3c fc13 033e 5cea d5bc
00000050: 57bc e53d 7a01 47be 2026 30bd aa5d d0bd
00000060: e4ce 03be 14ec 883d 38fc a33c
0.045214627 -0.06542283 -0.089215815 0.025227536 0.09026124 -0.24573864 0.014298131 -0.05413519
0.20692585 -0.015948212 0.18485658 -0.07356702 -0.05122737 0.34094867 0.18934235 0.15012391
0.048522037 0.03075139 0.12800592 -0.026112728 0.112175636 -0.19434157 -0.04300511 -0.10174115
-0.12871891 0.06685653 0.020017728
