data/model.pkl (torch, 11173 bytes, 10 tensors)

encoder.fc1.weight f4 [26, 27]
0.32671094 0.054405022 0.10443684 0.50701934 0.16669483 -0.38424838 0.0701674 -0.25929922
-0.029447518 -0.25069767 -0.27385518 -0.022880822 -0.048763543 0.25191852 -0.07598607 0.48486704
0.35497743 0.018846765 0.61627513 0.39752632 0.17076804 0.12633815 -0.402731 -0.017691795
0.12185984 0.7922047 0.6822098 0.31256634 0.2650793 0.22510996 -0.3646026 -0.48286933
-0.5081103 -0.13993634 0.023035476 -0.06148528 0.049577765 -0.3476579 -0.54169405 -0.40502778
0.18300322 -0.09317475 0.119867 -0.25710398 -0.7192544 -0.70347893 -0.27855468 -0.31675753
0.18892719 0.2882422 -0.18652315 0.1771336 0.48398492 0.261633 0.061496083 -0.07924056
0.24348298 -0.23425269 -0.19957264 0.20742671 -0.12420167 -0.23713641 0.14789714 0.009425455
0.049018037 0.22189033 0.1573899 -0.11532541 -0.44578126 -0.31917408 -0.22989331 -0.27329284
0.055813953 -0.3314094 -0.5919149 -0.022093216 0.10733516 0.036840066 -0.024175603 0.027451536
-0.42284378 0.101416804 0.20522365 0.46613374 -0.73530084 0.046612836 -0.056391556 0.15869507
-0.13297455 -0.4283613 0.12772104 -0.27773932 -0.38489398 -0.13654612 -0.6908997 -0.32692173
-0.70160246 -0.5086912 -0.0021359636 -0.759718 0.06392695 -0.45445332 -0.0651224 0.3704148
-0.087983735 -0.08070496 0.078782044 0.579192 0.025432346 -0.36355788 -0.47210118 -0.042757653
-0.1395548 0.16527228 -0.32668364 0.04882391 -0.12893191 -0.036380354 0.083105356 0.42944336
0.28516257 -0.18421207 -0.06495232 -0.36282203 -0.060838446 0.21717568 0.2025036 -0.42746815
-0.11455514 -0.27905032 0.1044072 0.038621895 0.050255835 -0.59420395 -0.57800597 0.23711708
-0.031290263 -0.100088924 0.063648626 -0.5061485 -0.5205584 -0.29641837 -0.24244153 0.26373273
-0.1813146 -0.009046962 0.097642034 -0.34416133 0.16771777 0.24013908 -0.20786525 0.2501837
-0.692498 -0.3445463 -0.38629493 -0.49324405 0.15335217 -0.23480223 0.0070261396 0.31008747
-0.17799065 -0.53166574 -0.31649446 -0.19188893 0.015647305 0.52344733 -0.15627027 0.34518847
-0.30290774 -0.054379478 0.22347263 -0.15640004 0.2475758 0.21965335 -0.046255894 0.15835418
-0.24035867 0.2812498 0.25083938 0.44184476 0.598256 0.041610084 0.39828217 -0.3432828
0.3200344 -0.19556423 0.18717378 -0.19778283 -0.40391427 -0.16720533 0.01430267 0.16672799
-0.8113274 -0.4531868 0.042815983 0.27739468 0.38382092 -0.2292229 -0.036644496 0.06394433
-0.24005528 0.07325902 -0.35575736 -0.6499328 -0.24507323 -0.44659477 0.45180178 -0.42561677
-0.14261553 -0.17296833 -0.21714997 0.6547881 0.2045759 -0.06381341 0.2752976 0.041439835
-0.14292172 -0.31012544 -0.28818962 0.29229617 -0.39715877 0.36982656 -0.5333296 -0.21061675
-0.2236105 0.24878266 0.104775615 0.18990216 0.13943638 -0.105444536 -0.21128319 0.18268244
0.10477163 0.27428436 -0.050896645 -0.5979806 -0.18234095 -0.07441697 0.24096066 -0.21871912
0.28173107 -0.23618707 -0.64665943 -0.16387182 -0.046468884 -0.042856764 -0.44861794 -0.05286504
-0.03547764 0.17672414 0.052466 0.44858652 0.14750287 0.117233574 0.7708201 0.1326109
00000000: a846 a73e cdd7 5e3d fbe2 d53d 05cc 013f
00000010: 0db2 2a3e 34bc c4be edb3 8f3d dec2 84be
00000020: ec3b f1bc 725b 80be bf36 8cbe 9070 bbbc
00000030: 48bc 47bd 77fb 803e 969e 9bbd 7e40 f83e
00000040: 9abf b53e 8864 9a3c 35c4 1d3f 9288 cb3e
00000050: d1dd 2e3e ca5e 013e c232 cebe 62ee 90bc
00000060: a791 f93d edcd 4a3f 4da5 2e3f b208 a03e
00000070: 79b8 873e 3a83 663e 31ad babe a63a f7be
00000080: 8413 02bf 794b 0fbe e5b4 bc3c fdd7 7bbd
00000090: 0e12 4b3d 3700 b2be 76ac 0abf cd5f cfbe
000000a0: 3265 3b3e 67d2 bebd d47c f53d 22a3 83be
000000b0: 0e21 38bf 3217 34bf b89e 8ebe 0b2e a2be
000000c0: 2176 413e 7b94 933e edff 3ebe 8362 353e
000000d0: dfcc f73e c3f4 853e 51e3 7b3d e048 a2bd
000000e0: 9a53 793e f0df 6fbe c55c 4cbe ab67 543e
000000f0: 725d febd e3d3 72be 5972 173e 396d 1a3c
00000100: 23c7 483d 3837 633e d12a 213e bb2f ecbd
00000110: 713d e4be c96a a3be 2769 6bbe 0aed 8bbe
00000120: 2c9d 643d 7eae a9be bc87 17bf d5fc b4bc
00000130: 89d2 db3d 9ce5 163d ea0b c6bc 0be2 e03c
00000140: fb7e d8be 9db3 cf3d 2626 523e 15a9 ee3e
00000150: ad3c 3cbf 1aed 3e3d d5fa 66bd f680 223e
00000160: 7b2a 08be 2c52 dbbe 4ec9 023e d933 8ebe
00000170: d310 c5be bfd2 0bbe cede 30bf 4962 a7be
00000180: 389c 33bf 9639 02bf 86fb 0bbb e17c 42bf
00000190: 22ec 823d 1bae e8be e55e 85bd 02a7 bd3e
000001a0: d130 b4bd a448 a5bd 7b58 a13d ed45 143f
000001b0: 7f57 d03c 4224 babe 3fb7 f1be a622 2fbd
000001c0: 74e7 0ebe 233d 293e 1443 a7be 95fb 473d
000001d0: ba06 04be 9103 15bd 2433 aa3d 00e0 db3e
000001e0: d400 923e 17a2 3cbe b905 85bd cfc3 b9be
000001f0: bc31 79bd 4d63 5e3e 1b5d 4f3e 1bdd dabe
00000200: e39b eabd afdf 8ebe 71d3 d53d fe31 1e3d
00000210: 10d9 4d3d c01d 18bf 33f8 13bf d2ce 723e
00000220: 382a 00bd 6cfb ccbd 365a 823d f392 01bf
00000230: 5143 05bf 26c4 97be 9842 78be fa07 873e
00000240: 89aa 39be b539 14bc 8cf8 c73d ea35 b0be
00000250: 35be 2b3e 05e7 753e a1da 54be 1418 803e
00000260: 8d47 31bf 5f68 b0be 73c8 c5be 7c8a fcbe
00000270: 5a08 1d3e ff6f 70be 883b e63b c9c3 9e3e
00000280: 2e43 36be 3f1b 08bf 900b a2be 887e 44be
00000290: c72e 803c a500 063f 5005 20be 8bbc b03e
000002a0: b916 9bbe 04bd 5ebd 02d6 643e 5527 20be
000002b0: 8384 7d3e cfec 603e d276 3dbd 9927 223e
000002c0: 9520 76be f9ff 8f3e 056e 803e 7a39 e23e
000002d0: 4e27 193f 566f 2a3d a4eb cb3e c3c2 afbe
000002e0: 8ddb a33e fd41 48be 7caa 3f3e 9587 4abe
000002f0: dacd cebe e037 2bbe bf55 6a3c beba 2a3e
00000300: 27b3 4fbf 1a08 e8be d05f 2f3d ad06 8e3e
00000310: 2d84 c43e 68b9 6abe 8a18 16bd 3ff5 823d
00000320: 0dd1 75be d308 963d d425 b6be ff61 26bf
00000330: 7af4 7abe 12a8 e4be 9052 e73e 71ea d9be
00000340: ce09 12be 9c1e 31be 905c 5ebe 31a0 273f
00000350: 587c 513e 9bb0 82bd cff3 8c3e d1bc 293d
00000360: 125a 12be c3c8 9ebe 978d 93be d8a7 953e
00000370: 6558 cbbe e859 bd3e 4a88 08bf ebab 57be
00000380: 27fa 64be e2c0 7e3e 9994 d63d b675 423e
00000390: 69c8 0e3e 4ef3 d7bd 9f5a 58be 1b11 3b3e
000003a0: 8292 d63d 006f 8c3e 0079 50bd 4215 19bf
000003b0: 96b7 3abe ed67 98bd 64be 763e e8f7 5fbe
000003c0: 0e3f 903e 06db 71be 798b 25bf 04ce 27be
000003d0: 2856 3ebd 938a 2fbd 40b1 e5be 0389 58bd
000003e0: 0051 11bd 2cf7 343e 97e6 563d 22ad e53e
000003f0: fe0a 173e 2818 f03d 7754 453f 27cb 073e

encoder.fc1.bias f4 [26]
0.17682123 -0.30645204 -0.013570857 -0.23219016 -0.12976503 0.06839515 -0.15057951 -0.19422297
-0.32255796 -0.14634697 0.044351712 0.06680822 0.018904297 -0.006976729 -0.34559387 -0.34233525
-0.22332413 0.03832677 -0.054800674 0.15242113 -0.014472032 -0.2334594 -0.12735024 -0.088291235
-0.1431027 -0.1474826
00000000: a010 353e 48e7 9cbe 4d58 5ebc 42c3 6dbe
00000010: 20e1 04be c212 8c3d 8431 1abe 63e2 46be
00000020: 5126 a5be fbdb 15be 24aa 353d c0d2 883d
00000030: 2fdd 9a3c 0b9d e4bb aef1 b0be 9146 afbe
00000040: 15af 64be 88fc 1c3d ac76 60bd 4914 1c3e
00000050: 1a1c 6dbc fb0f 6fbe 1a68 02be 09d2 b4bd
00000060: 8489 12be ae05 17be

encoder.fcmu.weight f4 [4, 26]
0.30614254 0.023302231 -0.41316676 -0.32902005 -0.15772839 0.17453383 -0.14739001 -0.6690402
-0.27447978 0.030335287 0.33101776 -0.07626702 -0.57305074 -0.14216168 0.03765603 -0.104215086
0.33104908 0.12869315 0.0009090479 -0.43996507 0.160325 0.049583703 0.059960667 -0.34049642
0.09783794 0.5644758 -0.13550797 -0.00014944974 0.249392 -0.3259945 0.32716107 0.3474942
0.035862237 -0.015076069 0.15138367 0.39546904 0.03622385 0.4256545 0.036877126 -0.2987274
0.26297396 -0.21609092 0.36267725 -0.16820094 0.040358607 0.2154299 -0.3843926 -0.23761576
-0.39907232 -0.5648328 -0.07052071 0.3415343 -0.26314357 -0.10592614 0.046020295 0.42672223
0.035459477 -0.1839815 -0.20277037 0.2549482 -0.23258305 0.40010938 -0.042984754 -0.040328026
-0.5264205 0.13855535 0.5671176 -0.24215563 0.31712222 -0.32869977 -0.025861705 -0.14955892
0.036808908 -0.4634167 0.6765776 0.029831117 0.22913808 -0.19392772 0.15931931 0.52460337
0.11544841 0.46980163 -0.34183094 0.11424521 -0.28028807 -0.077461064 -0.3431911 -0.01949538
0.14275186 0.3770235 0.14084528 -0.33328077 0.18249093 0.1613476 -0.20116304 0.04081651
-0.09302382 -0.2199514 -0.24910466 0.33102793 0.0368467 -0.14937016 -0.3743072 -0.20929848
00000000: b7be 9c3e 52e4 be3c 988a d3be 5175 a8be
00000010: 8d83 21be ffb8 323e 68ed 16be 3846 2bbf
00000020: 9d88 8cbe b581 f83c 297b a93e e231 9cbd
00000030: 74b3 12bf d592 11be 363d 1a3d b86e d5bd
00000040: 447f a93e 23c8 033e 2c4d 6e3a 1a43 e1be
00000050: 3d2c 243e 4818 4b3d 5199 753d 8c55 aebe
00000060: 425f c83d 7c81 103f 9ac2 0abe 9cb5 1cb9
00000070: 9e60 7f3e c0e8 a6be a881 a73e c3ea b13e
00000080: 48e4 123d 9e01 77bc 5204 1b3e eb7a ca3e
00000090: 765f 143d 63ef d93e 780c 173d ccf2 98be
000000a0: 86a4 863e f046 5dbe d5b0 b93e de3c 2cbe
000000b0: 114f 253d a899 5c3e 1bcf c4be 8c51 73be
000000c0: 3553 ccbe e298 10bf 296d 90bd 95dd ae3e
000000d0: c1ba 86be ceef d8bd c77f 3c3d 567b da3e
000000e0: f53d 113d a565 3cbe 09a3 4fbe 9288 823e
000000f0: 402a 6ebe 23db cc3e c810 30bd 002f 25bd
00000100: 7ec3 06bf 74e1 0d3e 9e2e 113f a5f7 77be
00000110: d85d a23e 564b a8be eddb d3bc f925 19be
00000120: f0c4 163d f444 edbe 3134 2d3f 6360 f43c
00000130: 2ca3 6a3e fd94 46be 9a24 233e 684c 063f
00000140: 3770 ec3d d789 f03e 7704 afbe 65f9 e93d
00000150: eb81 8fbe e8a3 9ebd beb6 afbe c6b4 9fbc
00000160: 8b2d 123e 3909 c13e bf39 103e c7a3 aabe
00000170: e7de 3a3e 4e38 253e affd 4dbe 362f 273d
00000180: 4683 bebd f13a 61be 4b15 7fbe 7e7c a93e
00000190: 91ec 163d 7ef4 18be 31a5 bfbe 5752 56be

encoder.fcmu.bias f4 [4]
0.05518522 -0.15836677 0.11413963 0.14021713
00000000: e609 623d e62a 22be 0ac2 e93d 1495 0f3e

encoder.fcsig.weight f4 [4, 26]
-0.10352281 0.13330509 -0.16189705 -0.01167897 -0.26672262 0.01921332 -0.1418136 -0.060903143
-0.12663884 -0.17953445 -0.2776171 -0.15397374 0.076226935 -0.26778919 0.09175201 -0.07836744
-0.13397849 -0.09212772 -0.119688064 0.012802483 -0.052141864 -0.0029227973 -0.07058708 -0.019043254
0.05530961 -0.1071002 -0.29771903 0.061082754 -0.17825742 -0.085077174 -0.055038854 0.21011293
-0.13621789 -0.16256632 0.08542696 -0.17359327 -0.26772994 -0.04734313 -0.11624876 -0.07477912
0.14788702 -0.052803706 -0.079991534 -0.21677583 -0.34573397 -0.13542573 -0.11383209 0.22661103
0.047608145 0.0038585062 -0.16181935 -0.17584579 -0.4237185 -0.24244681 -0.11777717 -0.008468787
0.06414866 0.026832448 0.09879682 -0.18857573 -0.14280751 0.029118735 -0.3612009 -0.18578672
0.048650824 -0.016543627 0.07817175 -0.00432553 -0.20304465 -0.18122263 -0.31633556 -0.101699226
-0.23161288 0.113476425 0.0970631 -0.04508095 -0.14388946 0.17046288 -0.34829035 -0.013203382
-0.35539293 -0.033107724 -0.09492719 -0.12075296 0.018918034 -0.17771706 -0.01956122 -0.24576446
-0.13481544 -0.1819714 0.002986141 -0.034957163 0.15309386 -0.0351126 0.08770901 -0.23330592
-0.13936876 -0.2263234 -0.11999519 -0.0784435 -0.18564357 -0.048018053 -0.0072404374 0.13865516
00000000: c403 d4bd 2181 083e 57c8 25be 2759 3fbc
00000010: de8f 88be 4165 9d3c 9637 11be 9375 79bd
00000020: 9dad 01be e1d7 37be d423 8ebe 4bab 1dbe
00000030: de1c 9c3d aa1b 89be 7ae8 bb3d 1c7f a0bd
00000040: a831 09be 75ad bcbd 041f f5bd 81c1 513c
00000050: b592 55bd 678c 3fbb f68f 90bd 9900 9cbc
00000060: 548c 623d 5a57 dbbd a16e 98be e931 7a3d
00000070: 1d89 36be f13c aebd 6c70 61bd d827 573e
00000080: b47c 0bbe c977 26be 54f4 ae3d 6fc2 31be
00000090: e613 89be dfea 41bd d413 eebd cc25 99bd
000000a0: b26f 173e b348 58bd 9ad2 a3bd 7cfa 5dbe
000000b0: 0b04 b1be 0bad 0abe cc20 e9bd b90c 683e
000000c0: c200 433d fede 7c3b f9b3 25be eb10 34be
000000d0: a2f1 d8be fa43 78be 2835 f1bd abc0 0abc
000000e0: 5f60 833d b9cf db3c fd55 ca3d ff19 41be
000000f0: 223c 12be 6a8a ee3c 53ef b8be e03e 3ebe
00000100: 1646 473d 8086 87bc 8318 a03d 2dbd 8dbb
00000110: f0ea 4fbe 6d92 39be bcf6 a1be af47 d0bd
00000120: ed2b 6dbe 5466 e83d 05c9 c63d cda6 38bd
00000130: c257 13be d28d 2e3e 1d53 b2be ff52 58bc
00000140: 10f6 b5be f79b 07bd 3069 c2bd 544d f7bd
00000150: fef9 9a3c 76fb 35be da3e a0bc aea9 7bbe
00000160: 0f0d 0abe b656 3abe 22b3 433b 3e2f 0fbd
00000170: a3c4 1c3e 3bd2 0fbd c8a0 b33d bfe7 6ebe
00000180: afb6 0ebe 52c1 67be 0ac0 f5bd fca6 a0bd
00000190: 5919 3ebe 94ae 44bd 3141 edbb 9efb 0d3e

encoder.fcsig.bias f4 [4]
0.030753385 -0.23819995 -0.12382613 -0.09006435
00000000: 86ee fb3c b0ea 73be 8e98 fdbd a873 b8bd

decoder.fc1.weight f4 [26, 4]
-0.23631082 -0.59031713 0.12793113 0.02155023 -0.16555783 -0.12479488 -0.4112991 0.003230323
0.48349476 0.40363288 0.08340477 0.14581338 -0.52349865 0.1317222 -0.2859117 -0.07807505
0.15810423 0.09735161 0.26680705 0.51449215 -0.033632077 -0.687874 -0.12127911 0.28995383
-0.3883889 0.47785944 -0.26203468 0.16603377 0.56332606 0.21647306 0.48669326 0.012583759
-0.13579701 -0.111840226 -0.1993569 0.57040685 -0.2442839 -0.21990934 0.016025176 -0.64938605
-0.13951252 -0.19172265 -0.42135566 0.8614349 -0.43953222 0.38959506 -0.04567282 -0.34868222
0.13982902 0.40357575 -0.5006895 0.27613983 0.23219627 0.6816835 0.09317785 -0.5053816
0.43418437 -0.4410877 0.34014297 -0.43811372 -0.11301741 0.26959005 0.77339256 -0.07225658
0.4621665 0.10269276 -0.40512863 0.27706757 0.18366662 0.46042305 -0.20230862 -0.36530063
-0.056531046 0.042621594 0.63002115 0.322605 -0.16258007 -0.5412315 0.33692566 0.4365746
-0.20259033 0.66209435 -0.21247548 0.24622272 -0.20862573 0.016118381 -0.6850382 0.27145812
0.01018868 -0.8352255 -0.40035632 -0.4619353 -0.5184901 0.13253528 -0.10555544 -0.56669676
-0.46120676 -0.76282406 0.34861347 -0.06834504 0.026751475 0.40765312 0.3618645 0.5765195
00000000: 77fb 71be 061f 17bf 6100 033e 1c8a b03c
00000010: fe87 29be 7594 ffbd cc95 d2be d4b3 533b
00000020: a08c f73e f8a8 ce3e 1fd0 aa3d 1a50 153e
00000030: 0204 06bf 2fe2 063e 0563 92be d0e5 9fbd
00000040: 13e6 213e 4860 c73d ef9a 883e c2b5 033f
00000050: cac1 09bd 8318 30bf 2f61 f8bd d474 943e
00000060: e9da c6be fea9 f43e 6929 86be c204 2a3e
00000070: 2336 103f 1dab 5d3e dc2f f93e 1c2c 4e3c
00000080: 5f0e 0bbe 7d0c e5bd 3724 4cbe 2f06 123f
00000090: 8f25 7abe ea2f 61be 3b47 833c 2a3e 26bf
000000a0: 5fdc 0ebe f152 44be eebb d7be ff86 5c3f
000000b0: 5e0a e1be 0179 c73e 6c13 3bbd 7a86 b2be
000000c0: 572f 0f3e 7ba1 ce3e 302d 00bf 3362 8d3e
000000d0: dcc4 6d3e cf82 2e3f 07d4 be3d b060 01bf
000000e0: 6a4d de3e 3fd6 e1be 3827 ae3e 7150 e0be
000000f0: ac75 e7bd b507 8a3e 0efd 453f 42fb 93bd
00000100: 16a1 ec3e 9550 d23d 056d cfbe cddb 8d3e
00000110: 1a13 3c3e 92bc eb3e fe29 4fbe af08 bbbe
00000120: 198d 67bd fb93 2e3d 1149 213f 7c2c a53e
00000130: 647b 26be 268e 0abf 8581 ac3e b586 df3e
00000140: d773 4fbe 047f 293f 2c93 59be cf21 7c3e
00000150: fca1 55be b20a 843c aa5e 2fbf 8ffc 8a3e
00000160: 6cee 263c 57d1 55bf 81fb ccbe c982 ecbe
00000170: c4bb 04bf 54b7 073e 732d d8bd 0a13 11bf
00000180: 4b23 ecbe 7048 43bf 777d b23e 7cf8 8bbd
00000190: e925 db3c e9b7 d03e 4e46 b93e c896 133f

decoder.fc1.bias f4 [26]
-0.0794004 0.24887106 -0.26992777 0.2787723 -0.4336428 0.096010745 -0.44443554 -0.08054967
-0.43148017 0.026314938 -0.10210695 -0.2546473 -0.3229235 -0.36654213 0.30708933 0.13007125
0.24474819 0.177265 -0.30827978 0.30468464 0.11917555 -0.44794568 -0.20887193 -0.2720853
-0.24206506 0.2847103
00000000: ad9c a2bd 0ed8 7e3e f933 8abe 3ebb 8e3e
00000010: 6e06 debe 48a1 c43d 0e8d e3be 3af7 a4bd
00000020: f8ea dcbe 6d92 d73c 731d d1bd 2261 82be
00000030: 3b56 a5be 69ab bbbe d03a 9d3e 6631 053e
00000040: 459f 7a3e f584 353e d9d6 9dbe a0ff 9b3e
00000050: 5012 f43d 2359 e5be 86e2 55be c44e 8bbe
00000060: e7df 77be 8cc5 913e

decoder.fc2.weight f4 [27, 26]
-0.101095535 -0.11371627 0.16894965 0.029351853 0.20665692 0.14457314 0.008732192 -0.01760629
0.42293596 0.011974717 0.38248274 0.07516119 0.03469616 0.10162302 0.111905925 0.09473894
0.16365637 0.046197727 0.18710747 0.23151839 0.08572221 -0.08624358 -0.36662397 -0.16590461
-0.087909825 0.20500223 -0.13437128 -0.29661843 0.15213518 -0.22693363 0.30830842 -0.08903859
0.1879285 -0.2806969 0.11242146 -0.19386874 0.2706815 0.19115795 -0.1027525 0.05565881
-0.27429006 -0.091485895 -0.06746791 -0.21822391 0.10933714 0.15236884 0.16357855 -0.14480032
0.058551803 -0.014788907 -0.25336877 0.06348047 0.07596338 0.23764697 0.071453705 0.032353982
0.34546605 0.37142378 -0.10846014 -0.14235617 -0.13678215 -0.0099905105 0.26087925 -0.22288997
-0.18736629 -0.46085113 -0.06117641 -0.038176343 0.15363298 -0.38988027 0.24221055 0.14629681
0.112419575 -0.108254746 0.13549913 -0.11931603 0.21826452 0.21511364 0.06450893 -0.17557144
0.17863408 0.061272316 -0.31157833 0.14599434 0.19066359 -0.38946274 0.13839824 0.063701086
0.086354166 -0.33125266 0.4333624 -0.097519614 -0.051737443 -0.6478414 -0.12082608 -0.2029877
-0.24280384 -0.19833736 0.26372576 -0.060636103 0.4830129 0.041272834 0.25092387 -0.0027441753
-0.036895126 -0.027339462 -0.3706816 -0.25973666 0.07427141 0.3314415 -0.068373606 -0.1525163
-0.15299459 0.0026693558 -0.20879713 -0.18281151 -0.26892662 -0.13784784 0.3479982 -0.04213836
-0.22558106 -0.12295088 0.034188386 0.34493652 0.050999075 -0.5091212 0.42956823 -0.27686745
-0.0963379 -0.22966126 0.0612708 -0.030803908 -0.19452463 0.09015469 0.47388873 -0.098406926
-0.0194962 -0.18771613 0.15911806 0.35800502 -0.18029721 0.1795324 0.031763576 0.11330991
-0.08004316 -0.043039653 -0.23068152 0.17210887 -0.03832821 0.07086683 0.22616626 -0.37903333
-0.062425155 0.095781416 0.14811504 -0.32087764 0.08298725 -0.20617831 0.1625488 -0.0856954
-0.20403051 -0.1533162 -0.32341796 0.047497492 -0.10944489 0.0014950706 0.148708 -0.13088487
-0.2799992 0.048090793 0.29858997 0.21106358 -0.0707119 -0.12670527 0.08337857 0.13191862
0.029362526 -0.40535328 -0.35369822 -0.32909128 0.17376244 0.28936926 0.10986806 -0.29985562
-0.08387149 -0.09216034 0.33869195 -0.2566451 0.08526685 0.0057996567 -0.37765118 -0.08945821
-0.384574 0.2237916 -0.32478642 0.08646694 0.08612817 0.48737615 -0.2507755 -0.014172154
0.29470366 0.031911723 0.15742542 -0.49215624 0.09864237 0.2547234 0.2818609 0.07483329
-0.41989315 0.18084964 0.24917771 0.24382226 0.040823303 -0.2613875 0.21177188 -0.13627034
0.06897368 -0.24109638 0.32425457 0.054675527 0.119465604 -0.09680306 -0.17832099 0.038827404
0.30037746 0.08150926 0.00459517 -0.00043258886 0.44048116 0.02420453 -0.28362548 0.08248643
-0.4971652 0.21706924 0.12778664 0.0019083933 0.21581356 0.14495373 0.2272751 -0.0032798077
0.03848342 0.26095098 -0.03123734 -0.0865334 -0.21094617 0.17927048 -0.011685343 0.21050219
0.10290793 0.14532273 -0.2472423 -0.22157268 0.07632894 0.18473253 0.038571868 0.0726813
00000000: 2d0b cfbd 13e4 e8bd 2301 2d3e 4c73 f03c
00000010: df9d 533e fb0a 143e 7811 0f3c 113b 90bc
00000020: 108b d83e 9a31 443c c7d4 c33e 1cee 993d
00000030: 901d 0e3d bb1f d03d ef2e e53d 7d06 c23d
00000040: 8995 273e d439 3d3d 1a99 3f3e 2813 6d3e
00000050: 208f af3d 79a0 b0bd 23b6 bbbe e6e2 29be
00000060: 110a b4bd 1bec 513e a098 09be 5fde 97be
00000070: 53c9 1b3e 4a61 68be 9ada 9d3e dd59 b6bd
00000080: 5470 403e 81b7 8fbe 393d e63d 8785 46be
00000090: c496 8a3e e9be 433e e76f d2bd 7efa 633d
000000a0: bf6f 8cbe f55c bbbd 9e2c 8abd 1776 5fbe
000000b0: 27ec df3d 9406 1c3e 2381 273e 8946 14be
000000c0: 04d4 6f3d 2c4d 72bc 8db9 81be 0c02 823d
000000d0: b092 9b3d ba59 733e 5256 923d 9c85 043d
000000e0: ede0 b03e 422b be3e 5a20 debd d1c5 11be
000000f0: 9f10 0cbe 3daf 23bc f791 853e 453d 64be
00000100: f3dc 3fbe aef4 ebbe 1e94 7abd cc5e 1cbd
00000110: f751 1d3e 639e c7be 0b06 783e d5ce 153e
00000120: 3c3c e63d aab4 ddbd 49c0 0a3e f65b f4bd
00000130: bc80 5f3e c046 5c3e 421d 843d 00c9 33be
00000140: daeb 363e aef8 7a3d 3287 9fbe 8a7f 153e
00000150: 513d 433e a967 c7be 45b8 0d3e b775 823d
00000160: 74da b03d f399 a9be ade1 dd3e 5db8 c7bd
00000170: a4ea 53bd efd8 25bf aa73 f7bd 02dc 4fbe
00000180: 92a1 78be f318 4bbe 1007 873e 905d 78bd
00000190: 784d f73e b40d 293d 1879 803e 9fd7 33bb
000001a0: 581f 17bd 02f7 dfbc fbc9 bdbe 34fc 84be
000001b0: 9c1b 983d b3b2 a93e 7607 8cbd 3c2d 1cbe
000001c0: 9daa 1cbe 5cf0 2e3b eace 55be f132 3bbe
000001d0: c0b0 89be fc27 0dbe d22c b23e 4699 2cbd
000001e0: b9fe 66be accd fbbd 1f09 0c3d 859b b03e
000001f0: 68e4 503d c455 02bf 5ef0 db3e 92c1 8dbe
00000200: ce4c c5bd 522c 6bbe 17f7 7a3d 7a58 fcbc
00000210: 7731 47be 06a3 b83d 8ba1 f23e 9289 c9bd
00000220: 7fb6 9fbc a838 40be d8ef 223e 6f4c b73e
00000230: d59f 38be 57d7 373e 861a 023d 070f e83d
00000240: abed a3bd 594a 30bd c737 6cbe 4f3d 303e
00000250: 0bfe 1cbd a122 913d 2198 673e a810 c2be
00000260: 85b1 7fbd 0c29 c43d 78ab 173e 134a a4be
00000270: 38f5 a93d 6820 53be 3173 263e 1281 afbd
00000280: 60ed 50be ecfe 1cbe 0a97 a5be bb8c 423d
00000290: a424 e0bd 3ff6 c33a e946 183e af06 06be
000002a0: 0e5c 8fbe dafa 443d c9e0 983e 0d21 583e
000002b0: 67d1 90bd 07bf 01be 62c2 aa3d ad15 073e
000002c0: ae89 f03c 778a cfbe ef17 b5be a77e a8be
000002d0: c8ee 313e 3528 943e 8102 e13d ad86 99be
000002e0: d1c4 abbd 8fbe bcbd 0869 ad3e fd66 83be
000002f0: 63a0 ae3d 0c0b be3b 7f5b c1be de35 b7bd
00000300: e2e6 c4be a029 653e 684a a6be 9415 b13d
00000310: f763 b03d 5e89 f93e a565 80be 5232 68bc
00000320: 66e3 963e deb5 023d 2134 213e e7fb fbbe
00000330: 0305 ca3d 1b6b 823e 1250 903e 3242 993d
00000340: 3cfc d6be a630 393e 7128 7f3e 8bac 793e
00000350: 5636 273d 95d4 85be bada 583e 748a 0bbe
00000360: 1342 8d3d f8e1 76be b204 a63e 72f3 5f3d
00000370: 62aa f43d af40 c6bd c799 36be 7c09 1f3d
00000380: 13cb 993e 54ee a63d 1493 963b 18cd e2b9
00000390: bf86 e13e 9448 c63c 5c37 91be a5ee a83d
000003a0: 708c febe 6647 5e3e 80da 023e 0e23 fa3a
000003b0: 3bfe 5c3e c06e 143e ceba 683e 0bf2 56bb
000003c0: caa0 1d3d 5e9b 853e 73e5 ffbc 6c38 b1bd
000003d0: 4602 58be ae92 373e e273 3fbc e38d 573e
000003e0: 65c1 d23d 7bcf 143e 162d 7dbe f3e3 62be
000003f0: 5952 9c3d 862a 3d3e 89fd 1d3d efd9 943d

decoder.fc2.bias f4 [27]
-0.10706165 0.039636027 0.1286782 -0.091021456 -0.09389837 -0.074615724 0.3168708 0.07445468
0.25707468 0.1811059 -0.10642389 -0.21591464 -0.024064153 0.100544 0.11580914 -0.1464368
0.12915584 -0.08794347 -0.03530823 -0.09698964 0.14280915 0.11165382 -0.011518241 0.17697746
-0.18650684 0.16072825 0.0625146
00000000: 2343 dbbd 6359 223d 38c4 033e 7569 babd
00000010: ca4d c0bd 21d0 98bd e43c a23e b27b 983d
00000020: 4b9f 833e d373 393e c5f4 d9bd ba18 5dbe
00000030: 3022 c5bc 03ea cd3d 582d ed3d 87f3 15be
00000040: 6e41 043e b51b b4bd 5d9f 10bd 81a2 c6bd
00000050: 903c 123e c2aa e43d 01b7 3cbc 9439 353e
00000060: a6fb 3ebe f295 243e a807 803d
